checkpoint_actor_0.pth (torch, 165316 bytes, 10 tensors)

bn1.weight f4 [256]
0.9892181 1.0758773 1.1841547 0.983263 1.0303476 1.0119507 1.2098008 1.0994092
1.4541471 1.2336453 1.1879259 1.0097955 1.1092663 0.97601354 1.0876426 1.1397016
1.2150091 1.6478075 1.1034896 1.0969361 1.1856987 1.245489 1.1768427 1.0531042
1.1516134 1.1805522 0.934307 1.0026646 0.97566235 1.278415 1.0548365 1.0070972
1.0107155 0.95766836 1.001411 1.164477 1.1062187 1.0079775 1.137495 1.0505402
1.0733773 1.0506663 0.96689785 0.96826893 1.5680208 1.1552947 1.1176519 1.2837331
1.2699729 1.0827473 1.0734991 1.2591949 1.101072 1.0409954 1.046201 0.9501452
1.0515605 1.0020765 1.094153 0.9791974 1.1137116 1.118552 0.98511684 1.2978796
0.89455384 1.1226921 1.0308925 1.0718868 1.0485028 1.149131 1.0689423 1.0512211
0.97795665 0.99316657 1.2544588 1.06598 1.081875 1.6244884 1.0541886 0.9871882
1.0057468 1.0095096 1.2683845 1.0123043 1.2183431 1.0041361 1.0678208 1.0531006
0.8356191 0.98398966 1.1391879 1.1646228 1.0490273 1.0435145 0.881876 1.0597994
1.3678437 1.1376113 1.0357685 1.215997 0.9906127 1.1178674 1.0558933 0.9956662
1.1383644 1.0159922 1.1475377 1.1284249 1.1931556 0.97048527 1.2762083 1.1315109
1.042455 1.1830117 1.0535128 1.1310402 1.1815251 1.1141961 1.1928682 1.2155513
1.0456245 1.0618441 1.0699166 1.0221288 1.4647579 1.0745391 1.011986 1.1990768
1.0472219 0.94452333 1.0972344 1.0423504 1.4355615 1.4011824 1.0140512 1.1801782
1.2112203 1.065521 1.0008091 1.3009202 1.1034135 1.2447907 1.0717082 1.2834605
1.3057691 1.0543991 1.1962088 1.1136487 1.0681759 1.1008679 0.99443126 1.0029113
1.0833173 1.2944441 1.1763142 1.1820954 1.121718 1.1394502 0.8198707 1.0008658
0.99257207 1.8296705 1.2003852 1.067713 1.0297142 1.1382202 1.1230363 0.9900991
1.0354162 1.100792 1.1066984 0.99291337 0.9675583 1.0848722 1.2932849 1.1441053
0.9525774 1.1642984 1.3296186 1.0755203 1.1880547 1.0764937 1.2696527 1.0574772
1.167754 1.0515987 1.1699713 1.0485044 0.99323285 1.0092082 1.2068838 1.0554471
1.2229553 1.1743515 1.1197499 1.2652075 1.0094764 1.0962948 1.1784916 1.0855665
1.4100797 0.9798559 1.6139922 1.1852762 1.0679357 1.0388935 1.2074075 1.2113867
1.2821797 1.0790285 1.0974938 1.0545532 1.0621742 1.0703186 1.1713322 1.0127282
1.0861002 1.2193389 1.0565972 1.1283593 1.0123423 1.0411867 1.0495028 0.93077743
1.0528066 0.8998753 1.1213131 1.0281755 0.9938023 1.2972684 1.1595895 1.1854178
1.0031182 1.0538833 1.072868 1.1210482 1.335405 1.1056236 1.0335561 1.3417842
1.2501936 1.1220307 1.0412592 1.1331939 1.010311 1.0101286 1.126938 1.2353545
1.4294442 1.148893 1.1376197 1.0555791 1.108422 1.2041488 0.9910268 1.086846
00000000: 663d 7d3f 59b6 893f 6292 973f 20b7 7b3f
00000010: 6ee2 833f 9a87 813f c1da 9a3f 71b9 8c3f
00000020: 7e21 ba3f 17e8 9d3f f50d 983f fb40 813f
00000030: 70fc 8d3f 06dc 793f df37 8b3f bee1 913f
00000040: 6b85 9b3f 5beb d23f 263f 8d3f 6768 8c3f
00000050: fac4 973f 2f6c 9f3f c8a2 963f 1ecc 863f
00000060: 1168 933f 561c 973f be2e 6f3f 5057 803f
00000070: 02c5 793f 1aa3 a33f e204 873f 90e8 803f
00000080: 205f 813f c129 753f 3c2e 803f 950d 953f
00000090: 9398 8d3f 6805 813f 7099 913f 1a78 863f
000000a0: 6d64 893f 3c7c 863f 9e86 773f 79e0 773f
000000b0: e8b4 c83f b2e0 933f 380f 8f3f 5e51 a43f
000000c0: 798e a23f 7797 8a3f 6b68 893f 4c2d a13f
000000d0: edef 8c3f 563f 853f eae9 853f b73c 733f
000000e0: 8999 863f 0b44 803f 350d 8c3f aeac 7a3f
000000f0: 1a8e 8e3f b62c 8f3f 9e30 7c3f eb20 a63f
00000100: 7b01 653f 60b4 8f3f 49f4 833f 9633 893f
00000110: 5735 863f b916 933f 1ad3 883f 6a8e 863f
00000120: 5e5b 7a3f 2a40 7e3f 1b92 a03f 0872 883f
00000130: e17a 8a3f 3cef cf3f a7ef 863f 5eb8 7c3f
00000140: 50bc 803f 9c37 813f 6c5a a23f 3093 813f
00000150: abf2 9b3f 8887 803f 5aae 883f 00cc 863f
00000160: 22eb 553f bfe6 7b3f e9d0 913f 5c12 953f
00000170: 8746 863f e291 853f a0c2 613f 82a7 873f
00000180: 8115 af3f 3f9d 913f 1094 843f caa5 9b3f
00000190: cb98 7d3f 4716 8f3f 8327 873f fbe3 7e3f
000001a0: edb5 913f 080c 823f 84e2 923f 3a70 903f
000001b0: 53b9 983f b971 783f cb5a a33f 59d5 903f
000001c0: 2a6f 853f ed6c 973f 82d9 863f edc5 903f
000001d0: 373c 973f fa9d 8e3f e8af 983f 2f97 9b3f
000001e0: 06d7 853f 82ea 873f 07f3 883f 1ed5 823f
000001f0: 307d bb3f 7f8a 893f c288 813f 597b 993f
00000200: 5e0b 863f 48cc 713f 2d72 8c3f bd6b 853f
00000210: 7bc0 b73f f259 b33f 6ecc 813f 1410 973f
00000220: 4409 9b3f fe62 883f 831a 803f 8e84 a63f
00000230: a73c 8d3f 4d55 9f3f bc2d 893f 6f48 a43f
00000240: 7123 a73f 8df6 863f 5f1d 993f 0a8c 8e3f
00000250: fdb9 883f 3de9 8c3f 0c93 7e3f 665f 803f
00000260: 24aa 8a3f 58b0 a53f 7791 963f e74e 973f
00000270: 7594 8f3f 81d9 913f 0ce3 513f 5f1c 803f
00000280: 3419 7e3f a532 ea3f 39a6 993f d2aa 883f
00000290: adcd 833f 33b1 913f a7bf 8f3f 2277 7d3f
000002a0: 8588 843f c1e6 8c3f 4ba8 8d3f 922f 7e3f
000002b0: e7b1 773f 18dd 8a3f 5c8a a53f 0b72 923f
000002c0: 1ddc 733f bb07 953f f130 aa3f a6aa 893f
000002d0: 2d12 983f 8cca 893f fb83 a23f 6a5b 873f
000002e0: f778 953f c99a 863f 9fc1 953f 6435 863f
000002f0: 8244 7e3f bc2d 813f 2b7b 9a3f e418 873f
00000300: cd89 9c3f 2651 963f f753 8f3f 52f2 a13f
00000310: 8636 813f 6353 8c3f d0d8 963f d8f3 8a3f
00000320: 7e7d b43f d6d7 7a3f 4c97 ce3f 21b7 973f
00000330: 1eb2 883f 76fa 843f 548c 9a3f b80e 9b3f
00000340: 771e a43f 9b1d 8a3f ad7a 8c3f 99fb 863f
00000350: 53f5 873f 3300 893f 37ee 953f 14a1 813f
00000360: 5505 8b3f 4c13 9c3f 943e 873f 146e 903f
00000370: 6f94 813f 9b45 853f 1c56 863f 6e47 6e3f
00000380: 5ec2 863f 3a5e 663f 3087 8f3f 419b 833f
00000390: d469 7e3f e40c a63f 6e6d 943f c5bb 973f
000003a0: 2d66 803f a6e5 863f bd53 893f 827e 8f3f
000003b0: 8dee aa3f 1385 8d3f 914b 843f 96bf ab3f
000003c0: 5806 a03f b49e 8f3f fb47 853f 7f0c 913f
000003d0: df51 813f e54b 813f 813f 903f 1920 9e3f
000003e0: 07f8 b63f ed0e 933f 869d 913f 371d 873f
000003f0: c6e0 8d3f 8c21 9a3f efb3 7d3f c51d 8b3f

bn1.bias f4 [256]
0.07580481 -0.085386075 0.17037226 0.0634059 0.071785346 -0.120778784 -0.10191016 -0.040387288
0.042248484 0.08978599 0.021100357 0.118301086 -0.11002369 -0.05460402 0.030892285 -0.25275716
0.015174431 0.08843522 0.06137616 0.10758224 -0.07325332 0.010673894 0.06914428 0.015135815
0.05637739 0.035148185 0.011556954 -0.18268085 -0.026343577 -0.111673996 -0.017872214 -0.15225008
-0.01522614 -0.030541802 -0.102271296 0.103346944 -0.12496295 -0.061707687 0.027268875 -0.19549672
0.06730223 -0.1252945 -0.02747534 -0.087144725 0.04117368 -0.025992673 -0.11853908 0.06271431
0.075310275 -0.025634296 0.052104633 0.06550693 -0.08105288 -0.17463325 0.117592156 0.100806005
-0.10119465 -0.0040888255 0.034876868 0.0032385935 -0.05361712 0.019183246 0.0313796 -0.08236529
-0.06019694 0.17183547 0.0120324 -0.00035525346 -0.006636059 -0.06677872 0.017741619 -0.093987554
0.04460797 -0.1315859 0.11536519 0.23705605 0.10492514 0.14183757 -0.052573215 -0.044660892
-0.0029711048 -0.116070665 0.06394474 -0.024424925 0.013646699 -0.102566265 -0.053783387 -0.025422838
-0.10688941 0.11869695 0.07760567 -0.03572902 -0.050095066 0.07426476 -0.030642755 -0.030510683
-0.06653708 0.13899173 0.06302282 0.101320274 -0.011998562 0.17764243 0.008810269 -0.06481563
0.20621905 0.065782644 -0.18698542 -0.08187729 -0.026059933 -0.09853825 -0.007920829 0.13598455
-0.14820145 -0.1065659 -0.17918123 0.10097457 0.02394763 -0.076640226 -0.0129297795 0.0100885285
-0.041279837 0.18093295 0.09383886 0.028690726 0.020677902 0.015800675 -0.091843024 -0.05859912
-0.0050492133 -0.15970227 -0.0344245 0.102837384 0.0065628397 -0.037928943 -0.13179389 -0.12531884
-0.12378785 -0.15418306 -0.051301952 -0.043415908 0.0153268175 0.13000451 -0.07460743 -0.027489172
-0.05629335 0.06338315 -0.053836823 -0.19607282 0.15508069 0.001533686 -0.09454168 -0.17030925
0.022031737 0.09799825 -0.01178998 -0.047904275 0.061806068 0.009206086 0.07578874 -0.12794484
-0.15834416 0.08618241 0.028343359 -0.0007739108 -0.0134197 0.05521882 -0.022099383 -0.046732787
0.14455353 0.062178645 -0.08412045 -0.08919354 -0.0399082 -0.008491924 0.19695677 0.04838753
0.022652062 -0.009376615 -0.02667838 0.055429317 -0.030307056 -0.059545666 0.24488515 -0.0635564
0.08464194 0.030101802 -0.027704297 0.13049984 -0.10467815 -0.08221832 0.11869968 -0.18574643
-0.19100253 -0.12650003 0.0359627 -0.09151231 -0.0014096348 0.15713933 0.028653739 -0.08580924
-0.048773624 -0.15235609 0.08450388 0.15429077 0.08597854 -0.18884176 0.08029645 -0.027409187
0.15468384 -0.06093078 0.060997024 -0.09029287 0.00069850305 0.09942652 -0.08466364 0.029554285
-0.032207523 -0.037363015 0.0782572 -0.17394328 -0.0011833521 -0.07365569 -0.03202664 0.09627834
-0.07909159 0.033234056 0.057651743 0.098748095 -0.015154312 -0.018106861 -0.067972496 0.11810134
0.10956528 0.050267834 -0.17076421 0.10170628 0.12343542 -0.0029074997 -0.12893397 0.10536331
-0.09383003 0.08690671 -0.19630098 0.004485422 -0.07251256 -0.15516108 0.003777996 0.04208493
-0.0009913519 0.11017141 0.016908722 0.030725105 -0.10805955 -0.09538467 -0.09190087 -0.073973306
00000000: 8d3f 9b3d e5de aebd 1176 2e3e f4da 813d
00000010: 3204 933d de5a f7bd 46b6 d0bd 246d 25bd
00000020: bf0c 2d3d b8e1 b73d a8da ac3c d747 f23d
00000030: 1a54 e1bd 77a8 5fbd d111 fd3c 6369 81be
00000040: 2d9e 783c 861d b53d 9165 7b3d 1454 dc3d
00000050: d605 96bd 8ee1 2e3c 849b 8d3d 36fc 773c
00000060: faeb 663d 8bf7 0f3d 6159 3d3c b010 3bbe
00000070: 7cce d7bc 56b5 e4bd c068 92bc 72e7 1bbe
00000080: 0f77 79bc cd32 fabc 9d73 d1bd 90a7 d33d
00000090: 93ec ffbd 33c1 7cbd fa62 df3c 4b30 48be
000000a0: c0d5 893d 344d 00be f713 e1bc ef78 b2bd
000000b0: bca5 283d 96ee d4bc 9ec4 f2bd 5c70 803d
000000c0: 463c 9a3d 04ff d1bc ab6b 553d 7f28 863d
000000d0: 0dff a5bd 0fd3 32be 28d4 f03d 6173 ce3d
000000e0: 243f cfbd 8efb 85bb 0cdb 0e3d 953e 543b
000000f0: a09d 5bbd 2f26 9d3c e587 003d 22af a8bd
00000100: 1191 76bd a3f5 2f3e 8b23 453c 5041 bab9
00000110: 4c73 d9bb 48c3 88bd df56 913c 8c7c c0bd
00000120: d9b6 363d 74be 06be 9644 ec3d d2be 723e
00000130: fee2 d63d de3d 113e 0357 57bd 57ee 36bd
00000140: deb6 42bb 75b6 edbd 76f5 823d c816 c8bc
00000150: 6796 5f3c 430e d2bd f84b 5cbd 8e43 d0bc
00000160: d6e8 dabd 6317 f33d b9ef 9e3d 9858 12bd
00000170: 7c30 4dbd 1f18 983d 8406 fbbc 8af1 f9bc
00000180: 9844 88bd d953 0e3e 1c12 813d 0181 cf3d
00000190: 9e95 44bc e6e7 353e f258 103c 0fbe 84bd
000001a0: 162b 533e 0db9 863d 1b79 3fbe 48af a7bd
000001b0: a47b d5bc 6cce c9bd 5dc6 01bc 893f 0b3e
000001c0: 1fc2 17be 393f dabd 497b 37be c1cb ce3d
000001d0: d22d c43c 8df5 9cbd 6dd7 53bc 5b4a 253c
000001e0: 0c15 29bd 7d46 393e 972e c03d d008 eb3c
000001f0: b464 a93c 6b70 813c 3218 bcbd a105 70bd
00000200: df73 a5bb fe88 23be b400 0dbd 689c d23d
00000210: 170d d73b 615b 1bbd faf4 06be 9553 00be
00000220: 7c84 fdbd 2ae2 1dbe ff21 52bd e1d4 31bd
00000230: 551d 7b3c e71f 053e c8cb 98bd f930 e1bc
00000240: db93 66bd 06cf 813d 0084 5cbd 50c7 48be
00000250: 79cd 1e3e f605 c93a 119f c1bd 8c65 2ebe
00000260: e77b b43c 4eb3 c83d c32a 41bc 4637 44bd
00000270: 5c28 7d3d 20d5 163c 2037 9b3d f903 03be
00000280: f924 22be 6780 b03d 5530 e83c 46e0 4aba
00000290: 4dde 5bbc 212d 623d c409 b5bc e16a 3fbd
000002a0: d705 143e 09af 7e3d 5847 acbd 1aab b6bd
000002b0: c876 23bd b621 0bbc 09af 493e 0132 463d
000002c0: d190 b93c 60a0 19bc 9e8c dabc da09 633d
000002d0: 8146 f8bc 28e6 73bd 2cc3 7a3e dc29 82bd
000002e0: c158 ad3d 0e98 f63c 1ff4 e2bc c0a1 053e
000002f0: 7f61 d6bd 1462 a8bd d118 f33d 5034 3ebe
00000300: 2b96 43be 3989 01be a04d 133d ce6a bbbd
00000310: 7fc3 b8ba 22e9 203e 3fbb ea3c c1bc afbd
00000320: dac6 47bd 3c03 1cbe 5f10 ad3d 66fe 1d3e
00000330: 8415 b03d bc5f 41be 7772 a43d 3b89 e0bc
00000340: 7165 1e3e 8e92 79bd 04d8 793d 78eb b8bd
00000350: bf1b 373a 22a0 cb3d 2164 adbd d41b f23c
00000360: 09ec 03bd f609 19bd 5045 a03d 301e 32be
00000370: b51a 9bba cbd8 96bd 5e2e 03bd 942d c53d
00000380: c6fa a1bd 6f20 083d 3c24 6c3d 713c ca3d
00000390: cb49 78bc d754 94bc 2a35 8bbd 1edf f13d
000003a0: c363 e03d a5e5 4d3d d0dc 2ebe 624b d03d
000003b0: b6cb fc3d c08b 3ebb 4407 04be b8c8 d73d
000003c0: f529 c0bd 25fc b13d 2003 49be 72fa 923b
000003d0: 7781 94bd 8ce2 1ebe 4198 773b 3f61 2c3d
000003e0: 40f0 81ba 8ca1 e13d 2984 8a3c 37b3 fb3c
000003f0: 534e ddbd 0a59 c3bd 8636 bcbd 517f 97bd

bn1.running_mean f4 [256]
0.77082103 0.1211227 0.21671362 0.13828477 1.0284584 0.2553227 5.28117 0.13372894
0.46400613 0.18008326 0.6532223 1.034493 0.47873905 0.47805908 0.16757764 0.15538219
0.48135796 0.0033437482 0.17877851 2.4737568 0.00033228603 0.38919622 0.18453838 0.10619305
0.13100183 0.6843263 0.09311871 0.39953518 1.634605 1.713507 0.2417079 0.037445713
0.080343485 1.2512734 0.1364907 0.08567205 6e-45 1.2439826 0.0033071216 0.051634863
0.07085045 1.3992212 1.6444194 6.964255e-09 0.037320588 0.39368105 0.57762736 0.14348201
0.45289475 2.5377984 0.16918337 0.32536203 0.010006435 1.4155502 0.677949 1.2828027
0.90849704 0.9941474 0.64686763 0.43051416 1.0629994 0.17977491 1.0558783 0.27695286
1.8115149 6e-45 1.030136 0.07152331 0.26483074 0.0420169 0.32821947 0.17655915
2.791219 4.066948 0.12104855 0.025263779 1.0311978 0.58338475 0.008272585 0.16684155
0.31488547 0.107098535 0.07086995 0.09302143 0.63138986 6e-45 0.15178695 0.03396277
0.0031212168 0.23842904 0.010484081 0.10615209 0.13871036 3.2424684 1.3791046 0.112482816
0.046232156 2.0743206 0.14132161 0.75921786 0.3218091 0.05194978 0.25154778 0.31569016
6e-45 0.19991742 0.0057318066 0.028971983 0.03597171 0.08447318 0.27119893 0.38328028
0.20722562 0.26050073 0.12449374 6e-45 0.15672977 0.07165444 0.018131824 0.00017238717
0.2772513 0.021832548 0.23225954 0.0100340415 0.12827389 0.0069442084 0.85818756 0.023381962
0.11406511 0.08486113 0.77999365 0.038019817 0.22313735 0.56553644 0.2575743 0.258183
0.20392568 0.7648038 1.7500151 0.0611246 0.82765305 0.023816029 1.6837767 0.11342346
0.062140264 0.4562563 6e-45 1.1064513 2.9905603 0.029942216 0.8650951 0.06197266
0.13292101 1.345106 0.42803785 0.09796454 0.54185164 0.059404936 0.022651512 0.08319156
0.20867515 0.29200402 0.45359176 1.5233641 0.31476215 0.49466947 1.2411164 1.2203281
0.09286407 0.01608039 1.5890918 0.00015364467 0.008407967 1.892324 1.7827237 0.29110333
0.05390198 0.1360543 0.04381687 0.09967376 0.17894354 1.6108488 0.94748235 0.82161313
0.08577401 0.58627903 0.20820275 6e-45 0.7035665 4.026822 0.10702215 0.56424654
6e-45 0.6380078 0.172559 0.19892979 0.6020854 1.8538538 0.2821161 1.4844017
0.5213755 0.3386982 0.519326 0.1882204 0.41200945 0.5673471 0.00018675516 1.4792975
0.052092314 0.44272545 0.7686612 1.789809 0.034947485 0.8022202 0.06194469 0.39490962
1.408916 0.19197519 0.15777065 0.3651662 0.5431135 0.028880736 0.5671267 0.031336326
0.27757546 0.0057715448 0.86459506 0.43835494 0.3349168 0.32946977 0.025600942 0.061696947
0.6148273 0.0010182062 1.6365736 0.7453917 0.28630486 1.7842628 0.43593556 0.1905574
0.022746792 0.12799878 1.3702395 0.7962378 1.2648045 0.00018700735 0.18977225 3.0015845
0.03298443 0.57132065 0.54408634 0.0006608743 0.5313461 0.26683688 0.31377172 1.3478789
00000000: 8754 453f 2e0f f83d 2dea 5d3e 869a 0d3e
00000010: 86a4 833f a8b9 823e 58ff a840 3df0 083e
00000020: 3692 ed3e bf67 383e 9439 273f 446a 843f
00000030: 491d f53e 29c4 f43e 7999 2b3e 821c 1f3e
00000040: 8d74 f63e c922 5b3b b711 373e 0852 1e40
00000050: ad36 ae39 ba44 c73e a1f7 3c3e be7b d93d
00000060: 5825 063e 0230 2f3f 06b5 be3d e08f cc3e
00000070: bd3a d13f 3354 db3f 4782 773e ad60 193d
00000080: 208b a43d ba29 a03f 38c4 0b3e d474 af3d
00000090: 0400 0000 d23a 9f3f 4bbc 583b 147f 533d
000000a0: 0a1a 913d ae19 b33f 567c d23f 3c4a ef31
000000b0: 79dd 183d 9090 c93e 63df 133f f3ec 123e
000000c0: d2e1 e73e 4a6b 2240 683e 2d3e da95 a63e
000000d0: 08f2 233c c030 b53f 118e 2d3f e132 a43f
000000e0: 4393 683f 7280 7e3f 1e99 253f 5a6c dc3e
000000f0: 5d10 883f ea16 383e 0527 873f c4cc 8d3e
00000100: b8df e73f 0400 0000 7fdb 833f d07a 923d
00000110: e597 873e ea19 2c3d 620c a83e eccb 343e
00000120: 55a3 3240 7024 8240 4de8 f73d fcf5 ce3c
00000130: 4afe 833f b458 153f bd89 073c 83d8 2a3e
00000140: ab38 a13e 7a56 db3d 4424 913d 0582 be3d
00000150: c4a2 213f 0400 0000 0a6e 1b3e 8c1c 0b3d
00000160: 548d 4c3b be26 743e 6cc5 2b3c 4466 d93d
00000170: 170a 0e3e 9a84 4f40 8086 b03f 645d e63d
00000180: ee5d 3d3d abc1 0440 9db6 103e 1a5c 423f
00000190: 2ac4 a43e 4bc9 543d dfca 803e 24a2 a13e
000001a0: 0400 0000 27b7 4c3e e1d1 bb3b a756 ed3c
000001b0: 1257 133d 4600 ad3d 96da 8a3e 503d c43e
000001c0: f432 543e 5a60 853e 93f6 fe3d 0400 0000
000001d0: c57d 203e 90bf 923d 3189 943c d4c2 3439
000001e0: e2f3 8d3e 2cda b23c 72d5 6d3e d265 243c
000001f0: 3b5a 033e 3e8c e33b 2eb2 5b3f 878b bf3c
00000200: f89a e93d accb ad3d aaad 473f abba 1b3d
00000210: 1e7e 643e ffc6 103f c7e0 833e 9030 843e
00000220: e5d1 503e 2fca 433f 7f00 e03f ca5d 7a3d
00000230: 12e1 533f d519 c33c ff85 d73f 8f4a e83d
00000240: ca86 7e3d 6d9a e93e 0400 0000 32a0 8d3f
00000250: 5765 3f40 6149 f53c df76 5d3f 0bd7 7d3d
00000260: 721c 083e 6f2c ac3f c727 db3e a2a1 c83d
00000270: cab6 0a3f 9752 733d aa8f b93c 5660 aa3d
00000280: f0ae 553e 8d81 953e 2e3d e83e 98fd c23f
00000290: 8128 a13e 5145 fd3e e7dc 9e3f b633 9c3f
000002a0: 842f be3d 06bb 833c 5c67 cb3f ad1b 2139
000002b0: 92c1 093c ac37 f23f 4a30 e43f 7f0b 953e
000002c0: 53c8 5c3d d251 0b3e 5179 333d c221 cc3d
000002d0: fa3c 373e 4b30 ce3f 348e 723f 3d55 523f
000002e0: 49aa af3d 6216 163f 1a33 553e 0400 0000
000002f0: ef1c 343f badb 8040 6e2e db3d 7672 103f
00000300: 0400 0000 7b54 233f 4eb3 303e 40b4 4b3e
00000310: 4522 1a3f 154b ed3f 8571 903e e000 be3f
00000320: dd78 053f da69 ad3e 8cf2 043f d9bc 403e
00000330: e7f2 d23e a93d 113f b5d3 4339 9f59 bd3f
00000340: c05e 553d e9ac e23e fbc6 443f 7618 e53f
00000350: 1825 0f3d 4e5e 4d3f b7b9 7d3d 9831 ca3e
00000360: 5c57 b43f 2595 443e a18e 213e 10f7 ba3e
00000370: 7d09 0b3f 4b97 ec3c 372f 113f 855a 003d
00000380: 5f1e 8e3e 3a1f bd3b 1a56 5d3f 0f70 e03e
00000390: 377a ab3e 43b0 a83e 11b9 d13c f0b5 7c3d
000003a0: 5265 1d3f 5575 853a 3e7b d13f fed1 3e3f
000003b0: 8d96 923e b962 e43f f232 df3e 7b21 433e
000003c0: 7b57 ba3c 1d12 033e 0264 af3f 3ed6 4b3f
000003d0: 1de5 a13f 6717 4439 a853 423e f619 4040
000003e0: af1a 073d 1242 123f 3e49 0b3f 863e 2d3a
000003f0: 4c06 083f d89e 883e b0a6 a03e 4c87 ac3f

bn1.running_var f4 [256]
1.2517178 0.25866818 0.44836175 0.23996793 1.9329584 0.5039297 2.402872 0.14105088
0.5490585 0.16864826 1.3644488 2.579594 0.22398487 2.2205794 0.1510383 0.2721972
0.6782292 0.003469121 0.2632055 3.07098 0.00025124042 0.4924557 0.248318 0.12379944
0.15753263 1.3536444 0.14944246 0.7675653 1.1021335 0.5780016 0.53210175 0.021132227
0.15714099 5.7518487 0.3031744 0.09111269 6e-45 2.4815242 0.0020795052 0.055298068
0.06738852 4.758642 3.2240195 3.7927412e-09 0.011648356 0.61138725 0.69668895 0.15802354
0.5989601 3.472061 0.44302484 0.37798095 0.009263502 4.0107393 2.0213716 2.5476751
1.6692159 2.291482 1.6769339 1.8299115 1.3039335 0.28240207 2.213646 0.27956235
3.817443 6e-45 1.3931235 0.11519163 0.36644614 0.04283983 0.42098287 0.35719925
6.6494203 2.3650775 0.10045892 0.044416744 3.2813065 0.18213344 0.004782702 0.36742952
0.43675607 0.14655425 0.09851957 0.22419487 1.0008243 6e-45 0.17141312 0.038728192
0.005582438 0.5844807 0.0043415176 0.15484713 0.34741303 4.2586155 8.6988125 0.15807171
0.024033109 3.7422574 0.34389764 0.46991238 0.76383364 0.05549342 0.29637375 0.5457863
6e-45 0.4111316 0.0025200176 0.030825555 0.049061205 0.18084252 0.14576055 0.3434668
0.66388035 0.377979 0.15324233 6e-45 0.0749496 0.045737572 0.018717973 0.00016046468
0.38294736 0.019230777 0.8590586 0.013316138 0.117234215 0.004403351 1.5093489 0.020710964
0.3380459 0.18044373 1.5695171 0.06343014 0.10414192 0.41564402 0.56289446 0.22957477
0.48491532 1.1624416 3.9713743 0.025312968 2.5857112 0.030250853 2.0822203 0.05427938
0.038774706 1.1209599 6e-45 1.1015198 2.9782248 0.04019782 3.7034445 0.07343616
0.18696657 2.8308854 0.9087045 0.08749959 0.60512394 0.055596776 0.031467248 0.1570172
0.35703307 0.10122594 0.27403137 3.183617 0.53873223 1.6614083 0.8285105 1.7791255
0.15664825 0.015014847 4.257426 7.6596836e-05 0.008655526 4.8750563 0.2796268 0.46238706
0.102037035 0.16721892 0.02344025 0.14203568 0.2742475 3.86437 0.46961245 1.0879251
0.06552281 1.4597286 0.21179822 6e-45 0.84850836 8.313359 0.15714061 1.8102323
6e-45 0.67771024 0.16951412 0.112166435 0.6676804 5.465944 0.45232412 5.0519185
0.4393889 1.3715982 0.16738863 0.17796563 1.0466783 1.0415508 7.946319e-05 1.6705353
0.037105292 0.3482101 1.9688158 1.8673753 0.057353385 0.9527371 0.058654785 1.7201335
3.7508192 0.28272966 0.3205499 0.51810086 1.048495 0.033720315 1.080523 0.034824908
0.4323366 0.009841491 1.2569456 0.9725413 1.1897671 0.2903135 0.019843826 0.06970405
3.158236 0.0015046963 1.8668284 1.2443697 0.18523812 1.558116 1.4055079 0.19930512
0.014615839 0.1795094 6.5165844 1.0682517 4.0643015 0.00011302335 0.16767046 1.9005362
0.015627114 0.93143857 0.9060022 0.0007484978 0.39910164 0.3477721 0.46107188 3.5840998
00000000: 4a38 a03f 2870 843e ac8f e53e 27ba 753e
00000010: 2e6b f73f 8901 013f a8c8 1940 a46f 103e
00000020: 198f 0c3f 21b2 2c3e 42a6 ae3f 1118 2540
00000030: 4a5c 653e f91d 0e40 c9a9 1a3e 6e5d 8b3e
00000040: 6ea0 2d3f 315a 633b dfc2 863e f08a 4440
00000050: ebb8 8339 2723 fc3e 1347 7e3e 908a fd3d
00000060: 3c50 213e 3844 ad3f 7207 193e 297f 443f
00000070: b612 8d3f eaf7 133f d237 083f 7e1d ad3c
00000080: 91e9 203e 250f b840 ad39 9b3e 4a99 ba3d
00000090: 0400 0000 4bd1 1e40 4f48 083b 3a80 623d
000000a0: fe02 8a3d cc46 9840 5656 4e40 4e51 8231
000000b0: bfd8 3e3c e083 1c3f 355a 323f ecd0 213e
000000c0: 7355 193f 3f36 5e40 27d4 e23e b886 c13e
000000d0: f2c5 173c fa57 8040 275e 0140 1c0d 2340
000000e0: dea8 d53f a4a7 1240 c5a5 d63f 8a3a ea3f
000000f0: 4be7 a63f 0197 903e 60ac 0d40 cc22 8f3e
00000100: fc50 7440 0400 0000 df51 b23f 97e9 eb3d
00000110: d49e bb3e d178 2f3d 118b d73e d2e2 b63e
00000120: 0dc8 d440 6e5d 1740 68bd cd3d 55ee 353d
00000130: ed00 5240 3081 3a3e 36b8 9c3b b91f bc3e
00000140: 7e9e df3e 5112 163e a1c4 c93d 5793 653e
00000150: 031b 803f 0400 0000 ec86 2f3e 74a1 1e3d
00000160: e2ec b63b 87a0 153f 4a43 8e3b 3f90 1e3e
00000170: 1fe0 b13e 9446 8840 562e 0b41 8ddd 213e
00000180: 15e1 c43c 2581 6f40 5a13 b03e 5b98 f03e
00000190: 9a8a 433f 124d 633d 4dbe 973e a7b8 0b3f
000001a0: 0400 0000 d77f d23e e126 253b e085 fc3c
000001b0: 67f4 483d c82e 393e 4142 153e e1da af3e
000001c0: 10f4 293f 7786 c13e 8feb 1c3e 0400 0000
000001d0: 2d7f 993d 5257 3b3d 6f56 993c 6942 2839
000001e0: ad11 c43e dd89 9d3c 44eb 5b3f ee2b 5a3c
000001f0: 7e18 f03d fc49 903b 5832 c13f 0aaa a93c
00000200: 5a14 ad3e 3ec6 383e f0e5 c83f a9e7 813d
00000210: 5c48 d53d 4bcf d43e da19 103f a615 6b3e
00000220: d246 f83e e3ca 943f ff2a 7e40 245d cf3c
00000230: 4b7c 2540 a3d0 f73c 1943 0540 0e54 5e3d
00000240: 3ad2 1e3d 9d7b 8f3f 0400 0000 9afe 8c3f
00000250: 3c9b 3e40 78a6 243d 3c05 6d40 b365 963d
00000260: 2a74 3f3e 3a2d 3540 dca0 683f fc32 b33d
00000270: 67e9 1a3f 72b9 633d cde3 003d 1ec9 203e
00000280: 0acd b63e 8c4f cf3d d74d 8c3e 62c0 4b40
00000290: 5bea 093f 07a9 d43f 4419 543f 62ba e33f
000002a0: 6668 203e d500 763c d53c 8840 9da2 a038
000002b0: e8cf 0d3c 7600 9c40 3e2b 8f3e ffbd ec3e
000002c0: cbf8 d03d 703b 2b3e c405 c03c cd71 113e
000002d0: 2b6a 8c3e d751 7740 0b71 f03e 2141 8b3f
000002e0: d330 863d 63d8 ba3f a2e1 583e 0400 0000
000002f0: d837 593f 8503 0541 78e9 203e b1b5 e73f
00000300: 0400 0000 6b7e 2d3f 1c95 2d3e 84b7 e53d
00000310: 1aed 2a3f 03e9 ae40 0797 e73e 51a9 a140
00000320: 95f7 e03e 8890 af3f ed67 2b3e 9f3c 363e
00000330: 8ef9 853f 8951 853f 7aa5 a638 1ad4 d53f
00000340: b8fb 173d 9848 b23e 2802 fc3f 2706 ef3f
00000350: 62eb 6a3d 94e6 733f 0040 703d 562d dc3f
00000360: 6c0d 7040 f1c1 903e 1e1f a43e 42a2 043f
00000370: 1635 863f 501e 0a3d 944e 8a3f 90a4 0e3d
00000380: 395b dd3e 343e 213c 98e3 a03f 77f8 783f
00000390: 4a4a 983f f9a3 943e 858f a23c ffc0 8e3d
000003a0: 8a20 4a40 3b39 c53a 3cf4 ee3f 8247 9f3f
000003b0: 10af 3d3e 5870 c73f afe7 b33f a416 4c3e
000003c0: 4677 6f3c 50d1 373e dc87 d040 79bc 883f
000003d0: c20e 8240 f306 ed38 ceb1 2b3e c544 f33f
000003e0: 6f04 803c c272 6e3f c3ef 673f d636 443a
000003f0: 0d57 cc3e 2f0f b23e 9d11 ec3e e461 6540

fc1.weight f4 [256, 24]
-0.09479937 -0.14144795 0.025356317 0.014021376 0.030981902 -0.081229255 0.016582308 0.055897836
-0.0060075996 -0.08755313 0.00045986407 0.0050930353 0.05757112 -0.02118641 0.031101147 0.021978453
0.049683735 -0.092610106 0.011420942 -0.06838968 0.14756128 -0.18166997 0.007408678 -0.08689701
0.045405578 -0.17852183 0.04484639 -0.040269136 -0.09383611 -0.03529687 -0.029191276 0.0025716342
0.1292923 -0.19561523 0.01541165 0.03600779 0.071651734 -0.0083629945 -0.06002594 0.009565236
0.076595895 -0.08500301 -0.07546871 0.07289005 0.12175265 -0.11602402 -0.02373575 0.07186996
0.007082588 -0.05534303 -0.015567731 0.026626308 0.10337365 -0.19176973 0.01243687 0.045342743
0.057258565 -0.00980632 0.026514303 0.166222 0.14410943 -0.15427825 -0.0018165766 0.09216525
0.03953045 0.09573008 -0.011700889 0.05104614 0.048523083 0.04937848 0.06318595 0.07372999
0.015048769 -0.1471125 0.02122232 0.008997714 0.030248633 0.0078555085 -0.03703418 0.01651523
0.04855583 -0.08680729 -0.00227152 0.10979207 -0.0030711193 -0.13667451 0.0108497385 0.050883785
0.16987781 -0.11284246 0.014841094 0.072473764 0.0035988048 -0.24029788 0.072300665 0.08358567
0.010706085 0.1335983 -0.006033633 0.036750805 0.04115111 -0.063775755 0.045821346 0.033060867
-0.009332645 0.039361734 0.01666645 -0.013953187 0.12336347 0.013788451 0.051955167 -0.053191546
-0.02661582 0.10690442 -0.004118144 -0.08926205 0.26815453 0.071440965 -0.018126545 -0.03442579
-0.077038355 -0.0020541544 -0.039293107 -0.110226296 0.026511736 -0.092212394 0.015768927 -0.17412789
-0.020336164 -0.023143746 0.032629784 -0.04877241 -0.01236506 -0.1341882 0.06364692 -0.118734516
0.0831922 -0.05496039 0.020265603 0.01246769 -0.031238833 -0.28081772 -0.026461696 -0.004933977
-0.14116903 -0.048951197 -0.016071882 0.073094636 0.106102005 0.15770628 0.0418842 0.10913077
-0.10167356 -0.03273592 0.015180475 0.0015688043 -0.0014423302 0.24300297 0.0023735694 -0.027159818
-0.067554675 -0.05606145 0.005964317 0.058254533 -0.089323096 0.25977582 -0.015529859 0.013601903
0.02475907 -0.16985178 -0.05726772 0.01319227 -0.11181179 0.00061381655 0.038031083 -0.069518045
0.09775774 -0.15547138 -0.020018848 0.060168248 0.11377918 -0.08137581 -0.012325707 -0.006611323
0.046311777 -0.06573148 0.053420573 0.061912697 0.19488163 0.062190823 -0.052035622 0.16046135
0.0016176315 0.041493636 0.037033178 -0.043181185 -0.42061678 -0.04905862 -0.033342138 0.0341929
-0.00747145 -0.03092364 -0.03294763 -0.024571138 -0.0429293 -0.04095758 0.037517004 0.02753715
-0.0021193598 0.017456746 -0.038245298 -0.010253843 0.17257747 -0.03407651 0.020096406 0.029684005
-0.06839964 0.09839181 -0.0126282135 -0.045367893 -0.020361628 0.021704407 0.011515449 -0.037795436
0.031609926 0.14019853 -0.032225624 0.05405239 -0.0346628 0.014971755 0.037979726 -0.05320774
-0.012443678 0.13040765 -0.0053279866 0.023605071 0.24466361 -0.2268262 -0.0007518454 -0.019585636
0.056269623 0.06544612 -0.0042715007 0.06070354 0.19832268 -0.08577683 0.0074879313 0.009775892
0.0018599363 0.09624231 -0.0054201833 0.0028967378 0.18814486 0.013741682 0.03395426 -0.05609653
00000000: 2c26 c2bd bbd7 10be 0db8 cf3c eab9 653c
00000010: c2cd fd3c 865b a6bd 9fd7 873c 21f5 643d
00000020: 66db c4bb 0e4f b3bd e919 f139 7ae3 a63b
00000030: b2cf 6b3d 1f8f adbc d5c7 fe3c 280c b43c
00000040: 2c81 4b3d 5eaa bdbd e71e 3b3c e30f 8cbd
00000050: 4e1a 173e b107 3abe 7fc4 f23b 0ff7 b1bd
00000060: 33fb 393d 6dce 36be d9b0 373d 40f1 24bd
00000070: 252d c0bd 7393 10bd 8b22 efbc dd88 283b
00000080: 3365 043e 5c4f 48be 2581 7c3c e87c 133d
00000090: 25be 923d f104 09bc c3dd 75bd 82b7 1c3c
000000a0: 4fde 9c3d 0f16 aebd 578f 9abd 6147 953d
000000b0: 7459 f93d 009e edbd 7a71 c2bc 8f30 933d
000000c0: 0e15 e83b 5faf 62bd cc0f 7fbc 6a1f da3c
000000d0: 90b5 d33d 495f 44be 03c4 4b3c 50b9 393d
000000e0: f587 6a3d b0aa 20bc 8634 d93c 1a36 2a3e
000000f0: 6c91 133e 1efb 1dbe 321a eeba 22c1 bc3d
00000100: aeea 213d 220e c43d 16b5 3fbc c215 513d
00000110: 24c0 463d 1741 4a3d a367 813d c0ff 963d
00000120: 1d8f 763c a9a4 16be 6eda ad3c 266b 133c
00000130: fbcb f73c 64b4 003c 27b1 17bd f34a 873c
00000140: 7ae2 463d 05c8 b1bd c8dd 14bb aada e03d
00000150: d544 49bb 67f4 0bbe 1ac3 313c 846b 503d
00000160: 73f4 2d3e f319 e7bd 0f28 733c 206d 943d
00000170: edd9 6b3b a610 76be 5f12 943d f72e ab3d
00000180: 9368 2f3c fecd 083e c8b5 c5bb 0388 163d
00000190: 118e 283d dd9c 82bd 2aaf 3b3d d56a 073d
000001a0: f3e7 18bc c539 213d 1488 883c e89b 64bc
000001b0: fda5 fc3d f5e8 613c f1ce 543d 61df 59bd
000001c0: 6c09 dabc b4f0 da3d 7ff1 86bb 06cf b6bd
000001d0: 8d4b 893e a44f 923d 1f7e 94bc 0f02 0dbd
000001e0: 49c6 9dbd fe9e 06bb cff1 20bd 53be e1bd
000001f0: 242f d93c dad9 bcbd d62d 813c 954e 32be
00000200: 0798 a6bc f497 bdbc cfa6 053d 94c5 47bd
00000210: d296 4abc a268 09be 5159 823d 152b f3bd
00000220: ac60 aa3d 251e 61bd 0d04 a63c 4845 4c3c
00000230: 95e8 ffbc 57c7 8fbe 33c6 d8bc 33ad a1bb
00000240: 9d8e 10be 0d81 48bd 2ea9 83bc a4b2 953d
00000250: 024c d93d c17d 213e c48e 2b3d f47f df3d
00000260: 3a3a d0bd 1a16 06bd 87b7 783c 56a0 cd3a
00000270: 920c bdba c5d5 783e e38d 1b3b 447e debc
00000280: 1b5a 8abd b1a0 65bd 5170 c33b 4e9c 6e3d
00000290: 07ef b6bd 5601 853e f370 7ebc 84da 5e3c
000002a0: 88d3 ca3c a0ed 2dbe 8f91 6abd 6424 583c
000002b0: 94fd e4bd 88e8 203a 7bc6 1b3d 7a5f 8ebd
000002c0: 3635 c83d e433 1fbe 91fe a3bc fb72 763d
000002d0: 0f05 e93d 5ca8 a6bd c3f1 49bc cca3 d8bb
000002e0: 6bb1 3d3d 3a9e 86bd 88cf 5a3d 2b98 7d3d
000002f0: 0d8f 473e cebb 7e3d 4e23 55bd fb4f 243e
00000300: b506 d43a 3bf5 293d 1ab0 173d c1de 30bd
00000310: 155b d7be b1f1 48bd c491 08bd db0d 0c3d
00000320: 11d3 f4bb 9353 fdbc 18f4 06bd 6949 c9bc
00000330: a2d6 2fbd 23c3 27bd 6eab 193d 9795 e13c
00000340: f5e4 0abb 7301 8f3c 1aa7 1cbd bcff 27bc
00000350: 26b8 303e d093 0bbd 38a1 a43c df2b f33c
00000360: 1c15 8cbd a581 c93d 91e6 4ebc afd3 39bd
00000370: 6ecd a6bc 71cd b13c 4bab 3c3c 63cf 1abd
00000380: 6979 013d 3490 0f3e 04ff 03bd 0a66 5d3d
00000390: 95fa 0dbd 184c 753c a190 1b3d 5cf0 59bd
000003a0: 92e0 4bbc 9589 053e 6496 aebb 6c5f c13c
000003b0: 1989 7a3e 2145 68be 7e17 45ba 0e72 a0bc
000003c0: fa7a 663d 9e08 863d f2f7 8bbb 46a4 783d
000003d0: 1a15 4b3e c3ab afbd 525d f53b 102b 203c
000003e0: 1bc9 f33a b01a c53d cb9b b1bb 32d7 3d3b
000003f0: 0ca9 403e cb24 613c 9f13 0b3d 7ac5 65bd

fc1.bias f4 [256]
0.11753922 0.056825276 -0.11374688 0.10402452 -0.12353275 0.06834817 -0.16273253 -0.00983266
-0.14146602 -0.012480843 0.12712927 -0.20065828 0.00906311 -0.2738367 -0.20373613 -0.12559539
-0.16754054 -0.091233134 -0.041417956 -0.06787729 -0.19269921 0.08544893 -0.080658846 0.103278846
-0.22167249 0.023200007 -0.2958174 0.09546261 0.19532888 -0.112013474 -0.10746941 -0.1290442
-0.14813592 -0.10734713 -0.29409096 0.006207126 -0.2475935 0.035045866 -0.2299353 -0.3083588
-0.2486466 0.027154665 -0.0055201645 -0.07767903 -0.4910537 -0.019084297 0.13090219 -0.0733255
-0.22324482 0.12834583 -0.11913867 -0.19196601 0.021516886 -0.14152573 -0.024178997 0.21591683
0.032259054 0.18360776 0.16916104 -0.17952694 -0.18664505 -0.079267025 -0.14793818 0.07856804
0.04156453 -0.21297003 -0.14464903 -0.0030765818 -0.24821374 0.24954194 -0.028716672 -0.028071014
-0.09457645 0.0699193 -0.16953583 -0.06356891 -0.0061170333 -0.14397512 0.09197564 0.17197396
-0.16050485 -0.18412712 -0.1734934 -0.30032283 -0.20026262 -0.22666205 0.0222574 -0.15468763
-0.23385473 -0.07366648 -0.06472553 -0.045575865 -0.3844244 0.2158351 -0.026953159 0.088104576
0.20529005 0.12652908 0.13554779 -0.041593023 0.010469311 0.041102324 -0.18173756 0.049955074
-0.13960794 -0.05866641 -0.014346483 -0.17722638 -0.010927519 -0.4455093 -0.16067217 -0.08652224
-0.15885028 -0.2166963 0.31842625 -0.24484187 -0.34714717 0.09729954 0.06568017 0.14984986
-0.10812269 0.23718488 -0.13209526 -0.08242149 0.07641081 -0.36829278 0.20520349 0.043195847
-0.04279537 0.009499594 0.023132967 0.027019141 0.11535409 -0.07213545 -0.1714161 0.16377397
0.049624052 -0.06259333 0.07780547 -0.21171089 0.0028668903 -0.006154249 0.05459115 -0.09410127
0.056824468 0.021482991 -0.10941306 -0.19274588 -0.014870114 -0.027600436 0.21404676 -0.1094742
0.022232994 0.0067811077 0.049944516 -0.111861795 -0.012911693 0.13977177 0.07806832 -0.18061998
0.0030075884 -0.049969338 -0.19881915 0.13697779 0.1587593 -0.34572268 -0.06172468 -0.102968656
-0.12224201 -0.02857768 0.09448249 0.063659176 -0.12503056 -0.22542727 0.092383705 -0.27277035
-0.17120323 -0.15198143 -0.19723979 0.05968402 -0.01009244 -0.21797404 0.085167095 -0.19520007
-0.28884682 0.018955482 -0.08249125 0.0059140087 0.10204273 0.04031468 -0.14292195 0.0038066888
-0.13078977 -0.108820125 0.009899619 -0.36995673 -0.044981617 -0.08065401 -0.27847758 0.18856986
-0.3185674 -0.14858085 -0.1014021 -0.4066912 -0.097867616 0.071867004 0.09982331 0.13432677
-0.019943388 -0.04083992 0.12172457 -0.036461774 -0.07912194 -0.11513932 -0.09188661 0.046198133
-0.114605226 -0.14675859 -0.20160808 -0.026261399 0.07691536 0.0060674017 -0.09411058 -0.2431005
-0.019595526 -0.10730816 -0.11968806 0.14537868 -0.101095505 -0.06131181 -0.22536555 -0.09243689
-0.033256184 -0.16927598 0.09300043 -0.15299347 -0.32240942 0.07303083 -0.14535907 0.1518148
-0.09016438 0.13066816 -0.10848671 -0.04801712 0.28627104 -0.05452737 -0.2091418 -0.08963558
-0.30730435 0.1185801 -0.24309513 0.1432536 0.12188882 0.11260141 -0.09893932 0.015525772
00000000: 67b8 f03d 9fc1 683d 20f4 e8bd cf0a d53d
00000010: bdfe fcbd 20fa 8b3d 5ba3 26be 2a19 21bc
00000020: 78dc 10be 737c 4cbc 2d2e 023e 5d79 4dbe
00000030: 707d 143c 5334 8cbe 34a0 50be 149c 00be
00000040: bf8f 2bbe 70d8 babd e0a5 29bd 4003 8bbd
00000050: f152 45be d9ff ae3d 7730 a5bd dc83 d33d
00000060: 1dfe 62be f10d be3c 6175 97be e781 c33d
00000070: 4b04 483e 5267 e5bd ec18 dcbd 2a24 04be
00000080: f1b0 17be d0d8 dbbd 1793 96be 2665 cb3b
00000090: 2789 7dbe 418c 0f3d 2974 6bbe 34e1 9dbe
000000a0: 379d 7ebe 7673 de3c 7fe2 b4bb 2f16 9fbd
000000b0: 646b fbbe ac56 9cbc 390b 063e ae2b 96bd
000000c0: 4a9a 64be 176d 033e fafe f3bd bd92 44be
000000d0: 2e44 b03c 1fec 10be 0813 c6bc 4d19 5d3e
000000e0: 1222 043d ac03 3c3e 8d38 2d3e e9d5 37be
000000f0: e11f 3fbe c056 a2bd 1b7d 17be 48e8 a03d
00000100: 923f 2a3d d114 5abe e01e 14be 7aa0 49bb
00000110: be2b 7ebe ec87 7f3e 3a3f ebbc 2ff5 e5bc
00000120: 4cb1 c1bd da31 8f3d cd9a 2dbe 6b30 82bd
00000130: 6571 c8bb 376e 13be b95d bc3d f119 303e
00000140: 625b 24be d28b 3cbe 41a8 31be eac3 99be
00000150: a511 4dbe 191a 68be 2755 b63c 6f66 1ebe
00000160: 9d77 6fbe 74de 96bd d28e 84bd c2ad 3abd
00000170: 46d3 c4be e003 5d3e dfcc dcbc 2c70 b43d
00000180: 8e37 523e d790 013e 0acd 0a3e 725d 2abd
00000190: 7987 2b3c e95a 283d 6919 3abe b19d 4c3d
000001a0: 62f5 0ebe 314c 70bd 830d 6bbc d57a 35be
000001b0: 5609 33bc cc19 e4be 3f87 24be 9232 b1bd
000001c0: a6a9 22be a3e5 5dbe c408 a33e d4b7 7abe
000001d0: 46bd b1be fb44 c73d 5383 863d 3e72 193e
000001e0: 6e6f ddbd 98e0 723e fb43 07be 99cc a8bd
000001f0: 457d 9c3d df90 bcbe dd20 523e 21ee 303d
00000200: 334a 2fbd 2fa4 1b3c 5981 bd3c 3f57 dd3c
00000210: c43e ec3d c0bb 93bd b487 2fbe 5db4 273e
00000220: 9742 4b3d ef30 80bd 7958 9f3d bdca 58be
00000230: 70e2 3b3b 95a9 c9bb f89a 5f3d 2bb8 c0bd
00000240: c6c0 683d 19fd af3c f413 e0bd 2d5f 45be
00000250: c7a1 73bc 4f1a e2bc 132f 5b3e 0234 e0bd
00000260: f821 b63c 0e34 de3b 9f92 4c3d cc17 e5bd
00000270: 918b 53bc 5520 0f3e 49e2 9f3d 72f4 38be
00000280: f61a 453b a6ac 4cbd 3f97 4bbe e843 0c3e
00000290: cc91 223e 9002 b1be 05d3 7cbd 3be1 d2bd
000002a0: 055a fabd bd1b eabc 0980 c13d be5f 823d
000002b0: 0308 00be 68d6 66be ab33 bd3d 8ea8 8bbe
000002c0: e64f 2fbe 05a1 1bbe 3af9 49be 3b77 743d
000002d0: c35a 25bc 9634 5fbe 166c ae3d 87e2 47be
000002e0: bbe3 93be 8748 9b3c 2cf1 a8bd 4dca c13b
000002f0: c7fb d03d 0221 253d 225a 12be a479 793b
00000300: c1ed 05be 16dd debd 0332 223c f86a bdbe
00000310: a53e 38bd ee2d a5bd 9d94 8ebe 7518 413e
00000320: 441b a3be 9425 18be e7ab cfbd d439 d0be
00000330: d16e c8bd 022f 933d 2a70 cc3d f58c 093e
00000340: 5160 a3bc c347 27bd bb4a f93d f158 15bd
00000350: af0a a2bd 2ace ebbd 0c2f bcbd 413a 3d3d
00000360: 25b6 eabd e247 16be 5972 4ebe 2522 d7bc
00000370: cd85 9d3d 0ed1 c63b 0cbd c0bd 56ef 78be
00000380: cc86 a0bc 61c4 dbbd 031f f5bd 26de 143e
00000390: 290b cfbd 1822 7bbd 3ac6 66be 8d4f bdbd
000003a0: a337 08bd af56 2dbe 0277 be3d 52aa 1cbe
000003b0: d912 a5be 3091 953d 02d9 14be 5775 1b3e
000003c0: 1aa8 b8bd e0cd 053e 482e debd 9aad 44bd
000003d0: 1e92 923e 1758 5fbd 4529 56be dc92 b7bd
000003e0: ff56 9dbe 20da f23d eeed 78be 12b1 123e
000003f0: d8a0 f93d 919b e63d b3a0 cabd cf5f 7e3c

fc2.weight f4 [128, 256]
-0.08657736 -0.023968501 -0.026573671 -0.25214818 -0.032145716 -0.040087264 -0.0909132 -0.062306747
-0.018290158 -0.024962088 -0.10300804 -0.085263364 0.0055479975 -0.054544423 -0.06531105 0.12622036
0.04506594 0.06171256 -0.17570786 0.065346494 0.0024609163 0.017992616 -0.17321111 -0.05771003
-0.1196429 -0.116039366 -0.14534254 0.02489311 0.01200908 0.00014787602 -0.029713225 0.123016365
-0.2204402 -0.06666859 -0.10389953 -0.060270537 -0.0069299852 0.0783322 -0.0023849213 -0.03546061
0.053109944 0.18159866 0.06568917 0.015407149 0.08131502 0.13015021 -0.0019718774 -0.093566164
-0.16469342 0.033293307 0.14777453 0.0453486 -0.0606367 -0.01630517 -0.13410206 -0.03946737
0.010953856 0.068376444 -0.08206042 0.02694661 -0.13175462 -0.07575194 -0.09407806 -0.22083232
-0.073363185 0.022854315 -0.0077404054 -0.17056137 0.22877668 -0.00918851 -0.12017882 0.02111402
0.09211854 -0.027622836 -0.18502724 -0.05534561 -0.20198682 -0.112050995 0.037458293 -0.1143669
-0.11004893 -0.07917142 -0.27867606 0.013122859 -0.1804912 0.14887315 -0.16423514 -0.10235873
-0.07048004 -0.12711929 -0.102070674 0.060224526 -0.048415124 -0.037716497 0.081127234 -0.024468997
0.011085555 -0.092186645 0.11267924 -0.044102352 -0.028002191 -0.099853456 -0.15850773 -0.003438423
-0.04928216 -0.023834024 0.09664593 0.15001808 -0.100282274 -0.11315773 -0.08073855 0.18745214
0.042734087 -0.19429168 -0.10136947 -0.061125502 -0.03656718 -0.0069833063 -0.02042078 -0.07045396
0.023672152 -0.051367182 0.08360084 -0.054809157 0.006782047 0.1436376 -0.00460541 -0.08943457
-0.025754943 -0.030955845 0.09288975 0.08354812 -0.016349558 -0.0629843 0.026464662 -0.010565453
-0.017722642 0.0053093615 0.036805525 -0.13387562 -0.19834946 0.044804998 -0.09902481 -0.012588802
-0.15695678 0.048204996 -0.12955187 0.029467445 -0.06575483 -0.035110813 0.019608732 -0.09266542
-0.121959426 -0.0811614 -0.07651304 0.1306382 0.018342681 -0.057794843 0.013475415 0.0713934
-0.19987758 0.101944886 0.028469086 0.14499329 0.081576765 0.12143303 -0.075861976 -0.17572162
0.13205099 0.1418974 -0.06897213 0.016798852 -0.08313866 -0.0006148602 -0.084063224 0.02221793
0.006432922 0.094516896 -0.24928993 -0.050431892 0.01918542 -0.067321606 -0.0038874599 0.0094728395
0.10609692 -0.086773485 0.06444963 -0.035896704 -0.012510376 -0.0020829951 0.076992564 -0.011072051
0.08217864 -0.134814 -0.15858391 -0.072212026 0.059257068 0.061284013 -0.20671806 0.12890647
0.05395398 -0.010017102 0.07163785 -0.01698466 0.20208979 -0.12808664 -0.109299175 0.15168417
-0.020957354 0.04307849 0.09707958 -0.044446997 -0.07343104 0.11927011 0.034526005 0.045146678
-0.048950117 -0.0074610277 0.08611844 -0.087637916 0.02857917 -0.017303279 -0.19934659 -0.10384667
0.052889697 -0.13684973 -0.08437317 0.010633916 0.05065288 -0.05319956 -0.04625686 -0.111819915
-0.04481116 -0.16567235 0.017100904 -0.022691859 0.08734093 -0.06345346 0.14005741 0.09307257
0.106442995 -0.22994095 0.07327187 -0.067676716 -0.02154801 -0.05811543 0.09471055 -0.017944898
-0.03635938 0.03337468 -0.049309388 -0.105001286 -0.08181508 -0.18739451 -0.04355865 -0.3014688
00000000: 794f b1bd 9759 c4bc 07b1 d9bc 9119 81be
00000010: 3aab 03bd 8b32 24bd b330 babd 5c35 7fbd
00000020: 3ed5 95bc 4b7d ccbc e1f5 d2bd 8f9e aebd
00000030: facb b53b f969 5fbd cdc1 85bd e93f 013e
00000040: 1097 383d 4fc6 7c3d c3ec 33be 62d4 853d
00000050: 5347 213b 4065 933c 415e 31be 5a61 6cbd
00000060: 5607 f5bd 0ca6 edbd add4 14be a3ec cb3c
00000070: bbc1 443c 2b0f 1b39 2669 f3bc 01f0 fb3d
00000080: 13bb 61be 8b89 88bd 47c9 d4bd 3dde 76bd
00000090: ee14 e3bb a26c a03d 574c 1cbb 253f 11bd
000000a0: d089 593d 00f5 393e 0b88 863d 446e 7c3c
000000b0: 7d88 a63d 1946 053e 9d3a 01bb 9e9f bfbd
000000c0: 64a5 28be 905e 083d 3552 173e 74bf 393d
000000d0: 305e 78bd 6b92 85bc 0d52 09be 89a8 21bd
000000e0: cd77 333c f308 8c3d 4b0f a8bd 23bf dc3c
000000f0: afea 06be d523 9bbd ffab c0bd de21 62be
00000100: 703f 96bd f938 bb3c 3aa3 fdbb a4a7 2ebe
00000110: 6f44 6a3e 678b 16bc 5020 f6bd 4ff7 ac3c
00000120: a5a8 bc3d 4949 e2bc c877 3dbe 14b2 62bd
00000130: a2d5 4ebe fe7a e5bd de6d 193d 3139 eabd
00000140: 5561 e1bd a024 a2bd a1ae 8ebe 4301 573c
00000150: afd2 38be 3472 183e 422d 28be 74a1 d1bd
00000160: d757 90bd 8f2b 02be 6e0a d1bd fead 763d
00000170: f04e 46bd 9d7c 1abd 0926 a63d 3573 c8bc
00000180: 30a0 353c 5acc bcbd 60c4 e63d aba4 34bd
00000190: da64 e5bc f87f ccbd da4f 22be 2a57 61bb
000001a0: 17dc 49bd 923f c3bc 4dee c53d 579e 193e
000001b0: cb60 cdbd 3dbf e7bd 415a a5bd 74f3 3f3e
000001c0: f009 2f3d 66f4 46be cc9a cfbd bc5e 7abd
000001d0: 78c7 15bd 38d4 e4bb 7b49 a7bc 2a4a 90bd
000001e0: 1aec c13c 6566 52bd eb36 ab3d 917f 60bd
000001f0: ef3b de3b bc15 133e fbe8 96bb 7929 b7bd
00000200: 08fc d2bc 1d97 fdbc fb3c be3d 471b ab3d
00000210: 82ef 85bc eafd 80bd 6bcc d83c b91a 2dbc
00000220: 132f 91bc 27fa ad3b 64c1 163d b116 09be
00000230: 1f1c 4bbe 7285 373d 85cd cabd 4341 4ebc
00000240: 47b9 20be 9a72 453d 3fa9 04be b665 f13c
00000250: 78aa 86bd 5bd0 0fbd 7ea2 a03c 5ec7 bdbd
00000260: ddc5 f9bd f337 a6bd deb2 9cbd 05c6 053e
00000270: 6443 963c 49ba 6cbd fdc7 5c3c b436 923d
00000280: b5ac 4cbe 7bc8 d03d 0038 e93c 1f79 143e
00000290: b811 a73d e1b1 f83d 865d 9bbd 5ef0 33be
000002a0: 6038 073e 8d4d 113e 4341 8dbd bf9d 893c
000002b0: 9a44 aabd 922e 21ba 5729 acbd 6002 b63c
000002c0: 43cb d23b 1392 c13d dc45 7fbe ac91 4ebd
000002d0: be2a 9d3c e9df 89bd c1c4 7ebb f833 1b3c
000002e0: 5849 d93d 4cb6 b1bd 2bfe 833d 6c08 13bd
000002f0: 52f8 4cbc dc82 08bb 47ae 9d3d 8c67 35bc
00000300: 464d a83d ae0c 0abe d263 22be e6e3 93bd
00000310: 8ab7 723d f204 7b3d e6ad 53be 0f00 043e
00000320: d9fe 5c3d c51e 24bc ddb6 923d 6a23 8bbc
00000330: a0f0 4e3e 2529 03be 3fd8 dfbd 1853 1b3e
00000340: c2ae abbc 1273 303d a9d1 c63d 0e0e 36bd
00000350: 0363 96bd e343 f43d 246b 0d3d b9eb 383d
00000360: eb7f 48bd a37b f4bb dd5e b03d 827b b3bd
00000370: dd1e ea3c 9bbf 8dbc 8321 4cbe 90ad d4bd
00000380: dea2 583d 5622 0cbe d7cb acbd e039 2e3c
00000390: 6579 4f3d c8e7 59bd d577 3dbd d701 e5bd
000003a0: e88b 37bd 03a6 29be 3217 8c3c 47e4 b9bc
000003b0: cddf b23d e3f3 81bd 366b 0f3e d59c be3d
000003c0: c9fe d93d a475 6bbe 900f 963d 179a 8abd
000003d0: 7485 b0bc 720a 6ebd 9bf7 c13d 2e01 93bc
000003e0: 93ed 14bd e3b3 083d a4f8 49bd ea0a d7bd
000003f0: aa8e a7bd 59e4 3fbe 8e6a 32bd 1e5a 9abe

fc2.bias f4 [128]
-0.022542458 0.04901877 -0.066238776 -0.12150959 -0.1119662 0.03880913 0.17127325 0.02912143
0.080687895 -0.040252768 0.09271216 -0.056436937 0.15698285 0.0014125694 -0.16747136 0.050743207
0.02488134 -0.043611266 -0.0013362446 -0.079400614 0.0050582443 -0.034067508 0.09333436 -0.06844125
-0.20675097 -0.17396693 0.04214236 -0.20338985 -0.17852277 0.03341488 -0.028073236 -0.012174305
-0.034987647 -0.093213156 0.1056486 0.019204265 0.036514793 0.027602602 0.16321929 -0.06469465
-0.023545804 0.20730673 -0.16945693 -0.11519606 -0.030014908 0.018681087 0.009947848 -0.1479468
0.07314075 -0.1626931 -0.13153897 -0.047333624 -0.119737625 -0.05611424 0.008277934 0.12855613
-0.06573273 0.009104205 -0.10178547 -0.07861075 -0.0074144085 0.04040391 0.02171964 0.042871337
0.17079948 -0.13114783 0.11515268 0.02004476 0.0072477157 -0.06526125 -0.052803535 -0.051005874
0.0489036 -0.028729731 0.07308943 -0.102495275 -0.02074565 -0.07134476 0.08976754 -0.014250623
0.1827245 0.04766741 -0.00527422 -0.069093935 0.05109594 0.14967765 -0.062731534 0.018434007
0.16708523 -0.18003206 0.047325116 -0.020976957 0.076766156 0.10618661 0.12928692 0.092054404
-0.11520455 -0.012119534 -0.04163926 0.044200607 0.023385322 -0.12675026 0.028448235 0.010035949
-0.067314744 -0.04416897 -0.09647079 0.11220365 0.04568929 -0.040004887 -0.082702585 -0.0201981
0.023910804 -0.12072445 0.020154506 0.02172721 -0.032864023 -0.002846897 0.06202252 -0.016557049
-0.03425007 -0.1762236 -0.19221532 0.12770846 0.07998865 0.03846816 -0.043965396 0.20007479
00000000: f6aa b8bc e8c7 483d 32a8 87bd 05da f8bd
00000010: 894e e5bd 53f6 1e3d 4162 2f3e 1190 ee3c
00000020: b23f a53d 16e0 24bd dfdf bd3d 6b2a 67bd
00000030: 1dc0 203e f725 b93a 9d7d 2bbe 1cd8 4f3d
00000040: f4d3 cb3c baa1 32bd ee24 afba ca9c a2bd
00000050: a1bf a53b 5f8a 0bbd 1626 bf3d ed2a 8cbd
00000060: 87b6 53be 6324 32be 789d 2c3d 6e45 50be
00000070: acce 36be 0bde 083d d8f9 e5bc bc76 47bc
00000080: 354f 0fbd 8ae6 bebd 4b5e d83d 4352 9d3c
00000090: 8990 153d da1e e23c f522 273e a17e 84bd
000000a0: 21e3 c0bc 3748 543e 1e86 2dbe e9eb ebbd
000000b0: d3e1 f5bc 1409 993c 4cfc 223c 5e7f 17be
000000c0: d1ca 953d 0599 26be 27b2 06be e7e0 41bd
000000d0: 0039 f5bd 0cd8 65bd 2ca0 073c 38a4 033e
000000e0: e29e 86bd ce29 153c e774 d0bd acfe a0bd
000000f0: 91f4 f2bb 927e 253d 63ed b13c db99 2f3d
00000100: 0fe6 2e3e 9e4b 06be 2bd5 eb3d e934 a43c
00000110: 3f7e ed3b b1a7 85bd 8548 58bd 89eb 50bd
00000120: 244f 483d 9d5a ebbc e9af 953d 0be9 d1bd
00000130: c8f2 a9bc 341d 92bd 0bd8 b73d 727b 69bc
00000140: 221c 3b3e e73e 433d 5dd3 acbb 1f81 8dbd
00000150: fa49 513d 1945 193e 6479 80bd ea02 973c
00000160: 6418 2b3e 535a 38be fbd7 413d ded7 abbc
00000170: 9337 9d3d 5e78 d93d ca63 043e 0587 bc3d
00000180: 5df0 ebbd 0391 46bc ee8d 2abd b20b 353d
00000190: 9392 bf3c d2ca 01be 460c e93c d26d 243c
000001a0: 50dc 89bd 86ea 34bd 7a92 c5bd 07cb e53d
000001b0: b124 3b3d 2adc 23bd f95f a9bd 7c76 a5bc
000001c0: 97e0 c33c 613e f7bd 101b a53c 43fd b13c
000001d0: 6d9c 06bd 0293 3abb 530b 7e3d a6a2 87bc
000001e0: cd49 0cbd f673 34be 18d4 44be 02c6 023e
000001f0: 17d1 a33d ca90 1d3d 0f15 34bd 68e0 4c3e
