checkpoint_actor_1.pth (torch, 165316 bytes, 10 tensors)

bn1.weight f4 [256]
000000 77 68 83 3f 6f 5c 88 3f e8 d8 8c 3f 5e 75 9a 3f
       1.0266255 1.0653208 1.1003695 1.2067068
000010 01 6f 8a 3f 2b 80 92 3f 4e d1 98 3f b6 29 a9 3f
       1.0815126 1.1445364 1.1938875 1.3215854
000020 d9 19 8c 3f 4b a2 85 3f a3 5a 92 3f 81 9d 8f 3f
       1.0945388 1.0440153 1.143391 1.1219941
000030 8d 56 8c 3f 31 de 99 3f d5 f8 94 3f 3a b0 8b 3f
       1.0963913 1.2020932 1.1638438 1.0913155
000040 fa 5c 8f 3f 0f c7 96 3f 89 1e 99 3f 8d 01 97 3f
       1.1200249 1.1779498 1.1962444 1.1797348
000050 1b 00 9b 3f 4b a5 8d 3f dc 5a 8d 3f 93 b0 bf 3f
       1.2109407 1.1066068 1.1043353 1.4975761
000060 f8 2c a0 3f f9 87 ad 3f 1b 26 97 3f ec e6 83 3f
       1.2513723 1.355712 1.1808504 1.0304847
000070 4d a8 ab 3f 0b 5f 8c 3f b9 77 90 3f 8c b4 95 3f
       1.3410736 1.0966505 1.1286536 1.1695724
000080 ee 67 85 3f 8b 94 8c 3f 15 bf 84 3f 3f 48 92 3f
       1.0422342 1.0982832 1.0370814 1.1428298
000090 7e 5a 88 3f 4b 5a a9 3f ec c3 87 3f ff 69 8c 3f
       1.0652616 1.323068 1.0606666 1.0969847
0000a0 a3 38 b9 3f 81 ad 89 3f a9 52 8b 3f da df 98 3f
       1.4470409 1.0756074 1.0884601 1.1943314
0000b0 6a 5d 96 3f e5 f2 b9 3f cd cf 93 3f b4 4e 86 3f
       1.1747258 1.452725 1.1547791 1.0492768
0000c0 76 1c 8c 3f e4 89 84 3f 31 b4 84 3f b4 a5 9a 3f
       1.0946186 1.0354581 1.036749 1.2081819
0000d0 f1 1e 92 3f b7 0f a8 3f a5 04 88 3f 89 c0 7c 3f
       1.1415693 1.3129796 1.0626417 0.98731285
0000e0 49 17 82 3f 39 60 8f 3f bb 6d 9d 3f f6 c5 8c 3f
       1.0163356 1.120124 1.2299112 1.0997913
0000f0 c9 d3 88 3f 54 8f 8e 3f f9 10 8a 3f ad ca 88 3f
       1.0689632 1.113749 1.078643 1.0686852
000100 8d db 9c 3f 25 10 8c 3f 13 15 98 3f 95 9c bb 3f
       1.2254502 1.0942427 1.1881431 1.465716
000110 96 de 92 3f 7f 48 91 3f 7d a3 89 3f c2 06 95 3f
       1.1474178 1.1350249 1.0753018 1.1642687
000120 3a 00 8e 3f 57 5e 8b 3f 33 dc 8a 3f ab a5 85 3f
       1.1093819 1.0888165 1.084845 1.0441183
000130 48 06 8d 3f 24 5b 94 3f ae 70 8e 3f 4d b5 8c 3f
       1.1017542 1.1590314 1.1128137 1.0992829
000140 59 97 ac 3f 2a 87 99 3f 8c 84 84 3f 89 fc 8d 3f
       1.3483688 1.1994374 1.035295 1.1092693
000150 a7 0a a5 3f 75 95 93 3f 68 41 95 3f 40 aa a5 3f
       1.2893876 1.1529986 1.1660585 1.2942581
000160 53 3d 86 3f 8b b9 99 3f e6 09 9c 3f ab d6 86 3f
       1.0487465 1.2009748 1.2190521 1.0534261
000170 c4 c2 8c 3f 69 13 90 3f 71 48 ae 3f 71 26 91 3f
       1.0996938 1.1255924 1.3615857 1.1339856
000180 e2 bd 91 3f 96 f4 a5 3f 1d ce 95 3f 34 5e 92 3f
       1.1386073 1.2965267 1.1703526 1.1434999
000190 b8 ec a9 3f b2 7d b2 3f 6c 88 79 3f 21 39 83 3f
       1.3275366 1.3944609 0.9747379 1.0251809
0001a0 15 d7 91 3f 2b bb 94 3f b1 7d 8e 3f 2f fc 8d 3f
       1.1393763 1.1619619 1.1132108 1.1092585
0001b0 49 e1 7c 3f de e8 83 3f 6f d9 99 3f 03 d5 92 3f
       0.9878126 1.030544 1.201948 1.1471256
0001c0 48 cc 9d 3f 23 cc 8b 3f e1 aa 8d 3f 5a 57 97 3f
       1.2327967 1.0921673 1.1067773 1.1823533
0001d0 c0 51 87 3f 05 ed 93 3f 31 39 94 3f 2a 1d 79 3f
       1.0571823 1.1556708 1.1579953 0.97310126
0001e0 fc d1 a5 3f 2c 5a a1 3f 07 d1 9b 3f f3 13 9f 3f
       1.2954707 1.2605643 1.2173165 1.2427963
0001f0 82 a3 86 3f 72 02 85 3f 9b da 8d 3f f6 dc 79 3f
       1.0518649 1.0391371 1.1082338 0.97602785
000200 1e be 88 3f be 04 98 3f e4 9e 89 3f de 57 ac 3f
       1.0683019 1.1876447 1.0751615 1.3464315
000210 39 45 85 3f 2f 00 8e 3f 2f f7 af 3f 65 ec ba 3f
       1.041175 1.1093806 1.374731 1.4603392
000220 97 f8 bb 3f fd 41 75 3f f6 b1 8e 3f 80 e7 aa 3f
       1.4685239 0.95803815 1.1148059 1.3351898
000230 30 01 96 3f a8 f1 9c 3f f3 bc 99 3f 9e 16 8c 3f
       1.1719112 1.2261248 1.2010788 1.0944402
000240 bc ca d5 3f dd 50 97 3f 52 a2 8c 3f 93 8f 81 3f
       1.6702495 1.1821553 1.0987036 1.012194
000250 ca 7b b4 3f 0d 7b b1 3f f1 c4 8a 3f 8b f6 a0 3f
       1.4100277 1.3865677 1.0841352 1.2575239
000260 f3 49 95 3f fd 3e 95 3f 0e 2e 86 3f 31 3b 9b 3f
       1.1663193 1.1659847 1.0482805 1.2127439
000270 a4 97 85 3f 52 10 96 3f 85 ec 87 3f 9b 58 92 3f
       1.0436902 1.172373 1.0619055 1.143329
000280 98 e9 8a 3f 40 c6 ae 3f 5d 7e 8d 3f 42 84 90 3f
       1.0852537 1.3654251 1.1054188 1.1290362
000290 61 d7 8b 3f fb 6e 8a 3f 59 89 a1 3f c0 58 7d 3f
       1.0925103 1.0815119 1.262004 0.98963547
0002a0 ab e0 9a 3f f6 23 87 3f 75 f8 87 3f af 7b 8f 3f
       1.2099813 1.055785 1.0622698 1.120962
0002b0 2a ed 96 3f c8 2b 9a 3f 3f 57 b0 3f fd ca 8b 3f
       1.1791127 1.2044611 1.3776625 1.0921322
0002c0 30 15 86 3f a5 e9 a8 3f b0 23 94 3f 22 35 85 3f
       1.0475216 1.3196303 1.1573391 1.040684
0002d0 c4 37 80 3f 60 31 89 3f e0 72 9e 3f 7e 85 8b 3f
       1.0017018 1.0718193 1.2378807 1.0900114
0002e0 e6 20 88 3f 4e ab 8f 3f 69 a4 a1 3f 91 a0 8b 3f
       1.063504 1.1224153 1.2628299 1.0908376
0002f0 93 8e 8b 3f 01 3b 7f 3f 6c f4 7b 3f 51 90 97 3f
       1.0902885 0.9969941 0.98419833 1.1840917
000300 87 f5 8a 3f ad c5 89 3f af f8 8e 3f 80 67 92 3f
       1.0856179 1.0763451 1.1169642 1.1437836
000310 5e 88 82 3f 2b b8 99 3f b4 b6 9f 3f 29 6d 8b 3f
       1.0197866 1.2009329 1.2477632 1.0892688
000320 2d 6b 92 3f bf 8f 85 3f 53 1b 91 3f 16 54 92 3f
       1.1438957 1.0434493 1.1336464 1.1431911
000330 7a d2 92 3f 5d f9 a0 3f c4 69 8b 3f 30 54 93 3f
       1.1470482 1.25761 1.0891652 1.1510067
000340 03 68 a9 3f 83 69 93 3f e3 32 7e 3f 3c 1f 93 3f
       1.3234867 1.1516575 0.99296397 1.1493907
000350 1b fb 9c 3f 55 72 89 3f b7 78 90 3f 00 af 9f 3f
       1.2264131 1.0738016 1.1286839 1.2475281
000360 93 6b 8a 3f a8 66 94 3f ab ad 96 3f 15 28 b5 3f
       1.0814079 1.1593828 1.1771749 1.4152857
000370 83 ed a3 3f ec 63 8f 3f 01 bc 99 3f 6c cc 85 3f
       1.2806858 1.1202369 1.2010499 1.045301
000380 ec b1 86 3f c7 f8 90 3f 18 0e 93 3f 3a 8c 84 3f
       1.0523047 1.1325921 1.1488676 1.0355294
000390 02 d0 8e 3f 7c 38 a9 3f 2f 9e 8a 3f 15 90 96 3f
       1.1157229 1.3220363 1.0829524 1.176272
0003a0 e4 58 8d 3f 57 ad 82 3f 9f 1d 81 3f a3 ff 92 3f
       1.1042752 1.0209149 1.0087165 1.1484264
0003b0 eb f8 8e 3f 2b 0c 8d 3f 81 c2 94 3f fc c5 a1 3f
       1.1169714 1.1019338 1.1621858 1.2638545
0003c0 3a d7 93 3f 6b 4d 89 3f 41 d7 89 3f 79 65 a4 3f
       1.1550057 1.0726751 1.0768815 1.2843467
0003d0 c6 d8 90 3f 74 c6 77 3f 37 c8 8b 3f 46 9e b2 3f
       1.1316154 0.9678719 1.0920476 1.3954551
0003e0 d3 8a 88 3f 5b 73 80 3f 21 a0 81 3f d3 a5 89 3f
       1.0667366 1.0035204 1.0126992 1.075373
0003f0 ca 56 ba 3f 9d f0 87 3f 72 70 95 3f 7b cf 97 3f
       1.4557736 1.0620304 1.167494 1.1860193

bn1.bias f4 [256]
000000 c8 11 b5 bd 0e d0 a1 3d 89 48 c1 3d 86 c8 cb bc
       -0.08841282 0.079010114 0.09437663 -0.02487589
000010 ce 39 20 be 95 b8 b4 bc 8a 1b 8b bd 7a a0 78 3d
       -0.1564705 -0.022060672 -0.06792362 0.060699917
000020 17 3e db 3d c1 b0 62 bd 45 6d 38 be ed 81 9c bc
       0.10705202 -0.055344347 -0.18010433 -0.019104922
000030 12 0b 4c be 3f 9d c3 3d e5 9a 92 bc 46 39 eb 3c
       -0.19926098 0.09551477 -0.017896125 0.028713834
000040 17 df 87 3c fb 36 32 bc 08 51 13 3d de 2a b8 bd
       0.01658587 -0.010877366 0.03596595 -0.08992551
000050 8f 05 56 3d ac 22 5e be 61 e3 56 be f3 01 e8 3d
       0.052251395 -0.21692914 -0.20985176 0.11328497
000060 9e 04 2c 3c fb ed 87 bd ce fa 1e be e8 06 c4 bd
       0.010499148 -0.06637188 -0.15525362 -0.0957163
000070 58 45 23 be 52 2e b7 bd 4a 08 85 be 8a f2 e2 3c
       -0.15944421 -0.08944382 -0.25982887 0.027703542
000080 75 20 e5 bd 08 70 55 3d 42 ba f0 bd 1d 0c b8 bd
       -0.11187831 0.052108794 -0.11754276 -0.089866854
000090 60 e9 0c 3e 24 ca a8 3d 51 9d 02 3e be 29 fa bd
       0.137609 0.0824168 0.12755324 -0.12214993
0000a0 9d be a3 3d cf a8 23 3d 50 61 26 3e 6d 61 22 3e
       0.07995341 0.03995591 0.1624806 0.15857477
0000b0 0c 51 88 bd e1 86 c6 bd f0 6f 39 be 42 94 86 bd
       -0.066560835 -0.09693695 -0.18109107 -0.06571247
0000c0 c0 2d 89 3d 59 ea a3 3c dc 53 2b be 87 95 86 3d
       0.06698179 0.020009207 -0.16731209 0.06571489
0000d0 68 8f b5 3d 0b b9 ae bd e4 fa fa bc cf 32 4d 3d
       0.08865243 -0.08531388 -0.030637212 0.050097283
0000e0 a8 d2 ec 3c e7 e0 29 3d d1 2e 3a bc 45 26 14 be
       0.028909042 0.04147425 -0.011363701 -0.14467724
0000f0 4a 6b a2 3c 6c aa 5c bb f2 31 57 be 13 16 36 3d
       0.01982655 -0.0033670915 -0.21015146 0.044454645
000100 e0 d9 56 be 66 44 40 be 29 9d 74 3c e5 93 18 3e
       -0.2098155 -0.18776092 0.014930048 0.14900167
000110 be 7f b9 3d 90 8b c3 bd cc 91 f7 3d f7 b6 05 3e
       0.09057568 -0.09548104 0.120883554 0.13058077
000120 97 e0 fa 3d 27 6e 8b bd 6b 8b 67 3d a4 4d ef 3d
       0.12249868 -0.06808119 0.056529444 0.11684731
000130 73 a8 39 be ee a4 8c 3c a8 1b 47 be 49 cd 5b be
       -0.18130665 0.017168488 -0.19444144 -0.21465029
000140 c3 f9 57 bd 15 af b2 3d 06 6f 83 3d 2f e6 06 bd
       -0.052728426 0.087248005 0.064176604 -0.032934364
000150 de 16 91 3d be ee 0d 3d 84 69 cf 3c 16 ac 28 bd
       0.0708444 0.03465151 0.025318868 -0.04117974
000160 62 97 4d bd 4f 3c ac bd ed e0 4f 3e 26 7f ca 3d
       -0.050193198 -0.084099405 0.20300646 0.09887533
000170 05 52 80 bd 99 84 b7 ba 1c bc e6 3d 0b 34 18 be
       -0.06265644 -0.0014001309 0.11266348 -0.14863603
000180 78 e5 1d 3e e6 72 f9 3d c6 58 d5 3d b2 1b d3 3c
       0.15419567 0.12180118 0.10417323 0.025770042
000190 b2 b6 0d 3e d0 4f 81 3d ef 26 43 bd 63 82 03 3e
       0.13839224 0.06314051 -0.04764455 0.12842707
0001a0 b7 8a b3 bc 2f 7d 42 3d 3c 46 e9 3d 15 9f b2 bc
       -0.02191673 0.047482666 0.11390349 -0.021804372
0001b0 2c c8 4d be 17 7a 05 be 0b b7 1d 3e 0d 42 4c 3d
       -0.20095891 -0.13034855 0.15401857 0.04986768
0001c0 0a f7 41 bd ea a8 07 3d 90 c2 0b 3e e7 79 32 3c
       -0.047354735 0.033120073 0.13648438 0.010893322
0001d0 d9 cd 18 3e 27 8b 33 3e d6 34 70 3d 40 86 f3 bd
       0.14922275 0.17533551 0.05864414 -0.118908405
0001e0 07 12 a5 3d 60 c3 2c 3e c7 9f 71 bd 38 ba ae 3c
       0.08060079 0.16871405 -0.058990266 0.02132903
0001f0 d8 74 40 3c bf ea c7 bd 08 a0 b2 bd 3a 35 c2 3d
       0.011746608 -0.09761571 -0.0872193 0.094828084
000200 f9 0a 9d bc b2 6c e2 bb 08 fb 02 3e 45 8e 05 bd
       -0.019170271 -0.00690993 0.12791073 -0.032606382
000210 b8 a1 03 3e fd 2d 39 be 17 89 f1 bc a0 c2 32 be
       0.1285466 -0.1808395 -0.029484315 -0.17457056
000220 a8 f0 25 bb d8 db 62 be 2c 5c 21 3e b2 6c 80 bd
       -0.0025320444 -0.22154176 0.15757817 -0.06270732
000230 c7 c9 d4 bd 0b cb fc 3d 03 83 9e bd be 99 93 3d
       -0.103900485 0.12343415 -0.07739832 0.07207058
000240 91 70 5a bd d5 71 8f bd b6 36 5b be f7 c1 13 3e
       -0.053330008 -0.070041336 -0.2140759 0.1442946
000250 7c 8b fa bd e1 81 6b bb b7 08 85 3d e3 d1 78 bc
       -0.12233636 -0.0035935568 0.06495803 -0.01518676
000260 cb e5 bf bb ef be 31 3d dd 7c 69 3c 2b cf 41 be
       -0.005856251 0.04339498 0.014250961 -0.18926685
000270 6c c9 d2 bc 32 99 ec bc fa 8f 89 3d 2f e5 3d bd
       -0.025730811 -0.028881643 0.067169145 -0.046361145
000280 62 7b 81 3d a9 a6 d8 bc 79 be 3d 3d 19 3b 4d be
       0.063223615 -0.026446657 0.046324227 -0.20042075
000290 1b 17 fe bd 98 56 21 be 11 3e 47 be 4e 01 8a 3d
       -0.12406751 -0.15755689 -0.1945727 0.0673853
0002a0 d9 ab b9 bc 6d 18 ae 3d 97 bd 03 3e 4c 17 13 3e
       -0.022664951 0.085007526 0.12865292 0.14364356
0002b0 3a c5 f6 bb 87 6a ac 3c 38 fb 36 bd 74 84 f5 bd
       -0.0075308355 0.02104689 -0.044673175 -0.11988154
0002c0 0d b7 b6 3c 0a 5e ae 3b f9 68 c5 3d 84 ce c9 3d
       0.022304082 0.005321269 0.096391626 0.09853843
0002d0 c7 9c 40 be b9 ec 98 bd ae 08 4f bd 25 ef b4 3c
       -0.18809806 -0.07467026 -0.050545387 0.02208669
0002e0 e6 e5 3a 3e c1 cc 8f 3d cd 97 f6 3c 68 31 b4 3d
       0.18251762 0.070214756 0.030101681 0.08798486
0002f0 8e 73 09 be 92 4a 37 3d 81 73 0a be 4c 1b 1f 3d
       -0.13422987 0.04474885 -0.13520624 0.03884439
000300 67 62 21 be b3 21 15 bb 5e 1d 29 3d 64 32 f0 bd
       -0.15760194 -0.0022755682 0.041287772 -0.11728361
000310 b4 a3 06 3d 6e 3b 63 bd b2 ea ff bc 42 48 d5 bc
       0.032870963 -0.0554766 -0.031239841 -0.026035432
000320 8c 6b be bd 3f 17 30 be 2f 7f 7d 3a 5b f4 25 3e
       -0.09297857 -0.17196368 0.0009670136 0.16206495
000330 b7 10 c6 3d 23 04 03 3e af 98 37 bd ea 6b 2b 3d
       0.09671157 0.12794547 -0.044823345 0.04185096
000340 9b 3e 8b 3d d6 68 63 3d 23 1c 8a 3d 60 d9 16 bd
       0.067990504 0.0555199 0.06743648 -0.0368284
000350 7a 59 27 be b4 67 fd bd d0 77 db bd 7d fc 9d bd
       -0.16342726 -0.123732954 -0.10716212 -0.07714174
000360 54 39 07 bd b9 94 f6 3d 7a f9 80 bd a8 d8 ae 3d
       -0.033013657 0.12040085 -0.06297584 0.08537418
000370 ee a2 b5 bc b0 d0 3e bc 25 42 0b bd 4c 6a be 3d
       -0.022172417 -0.011646435 -0.033998627 0.09297618
000380 3f fa 0a be 92 c8 c6 bd 2d 62 04 bc 4c d5 8c bb
       -0.13572024 -0.097062245 -0.008080048 -0.004297888
000390 6c 45 2a 3d f3 b3 b9 3d 27 e5 ba 3b be 08 15 b7
       0.041570112 0.09067526 0.0057035866 -8.8831275e-06
0003a0 03 81 bb 3d a4 d6 f3 bd 0c dc de bc 97 a8 d2 3d
       0.091554664 -0.11906174 -0.027204536 0.10286062
0003b0 95 58 4f 3d 59 ff 8f 3c 82 34 34 3e f5 f2 1b 3e
       0.050621588 0.017577814 0.17598155 0.152294
0003c0 2a 7d 41 3e f4 b3 2b be 90 95 2c 3e 1c 92 df 3d
       0.18895403 -0.16767865 0.16853929 0.1091654
0003d0 56 da 8c 3a 2c 3d 1b bc 04 a1 2e 3d 21 f7 31 be
       0.0010746222 -0.009475034 0.042634025 -0.17379428
0003e0 3e 10 28 bc b7 d9 02 bd db 1b 20 be 76 1c f9 bd
       -0.010257779 -0.03194591 -0.15635626 -0.121636316
0003f0 b5 70 6c bc 52 52 e9 bd 76 40 89 3d 4b 50 af bd
       -0.014431168 -0.113926545 0.06701748 -0.085602365

bn1.running_mean f4 [256]
000000 a7 9b b5 3d 1f fa 22 3d c0 29 6c 3f 0c 20 8f 36
       0.08867579 0.039789315 0.92251205 4.265463e-06
000010 4b a1 a5 3f 8c e6 ad 3c d2 61 e4 3d 7b b2 27 3f
       1.2939848 0.021228097 0.1115147 0.65506715
000020 a4 1d aa 3d 21 7e ab 3f 1a ee 10 3e 2b 10 57 3d
       0.08306435 1.3397866 0.14153329 0.052505653
000030 46 d8 4e 40 17 97 47 3f a6 a2 21 3f 39 41 66 3e
       3.2319503 0.7796492 0.63138807 0.22485818
000040 76 42 9d 3d 0b 2b 04 3f 49 e2 b5 3c f4 11 d5 3e
       0.07678692 0.5162818 0.022202628 0.4161526
000050 d0 00 7d 3a 68 5a a4 3e ea c9 81 3f a6 18 7a 3b
       0.0009651305 0.32100224 1.0139744 0.0038161664
000060 29 0e 24 39 93 ab 81 3e 6a 91 6f 3f b5 77 bd 3f
       0.00015645534 0.25326213 0.9358126 1.4802157
000070 a6 02 20 3e 1f 90 90 3f 4d cc f6 3d 17 80 3f 3f
       0.1562601 1.1293982 0.12050686 0.74804825
000080 ac 53 4a 3e 3a 9b 09 3f 50 24 ea 3d fd 8d b9 3f
       0.19758481 0.5375248 0.11432707 1.4496456
000090 3d 85 8a 3e 32 a1 8c 3d 09 14 35 40 e7 85 03 3e
       0.27054778 0.06866683 2.8293478 0.12844048
0000a0 a0 a1 e7 3d 8e 3f d1 3f b9 36 aa 3f 1b f3 31 3f
       0.113101244 1.634752 1.329795 0.69511575
0000b0 bb 50 01 3e 82 59 36 3d 2a 61 d7 3d 30 ef fd 3d
       0.12628452 0.044518955 0.105165794 0.12399137
0000c0 5b dd 24 3d 3c 97 25 3f 87 83 88 3e 8f d7 22 3f
       0.040250164 0.6468389 0.26662847 0.63610166
0000d0 94 d0 e0 3f 42 5f 0e 3f b5 5e 68 3d d4 80 c5 3d
       1.7563653 0.556141 0.056730945 0.09643713
0000e0 4d 64 18 3d 15 de a8 3d 7b 5f 75 3e 67 32 ad 3e
       0.03720503 0.08245484 0.23962204 0.33827516
0000f0 8a 69 1e 3e b9 60 aa 3f d6 25 02 40 ce d6 2f 3f
       0.15469947 1.3310767 2.0335593 0.6868714
000100 29 9f 83 3d 04 00 00 00 50 0c 90 3e 88 df 76 3f
       0.06426842 6e-45 0.28134394 0.9643483
000110 fe a9 af 3f 51 80 61 3f 04 00 00 00 a2 1d 7f 3d
       1.3723752 0.8808642 6e-45 0.06228412
000120 03 37 31 3e 1d a7 8d 3f 47 d2 f2 3f 81 90 26 3e
       0.17306142 1.1066624 1.8970422 0.16266061
000130 e8 06 55 3f ce 8c 94 3f b3 4a 55 3f c8 aa 5d 3e
       0.83213663 1.160547 0.83317107 0.21647179
000140 42 d5 77 3e 91 2c b5 3f 4c f5 d1 3d b4 62 3a 3f
       0.24202445 1.4154226 0.10251865 0.7280686
000150 d8 ed 0e 3d ed e6 9b 3f 97 d6 31 3f f7 64 df 3f
       0.034894794 1.2179848 0.69468063 1.7452687
000160 fe 31 0b 3e b6 3f 00 3e d9 4c 10 3e af ea 1a 3e
       0.1359329 0.12524304 0.14091815 0.15128587
000170 9e 5e 55 3e cb a4 ad 3f ff 1e 46 3c 60 84 d3 3f
       0.20836875 1.3565916 0.012092351 1.6524773
000180 79 40 2c 3e 60 7b 83 3d 23 22 f0 3e ad a0 8b 3f
       0.1682147 0.06420016 0.46901044 1.0908409
000190 64 da 0a 3f a0 05 e1 3c 62 9d f3 3e 24 63 56 40
       0.5423949 0.027468503 0.4758101 3.349801
0001a0 c0 b8 a2 3e 91 ec a5 3f 99 a2 91 3f 7d 56 00 3e
       0.31781578 1.2962819 1.1377746 0.12532993
0001b0 04 00 00 00 2c 36 85 40 0c 29 99 3f 6d ef 2a 40
       6e-45 4.162863 1.1965652 2.6708634
0001c0 dc ca e1 3e 65 61 8a 3f 71 24 a1 3f e4 14 92 3e
       0.44100082 1.0810972 1.2589246 0.28531563
0001d0 04 00 00 00 7b 79 95 3e 82 a2 11 3d 5e 2d 29 3f
       6e-45 0.29194245 0.03555537 0.6608485
0001e0 d0 43 8c 3c 48 3e ea 3d 5a 8b 2e 3f 6a ae 31 3d
       0.01712218 0.114376605 0.68181384 0.043379225
0001f0 1e c7 b4 3e 1f 69 c4 3e d2 63 59 3f 82 3a 22 3c
       0.35308164 0.3836145 0.8491794 0.009901645
000200 d1 0b 4d 3f a6 cd b1 3d d5 b2 3a 3f 92 c6 3d 3e
       0.80096155 0.086818025 0.72929126 0.1853278
000210 ed a4 88 3d 43 8c 9f 3f 2f 2f 47 3f 60 0f a6 3d
       0.06672082 1.246468 0.7780637 0.08108401
000220 aa 97 04 3e 91 ea d0 3e 8c 0c 01 3f 9b a0 43 3d
       0.1294848 0.4080396 0.5040977 0.047760587
000230 35 b1 65 3e 05 17 4d 3e 5c b5 9f 3e 9c e4 76 3e
       0.2243088 0.20028313 0.31193054 0.24110645
000240 fa 02 20 3f e6 b9 8c 3d c4 7d 69 3f ae d9 e6 3f
       0.6250454 0.06871395 0.9120753 1.803518
000250 8f c3 7f 3c 50 c2 7c 3e 17 b5 9c 3c 75 ea c2 3f
       0.01561059 0.246835 0.01912932 1.5227801
000260 9a fc 70 3e 37 e2 e4 3d 6e 6b d5 3e 30 8d 2e 3e
       0.2353386 0.111759596 0.41683525 0.17046046
000270 b9 92 6d 3e e7 54 a5 3e a4 b0 6a 3e b9 39 a2 3f
       0.23200502 0.32291338 0.22918946 1.2673866
000280 86 8a 43 3f 04 eb 47 3e 8b e1 a7 3e 8e af 38 40
       0.76383245 0.19523245 0.32789263 2.885715
000290 0b 6c 75 3e d1 e4 32 3c b3 26 ee 3c e5 d5 a8 3f
       0.23966996 0.010918812 0.029071188 1.3190275
0002a0 9b 19 75 3f b0 7f 76 3f 98 27 1f 3e de 38 8b 3d
       0.95742196 0.96288586 0.15542448 0.06797956
0002b0 04 ca 92 40 78 a5 02 3f e2 de e1 3e a6 f6 21 3e
       4.58716 0.51033735 0.4411536 0.15816745
0002c0 a1 b5 00 40 28 68 29 3f 11 34 d1 3f 93 dd e4 3f
       2.0110857 0.66174555 1.6344014 1.7880119
0002d0 2b 58 11 3f 78 ed 01 40 c7 d9 55 3f 35 d1 61 3f
       0.5677516 2.030119 0.83535427 0.8820985
0002e0 bb 85 d5 3e e8 a7 04 3f 82 9f 06 3f ab 66 93 3f
       0.4170359 0.51818705 0.5258714 1.1515707
0002f0 b7 7b 7d 3e 0e 17 0b 40 af fb e8 3a 4a 85 df 3f
       0.24754225 2.1732821 0.0017775203 1.7462552
000300 16 90 74 3f 34 51 23 40 82 67 9f 3f 52 a7 f3 3e
       0.9553236 2.5518312 1.2453463 0.47588593
000310 e5 c6 87 40 39 fc ca 3d 3f 74 90 3f 49 e7 e6 3d
       4.243029 0.09911389 1.1285475 0.11274583
000320 e8 40 11 3e ed e5 85 3f 3e 54 60 3e 1c 5c 5a 3e
       0.14184916 1.0460793 0.21907136 0.213242
000330 74 b5 ab 3f 70 df aa 3d 69 92 76 3e 0a 54 c7 3f
       1.341475 0.083433986 0.24079289 1.5572522
000340 b1 31 ca 3e e8 ad ea 3d 7e b9 b5 3e f3 90 b8 3e
       0.39491037 0.11458951 0.35493082 0.36048087
000350 ff 0a 0a 3e 04 00 00 00 92 a4 93 31 74 d9 0e 3d
       0.13480757 6e-45 4.2969726e-09 0.03487535
000360 d5 34 4a 3d f3 db 6b 3e e9 60 92 3e 33 e5 9b 3c
       0.04936679 0.23033123 0.28589562 0.01903019
000370 ce e6 f1 3e 24 d9 8b 3e 56 70 02 3f dc a2 1a 3f
       0.47246403 0.27314103 0.5095266 0.60404754
000380 86 d6 5c 3f 54 9a 60 3f 90 48 06 35 0d 13 ee 3e
       0.86264837 0.87735486 5.002448e-07 0.4649891
000390 9d e2 48 3e 1e ec 41 3e a8 c3 7e 3b 00 a3 53 3f
       0.19617696 0.18937728 0.0038873944 0.82670593
0003a0 e1 7e a5 3f 69 bd d2 3d df 2c 8e 3f 1c d8 e6 3f
       1.2929345 0.10290033 1.1107444 1.8034701
0003b0 79 01 95 3d 61 b2 06 3f 6b 5d 40 3f e1 07 ea 3f
       0.072756715 0.52615935 0.75142545 1.8283654
0003c0 56 70 61 3d 85 53 cf 3d a8 e2 fd 3d a1 62 6c 3e
       0.055038773 0.10123352 0.12396747 0.23084499
0003d0 db 0b cc 3d 3d a4 34 40 c1 63 fa 3e db f6 99 3f
       0.09963199 2.8225243 0.4890423 1.2028459
0003e0 63 19 b5 3e 0f 42 91 3f df 10 d3 3f 6e c6 90 3f
       0.3537093 1.1348284 1.6489524 1.1310556
0003f0 76 4c 00 3d 52 40 f2 3d bd e2 61 3f b1 a8 55 3f
       0.03132292 0.118286744 0.882366 0.8346053

bn1.running_var f4 [256]
000000 37 ef f2 3d 4d 5f 34 3d e5 d3 4a 40 c2 90 fa 34
       0.11862033 0.0440362 3.169183 4.6671454e-07
000010 33 02 00 40 62 0f 0b 3d 69 8c 35 3e 25 58 29 3f
       2.0001342 0.033950217 0.17729343 0.6615012
000020 a3 74 cd 3d b8 16 29 40 d7 4a f2 3d b4 03 9e 3d
       0.10032012 2.6420116 0.11830681 0.0771555
000030 a2 d1 4d 40 d9 f7 65 3e 89 ab bd 3e 9a 32 dd 3e
       3.21592 0.22457828 0.37044933 0.43202668
000040 27 50 96 3d 3a e8 41 3f 8e c4 e9 3c 85 56 18 3f
       0.073395066 0.75744975 0.028536107 0.5950702
000050 d6 5b 7c 3a 48 ce d9 3e de 3a bf 3f 50 a4 53 3b
       0.0009626722 0.42540193 1.493984 0.0032293983
000060 de 5e 4b 39 c5 a6 57 3e 22 3d 84 3f f3 de 34 40
       0.0001939493 0.21059711 1.0331156 2.8261077
000070 7b f9 34 3e 2a 13 1f 40 16 9a 39 3e 8e 6d a9 3f
       0.17673294 2.4855447 0.18125185 1.3236558
000080 df f8 f6 3e d0 d5 b3 3f 4b eb 6f 3e 48 61 b1 3f
       0.4823675 1.4049625 0.23429601 1.3857813
000090 89 bd 23 3f 32 20 eb 3d 98 b4 1e 40 96 27 84 3e
       0.6396108 0.1148075 2.4797726 0.25811452
0000a0 2f c4 cc 3d 97 8d 50 40 fa da e1 3f b3 e6 c3 3f
       0.099983566 3.258642 1.7644951 1.5304779
0000b0 86 79 07 3e 86 ad 3b 3d f9 e7 44 3e 3f 86 42 3e
       0.13229951 0.04581978 0.19229116 0.18996523
0000c0 51 44 42 3d 2f e0 32 40 50 a0 dd 3e 90 16 03 3f
       0.047428433 2.794933 0.4328637 0.512063
0000d0 4a 31 13 40 90 89 0a 3f 92 37 1d 3d 88 9e 11 3e
       2.2998834 0.54116154 0.038383074 0.14220631
0000e0 9a df 49 3d 00 fb ff 3d 50 1d e7 3e 39 c8 52 3f
       0.04928551 0.12499046 0.4513955 0.82336766
0000f0 f3 9e ab 3e 2a 60 2f 40 0c ab 8c 40 86 fd 95 3f
       0.33519706 2.7402444 4.3958797 1.1717994
000100 e8 a4 64 3d 04 00 00 00 fc 2b 6b 3e f7 8d d2 3f
       0.05582133 6e-45 0.22965997 1.6449574
000110 02 c6 b2 3f 94 6e d8 3f 04 00 00 00 78 39 86 3d
       1.3966677 1.6908746 6e-45 0.0655393
000120 bc ea 2a 3e 2b 99 ac 3f 60 b8 41 40 48 2b ab 3e
       0.16691107 1.3484243 3.0268784 0.33431458
000130 f5 26 82 40 c0 4f ef 3f 6e b8 8e 3f e0 fd a0 3e
       4.0672555 1.8696213 1.1150033 0.3144369
000140 4c 23 4b 3e 03 65 28 40 d6 03 13 3e 88 3f 50 3f
       0.19837683 2.6311653 0.14356932 0.8134694
000150 ab 1e ed 3c 7e 2e f3 3e 22 d2 b4 3f 36 11 91 40
       0.028945288 0.47496408 1.4126627 4.533351
000160 87 a6 76 3e c2 22 43 3e c5 3f 4a 3e e8 35 5d 3e
       0.24086963 0.19056228 0.19750889 0.21602595
000170 24 da 83 3e 5c 7e 32 40 a1 68 59 3c 65 e0 83 3f
       0.25752366 2.7889624 0.013269574 1.0302855
000180 32 0e 9a 3e 47 59 6b 3d bc 35 78 3f 10 2a 8a 40
       0.30088955 0.05745819 0.9695699 4.3176346
000190 e3 84 4a 3e 8a 57 a0 3c 77 16 34 3f 1d 32 95 40
       0.19777255 0.019572992 0.7034678 4.6623673
0001a0 2a d6 73 3f d8 d6 e0 3f 95 6e e2 3f d2 29 56 3e
       0.95248663 1.7565565 1.7689997 0.2091439
0001b0 04 00 00 00 40 d1 13 40 c0 eb f2 3f 8c f4 d5 3f
       6e-45 2.3096466 1.8978195 1.6715255
0001c0 e5 89 3f 3f 81 bd fc 3f 7d 6f 5b 40 9d 60 d8 3e
       0.74819785 1.9745332 3.4286797 0.4226121
0001d0 04 00 00 00 b3 89 b2 3e 4b 64 35 3d c9 16 0b 40
       6e-45 0.3487068 0.0442851 2.1732657
0001e0 d6 af 6f 3c 93 8d 83 3d 4e 4f 86 3f a2 f0 23 3d
       0.014629325 0.064234875 1.0492952 0.040024407
0001f0 80 f6 7e 3f 1e 82 0b 3f e5 da 97 3f 6b 09 23 3c
       0.9959488 0.5449542 1.1863676 0.009950976
000200 f2 f8 10 3f 0a 6d ef 3d a6 86 ea 3f ea df 1b 3e
       0.5662986 0.116907194 1.8322341 0.15222135
000210 40 99 92 3d 83 e5 0b 40 41 81 b9 3e bc 11 a0 3d
       0.07158136 2.1858833 0.36231425 0.078158826
000220 fe 50 b0 3d 2d 06 41 3f 14 9f 3e 3f 06 34 cb 3c
       0.08609198 0.7540005 0.74461484 0.02480508
000230 ed 98 b8 3e 5f c9 8f 3e f3 3c d0 3e 64 ad e1 3e
       0.36054173 0.2808332 0.406715 0.440776
000240 93 93 00 3e bd ab 98 3d 3e 75 ce 40 be 54 1f 40
       0.12556295 0.074546315 6.451812 2.4895473
000250 ce cd b4 3c 04 2a 26 3e 4b 29 99 3c 71 31 71 40
       0.022070792 0.16226965 0.018696448 3.7686427
000260 26 da 8f 3e 3b e8 13 3e 40 ad 84 3f e3 9b a8 3e
       0.28096122 0.14444058 1.0365372 0.32931432
000270 0c 5b 2c 3f 3f 80 23 3f 5d 71 fb 3e ce 97 cd 3f
       0.67326427 0.63867563 0.49109927 1.6061952
000280 1d d2 93 3f 0c 8a 71 3e 79 ce 06 3f db 9e 45 40
       1.1548496 0.23587817 0.526588 3.0878208
000290 7b 81 be 3e fd 0a 0c 3c d9 1e f7 3c 48 9e 18 40
       0.3720816 0.008547542 0.030166076 2.3846607
0002a0 ed d7 5b 3f 26 85 6f 3f a9 cf 93 3e 9e dd ec 3d
       0.8587635 0.93562543 0.2886937 0.115657076
0002b0 1e b6 ed 3f 29 72 8d 3e d4 c9 a9 3e c5 92 87 3e
       1.8571203 0.2762616 0.33161795 0.26479164
0002c0 c2 6c 50 40 d0 1c bd 3f 3d 2d 40 40 c6 2a 4b 40
       3.256638 1.4774418 3.0027611 3.1744857
0002d0 0b 8e 01 40 0e 2f 43 40 63 5d 26 3f a6 0f d9 3f
       2.0242946 3.049747 0.64986247 1.69579
0002e0 aa fd af 3f a5 48 62 3f 0b 10 80 3e 6e d8 71 40
       1.3749287 0.88392097 0.2501224 3.7788348
0002f0 ed 79 4b 3f 53 c2 df 3f 56 d7 69 3a 1b 11 d2 3f
       0.7948292 1.7481178 0.0008920332 1.641147
000300 e4 13 6c 40 95 84 20 40 72 2b 0e 40 a9 99 00 3f
       3.688714 2.5080922 2.2214017 0.50234467
000310 c7 29 84 40 34 05 ce 3d 7c 08 d7 3e d2 24 14 3e
       4.1301 0.10059586 0.4199866 0.14467171
000320 b3 7d 67 3e bb e7 ed 3f f7 75 04 3f a5 23 12 3f
       0.22606544 1.8586344 0.517425 0.5708564
000330 f5 71 28 40 12 2a 37 3d 39 94 cc 3e b9 01 1d 3f
       2.6319554 0.044717856 0.39956835 0.61330754
000340 66 a3 0a 3f 1f c1 15 3e b1 8f 71 3f 3f 84 08 3f
       0.54155576 0.14624451 0.9435988 0.5332679
000350 a9 41 47 3e 04 00 00 00 38 84 bb 30 7d 0a 00 3d
       0.19458641 6e-45 1.364362e-09 0.031260002
000360 e7 14 4a 3d 54 bc ae 3e d5 96 50 3e f7 eb d9 3c
       0.04933634 0.34128058 0.20370038 0.026601775
000370 ea 29 24 3f 95 0e 3c 3f bd af 71 3f 93 9f a3 3f
       0.64126456 0.7345975 0.9440878 1.2783073
000380 df 1d a8 3f 3a 18 fd 3f fe 2d 4e 33 d8 58 31 3f
       1.3134116 1.9773018 4.8004942e-08 0.6927619
000390 91 59 c3 3e 95 b2 2c 3e d8 00 3b 3b 43 25 86 3f
       0.3815427 0.16864999 0.0028534438 1.0480121
0003a0 d2 9c 2e 40 cc f4 36 3e 00 3a 7d 40 e8 1e 48 40
       2.7283216 0.1786682 3.956665 3.1268864
0003b0 d2 69 ca 3d c2 67 bb 3f 78 55 8e 40 8c 05 03 3f
       0.09883465 1.4641039 4.447933 0.5118034
0003c0 14 ca 72 3d 0e 55 3f 3e ea 4f 55 3e 4f 88 e3 3e
       0.059274748 0.1868479 0.20831266 0.44439933
0003d0 1c a1 fe 3d ff 8f 2d 40 13 c3 df 3f b3 76 15 40
       0.12433073 2.7119138 1.7481407 2.3353698
0003e0 21 ef 98 3f 92 af 3c 40 0b 33 24 41 68 b6 24 40
       1.1947976 2.948216 10.262462 2.5736332
0003f0 58 ea ff 3c 16 7a 4e 3e a9 7f 9d 3f 03 dc 87 3f
       0.031239673 0.2016376 1.2304584 1.0614017

fc1.weight f4 [256, 24]
000000 e8 de 0e 3d 68 25 48 3d 29 e3 01 bc 4a 54 82 bd
       0.03488055 0.0488638 -0.007927694 -0.06363733
000010 f8 8b a9 bd c8 59 95 bd 14 d1 88 bc 7e 43 b2 bc
       -0.0827865 -0.07292515 -0.016701259 -0.021760698
000020 2c af 00 3e e1 31 2e 3e ea a2 99 3a be dd ac 3c
       0.12566823 0.17011215 0.0011721526 0.021101829
000030 a0 49 79 bd 17 bc ae bd 1a 50 02 3d 28 98 1b 3d
       -0.06086123 -0.08531969 0.031814672 0.037986904
000040 37 55 13 3e 1f 0a 32 3e 71 62 2b 3d 20 37 33 bc
       0.14387976 0.17386673 0.041841928 -0.010938436
000050 04 c9 0f 3c 6c 7e e8 bd eb f2 1a 3d 63 3a f1 bc
       0.008775953 -0.11352238 0.03782932 -0.029446786
000060 34 ab 04 3e f3 f0 39 3e f2 05 6f 3d 79 75 d5 3c
       0.12955934 0.18158321 0.05835528 0.026056992
000070 52 39 d0 bd a0 cd 1c be b7 78 80 bc 5b 1a 8d 3d
       -0.10167183 -0.15312815 -0.015682561 0.068897925
000080 ec 52 23 3e 97 ac 0e 3e 24 31 42 3d 94 5e 21 3d
       0.15949601 0.13933025 0.047410145 0.039396837
000090 66 7c a5 bc 83 89 06 be 93 9b e5 bc d8 3f 54 3c
       -0.02020092 -0.13138394 -0.028028285 0.012954675
0000a0 ad 79 12 3d 08 b5 85 3d 85 22 15 bd 0a c2 bd bd
       0.03576057 0.065286696 -0.036409874 -0.09265526
0000b0 71 44 51 3c 80 48 a8 bc d8 11 7b 3c e6 d8 bf bd
       0.012772665 -0.020542383 0.0153240785 -0.09367542
0000c0 b6 71 b1 bc e9 fe 48 3d 40 07 e5 bc 20 7b d4 3b
       -0.021660667 0.049071226 -0.027957559 0.006484404
0000d0 74 67 00 3c eb da b4 bd 9a 67 45 38 85 73 ce 3c
       0.007837165 -0.08830818 4.7064947e-05 0.025201568
0000e0 4d e8 84 3c 5c 2a 83 3c 32 35 b3 bd 18 0d 62 3c
       0.01622405 0.01601141 -0.087503806 0.013797067
0000f0 5f 3a ad ba c7 cd 19 bc 6a 3a ed bd 7c cf 76 bd
       -0.0013216248 -0.00938744 -0.11583407 -0.060256466
000100 18 8c 48 bd 57 eb b0 3c 2d cb 92 bd dd 85 ee 3c
       -0.04896173 0.021596594 -0.07167659 0.029116565
000110 38 2e ed bd 14 e9 9a 3d cf 6a 52 3b a9 2c 54 3d
       -0.11581081 0.075639874 0.003210712 0.051800404
000120 47 65 68 3e 06 d2 06 bd 4d 72 e1 3b 6b a8 d3 bb
       0.22694884 -0.032915138 0.006880081 -0.006459286
000130 37 7e 86 3d 69 57 e6 bd e7 6e 52 bd f6 d2 8a 3a
       0.06567042 -0.11247141 -0.051375296 0.0010591436
000140 4e dd 06 3d 26 6c 52 3c 35 1a ec bb df f8 df 3c
       0.032925896 0.012843167 -0.0072052726 0.02734035
000150 57 ea 88 bc 48 1c 6d be 8c de c1 3b 9f 4c 01 bd
       -0.016713304 -0.2315532 0.0059164222 -0.031567212
000160 15 cd c3 3d 4d 48 0c bd 43 29 00 bd 70 6d bf bc
       0.09560601 -0.03424864 -0.03128935 -0.023367614
000170 60 a6 82 bd d2 b7 22 be 85 60 d6 3c 8b ca 48 bc
       -0.0637939 -0.15890434 0.026169071 -0.012255321
000180 a6 4f d2 bc 01 51 b6 bd e3 e4 22 bd ec 0b 66 3c
       -0.025672745 -0.08902169 -0.039769065 0.014040928
000190 b2 5b eb 3d d0 6d 0b be bb 04 46 3c 10 98 29 3c
       0.11492099 -0.13616109 0.012086089 0.010351196
0001a0 fc 94 83 ba e0 74 1d be 8b 27 7a 3c 8f 78 db bc
       -0.0010038908 -0.15376616 0.015268217 -0.026790885
0001b0 1e e3 97 3d 32 d9 04 3c ff 13 4f 3d 3a 3a 87 bd
       0.07416366 0.008108424 0.05055618 -0.06602903
0001c0 ad 58 3c bb 86 0d 83 bd e4 4f 24 3d 5f 92 1e bd
       -0.0028739378 -0.06399064 0.040115252 -0.03871381
0001d0 b0 4a b4 3d 42 fd 2d 3e ce dd d5 3c a5 10 84 3c
       0.08803308 0.16991141 0.026106741 0.016121218
0001e0 b9 b9 71 bc 2c e0 a0 bd a5 a8 ed bc ad 6e 6f 3c
       -0.014753752 -0.078552574 -0.02901108 0.0146137895
0001f0 c8 ad d3 bb 6d 40 b1 bd b8 6b d5 3c 83 e0 49 bd
       -0.0064599253 -0.08654866 0.02605234 -0.049286377
000200 10 f3 70 3b a1 92 77 bd 73 d4 59 bc 70 b8 4d 3b
       0.003676597 -0.06044257 -0.013295281 0.003139045
000210 bb 07 6d bd 65 46 3b be fe 2e 91 3c 29 da 88 bd
       -0.0578687 -0.18288572 0.017722603 -0.06682236
000220 f4 45 bf 3d 6d fc d9 bd cf 4c 19 3d c5 ce 91 3d
       0.093395144 -0.106438495 0.037426766 0.07119516
000230 cb 39 87 bd e4 1c 90 be 63 64 18 bc 24 55 5c 3d
       -0.0660282 -0.28147042 -0.009301278 0.053792134
000240 5a dd 2c bc 7e d5 9e bd 67 66 ec bc c9 05 0d bd
       -0.010550821 -0.07755564 -0.028857423 -0.034429345
000250 a8 04 9d bd df a8 52 bd e7 61 ee 3c cc 9a d2 3a
       -0.07666904 -0.05143058 0.029099418 0.0016067862
000260 c6 75 1b 3e 71 e5 41 bd de de 31 3d a1 e2 e6 bb
       0.15181646 -0.047337953 0.043425433 -0.0070460592
000270 f3 45 05 bd 7c ae f5 bd 4d d5 fa 3c cb 88 12 bd
       -0.032537412 -0.11996171 0.030619288 -0.035774987
000280 73 3b 93 3e 74 93 23 bd be 9f fd 3c a4 30 60 3d
       0.28756294 -0.039935544 0.03095996 0.054733887
000290 12 c1 64 bb f2 a6 c9 bd e5 15 1b 3c 0c 28 25 3c
       -0.0034905118 -0.098462954 0.009465669 0.010080349
0002a0 77 44 fe 3c 56 ef f7 3c bc 85 87 bd 5d ef fa 3c
       0.031038506 0.030265491 -0.06617305 0.030631715
0002b0 69 85 28 bd 06 3a b0 3c c6 9b ee 3c d7 51 55 bd
       -0.041142855 0.021512043 0.029127013 -0.05208
0002c0 eb f2 b3 3d c9 14 a8 3c 4e 32 d9 ba 77 90 93 bc
       0.08786567 0.020517724 -0.0016570778 -0.018013222
0002d0 0d 5e d2 3d 84 c6 f0 3d 40 ca c5 3b 1d a7 ad bd
       0.10271845 0.11756614 0.006036073 -0.0847914
0002e0 5e 51 16 3c 9c 40 95 3d 08 28 01 3d 2e 1e 39 3d
       0.009174673 0.07287714 0.031532317 0.045194797
0002f0 78 ef 15 3e 02 ab 51 3e 42 64 97 bd e1 30 13 3e
       0.14642131 0.2047539 -0.073921695 0.14374115
000300 1c 39 61 3b 06 15 eb 3d 9e 05 27 3d 8c 80 a0 bc
       0.0034366315 0.11478619 0.04077684 -0.019592546
000310 a4 cf a4 bd 4d 97 17 bd ca 79 f2 bc 74 ac 6c 3d
       -0.08047417 -0.037009526 -0.02959909 0.05778165
000320 d2 1d 1c 3d 44 17 87 3d 9b 1f c5 bc b6 1f be bd
       0.038114376 0.065962344 -0.024062922 -0.09283392
000330 21 15 23 3d 37 d8 f7 bc 44 0f 3e 3d c7 ce 26 bd
       0.039815072 -0.030254466 0.046401277 -0.040724542
000340 f6 ee 90 3d 73 20 30 3e 76 13 d5 bc 8d 4b de 3d
       0.07076828 0.17199878 -0.026010256 0.10854254
000350 b1 98 e2 3d 6c d2 f0 bd 17 6e 04 3d da 0a 18 3e
       0.1106428 -0.11758885 0.032331552 0.1484789
000360 c5 e8 86 3d 65 8d 92 bd 81 e9 7a bd 0d 27 b6 bd
       0.06587366 -0.07155875 -0.061257843 -0.08894167
000370 2b 57 2f bd 0e 80 c4 3c cb 04 18 bd 19 a5 a6 bd
       -0.04280774 0.023986842 -0.037113946 -0.08136959
000380 52 8d 04 3b 14 ac 39 be 02 c0 bf bd c9 1a 87 3d
       0.0020225835 -0.18132049 -0.093627945 0.06596906
000390 b9 61 8a 3c 19 2a 82 3d fc e0 bf bc 48 21 29 bd
       0.0168923 0.06355686 -0.02342271 -0.041291505
0003a0 25 88 f2 bd 1d c0 0f be 13 ea 3f 3b 32 62 ac 3c
       -0.11842374 -0.14038129 0.0029283806 0.021042917
0003b0 7c d0 a3 3d 6d 2a d1 bc 3b e9 f5 3b 06 6f b5 bc
       0.079987496 -0.025532926 0.00750461 -0.022147667
0003c0 f9 90 5c 3c 19 7c 94 3c 0a 3e a3 bb d4 71 ab 3c
       0.013462299 0.01812558 -0.004981761 0.0209283
0003d0 6f 15 d5 bc f4 52 62 bd 8e 1a de 3b 20 c4 f5 bc
       -0.026011197 -0.05525489 0.006778068 -0.030000746
0003e0 75 a8 a3 bd 7a 8e cd 3c d8 e0 89 bc d7 a6 3a 3d
       -0.07991115 0.025092352 -0.016830847 0.045569267
0003f0 42 1c 96 3c ce aa 17 be ec ad b8 3c c3 f5 5b bc
       0.018324021 -0.1481125 0.02254387 -0.013425293

fc1.bias f4 [256]
000000 89 c5 e8 3c 93 33 18 3e 09 5e 09 bd 0e c7 f8 3d
       0.028414505 0.14863424 -0.033536945 0.12147342
000010 64 88 21 be a1 46 c4 3d c9 11 08 be 6f 99 c5 bd
       -0.15774685 0.09583784 -0.13288034 -0.09648406
000020 a2 4b 1e 3e 87 9e 06 3e 61 05 4c 3d 5a cf 71 be
       0.15458539 0.13146411 0.049809817 -0.23614255
000030 1d c2 0b 3e e2 4a 42 be b2 79 26 bd c9 26 0e be
       0.13648267 -0.18973878 -0.0406434 -0.13881983
000040 15 02 3a be 94 d4 d3 bc d7 e7 38 bd e2 44 08 be
       -0.18164857 -0.025858201 -0.045142975 -0.13307527
000050 37 2d 79 be 18 48 23 3e 4f 94 de 3c bf 1a 85 3d
       -0.24333654 0.1594547 0.027170328 0.06499242
000060 a2 4e df bc ed f9 36 3e bb 61 ac be bc 79 96 bd
       -0.027259175 0.17868777 -0.33668312 -0.07347438
000070 40 24 5c 3e 14 ed 21 39 c7 f4 84 be 67 ea 47 bd
       0.21498203 0.00015442475 -0.25968 -0.048807528
000080 e1 b1 6c be a7 f9 59 be b5 aa 71 be 81 b8 19 be
       -0.2311473 -0.21286641 -0.23600276 -0.15011789
000090 94 ed 77 be dc 9f 0c bd d5 db d5 bd 94 dd 26 be
       -0.24211723 -0.03433214 -0.1044232 -0.16295463
0000a0 f0 7a a8 be 40 6c 79 bd 96 95 82 3d 69 39 8f bd
       -0.32906294 -0.06089425 0.063761875 -0.06993372
0000b0 e7 81 2d be 81 f6 97 3d d9 a6 fc 3c e6 0b 5e be
       -0.16944085 0.07420064 0.030841278 -0.21684226
0000c0 38 c7 1d be 9c f6 b8 3c c5 cf 6c be 4c b6 42 be
       -0.15408027 0.02257853 -0.23126133 -0.19014853
0000d0 17 da ad 3d 44 8a 6b be fc 50 c1 3d e3 67 36 3e
       0.08488863 -0.23001963 0.09439275 0.17813067
0000e0 49 86 c3 bd 8e 30 aa bd 68 03 6d 3d f6 5a c2 bd
       -0.09547097 -0.08310042 0.057864577 -0.09490006
0000f0 ef f0 ae 3d e3 6a 65 3d 3c a8 03 be 60 03 31 3d
       0.08542048 0.05601014 -0.12857145 0.04321611
000100 dc 1b 45 be a3 e9 52 be 6d 62 9d be cc a9 7e 3d
       -0.19248909 -0.20596938 -0.30739155 0.06217365
000110 4b 24 8b be b8 61 8a 3d 9f 75 03 be 99 d0 40 be
       -0.27176127 0.067569196 -0.12837838 -0.18829574
000120 3c 77 91 be ad 73 0b 3e 51 34 60 bd e3 3c 57 3d
       -0.2841128 0.13618346 -0.054737393 0.0525483
000130 89 75 9e bd 1e da b6 be a4 9e fb 3d d9 ad 4f 3e
       -0.07737262 -0.35713285 0.12286118 0.20281161
000140 a0 15 5d be 1b d9 f5 bc 32 cc f8 bd d5 70 67 be
       -0.2159028 -0.03001075 -0.12148322 -0.22601636
000150 50 b4 c6 3c 8e c6 92 be 82 e2 9d 3b e3 d2 8d be
       0.024255902 -0.2866711 0.0048182616 -0.27699956
000160 00 40 a7 be cb 48 0f be b1 31 f3 bb 1a 82 dd bd
       -0.32666016 -0.13992612 -0.007421695 -0.108158305
000170 76 1a 3b be d2 04 42 3e 4f f3 a5 be d5 7a 4d 3e
       -0.18271813 0.18947151 -0.32412192 0.20066388
000180 b0 35 ba 3d 6e 29 84 bc 8f 30 80 bc 84 1b 87 bd
       0.09092271 -0.016133036 -0.015648155 -0.06597045
000190 f0 43 ee bc 44 db 30 3b a7 f1 2e be 93 4d 32 3e
       -0.02908513 0.0026986161 -0.1708437 0.17412405
0001a0 84 04 0c be ae 52 b9 3d 18 a2 9a 3d 03 c6 2e be
       -0.13673598 0.09048973 0.07550448 -0.17067723
0001b0 55 c1 83 be 9c 77 7a 3d b2 bb fc bb e8 d2 89 be
       -0.25733438 0.061149225 -0.0077128047 -0.2691872
0001c0 ee 6d 99 be 7c 8a 28 be 9d 13 4d 3e cc 4e ec bd
       -0.29966682 -0.16459078 0.20027013 -0.11538467
0001d0 02 7a 3f be 39 88 97 3d eb 0e 0d 3d 3f 1b 0c 3e
       -0.18698886 0.07399029 0.034438055 0.13682269
0001e0 8a 00 3a bd a8 6f 27 3e fc 71 48 be e8 1c 04 bd
       -0.04541067 0.16351187 -0.19574732 -0.03225413
0001f0 99 0e 9a 3d 0d 66 81 be 9b b8 02 3e e5 11 14 bd
       0.075223155 -0.2527317 0.12765734 -0.036149878
000200 3c 2f 57 3d df 60 12 3d 6f a4 ea 3b d3 b9 98 be
       0.05253528 0.035736915 0.0071607153 -0.29829273
000210 7c 08 5e bd 11 8c 32 bd 4a f6 ac be 7e 35 86 3d
       -0.05420731 -0.04359061 -0.33781654 0.065531716
000220 9c 1f bd be 04 43 ce 3c 1a 89 56 3e 7a 27 37 3d
       -0.3693818 0.02517844 0.20950738 0.044715382
000230 a9 32 c7 bc 14 65 2b be 20 2e 62 bd 19 bc 60 3c
       -0.024316149 -0.16737777 -0.05521977 0.013716721
000240 27 5f 69 3d 5b 6f d3 3c d9 41 16 be 6e dc 06 be
       0.05697551 0.025809934 -0.14673556 -0.13170025
000250 81 27 c7 39 9d 09 1b be 3c 91 9e bc 29 ba 2c be
       0.0003798567 -0.15140386 -0.019356363 -0.1686789
000260 74 68 3c 3d f6 54 be 3c e1 45 ec 3c 90 e8 a4 bd
       0.04599805 0.023233872 0.028841915 -0.0805217
000270 02 30 3b be 34 72 e4 3c c1 eb 85 bd 4f fb ef bd
       -0.18280032 0.027886488 -0.06539107 -0.11717855
000280 c4 8d f2 3c 01 4b 45 be 85 a4 24 be 25 e1 bf 3d
       0.029608615 -0.19266893 -0.16078384 0.09369115
000290 20 00 be ba 62 5d 91 be 17 cd 73 be c7 b5 98 bc
       -0.0014495887 -0.28391558 -0.23808704 -0.018641366
0002a0 ce ed 29 be ae bf 07 bd e0 07 f6 3d d1 9f 5b 3e
       -0.16594622 -0.033141784 0.12013221 0.21447684
0002b0 8d 40 4b be 43 c0 0c be 34 d8 48 3e ab 6d 11 be
       -0.19848843 -0.13745217 0.19613725 -0.14201991
0002c0 13 86 bb bd 2d fb b9 be 88 bb 06 be de 3a 23 3e
       -0.09156432 -0.36324444 -0.13157475 0.15940425
0002d0 1b ad 04 3e 0b 6e 41 bd 0d 7e a8 3d 0f 62 32 be
       0.1295666 -0.047224086 0.08227167 -0.17420219
0002e0 a0 9d 7b be 5b f5 98 bd 97 f4 98 be da b0 e7 3d
       -0.24571848 -0.07468673 -0.29874107 0.11313029
0002f0 f2 12 94 3d 2e b1 0f bd 23 96 9d bc 9f 6b 37 3d
       0.07230176 -0.03508108 -0.01923663 0.04478037
000300 2b 41 f3 3c c8 81 5e 3b cc 07 bb bb f3 04 81 be
       0.02969416 0.0033951867 -0.0057077166 -0.25199088
000310 a2 9f 16 bd 33 e4 9c be cc 90 6a be 7c 7f 37 3c
       -0.03677333 -0.30642852 -0.22906798 0.011199828
000320 70 94 a4 be ae 81 41 be 21 c3 cb 3d 1a 61 49 be
       -0.321445 -0.18897125 0.09949327 -0.19665948
000330 c6 b0 1f bd 62 e9 f5 3c 40 e0 62 3c 02 23 89 3d
       -0.038986944 0.030018512 0.013847411 0.0669613
000340 84 76 2a be 5e bd fb bd 7c 65 89 3d 13 d2 e8 3d
       -0.16646773 -0.12291978 0.0670881 0.113681935
000350 fd dc 9c bd cf d9 56 be 0b 41 50 be ad 34 70 bd
       -0.07659338 -0.20981525 -0.20337312 -0.058643986
000360 a5 74 82 be 14 d5 98 be 9c 38 93 be 6b 35 2e bd
       -0.25479618 -0.29850066 -0.28754127 -0.042531412
000370 43 00 f4 3b 2b e9 9a bc 5a 2d 55 bd d6 15 4b be
       0.0074463203 -0.018910011 -0.052045204 -0.19832548
000380 2a f4 98 bd 80 b1 ff 3b 19 f2 13 be 81 54 fc 3d
       -0.074684456 0.007803142 -0.14447822 0.12320805
000390 29 4d 33 be 49 01 8a 3d 6c 91 8b be 19 34 26 bd
       -0.17509903 0.067385264 -0.27259386 -0.040577028
0003a0 d9 a0 92 3d fa 09 e0 bd 3f c1 c3 3c 36 40 a4 bd
       0.071595855 -0.10939403 0.023895858 -0.0802006
0003b0 7e 95 64 be e2 7b d0 3d 4b aa 33 be 5f a1 90 3e
       -0.22322652 0.10179879 -0.1754543 0.28248116
0003c0 cc 76 0d be a2 d2 57 3e 10 1a 72 be ad ac 8d be
       -0.13814849 0.21076444 -0.23642755 -0.27670804
0003d0 92 00 a9 bc 1b df a2 3d be 99 a9 bd e6 3f 6e be
       -0.020630155 0.0795271 -0.08281277 -0.23266563
0003e0 3c 37 55 be 24 d3 e8 3d b6 68 93 bd d1 2b 1a 3e
       -0.20821851 0.11368397 -0.071977064 0.15055777
0003f0 f9 f9 27 bd 30 83 cd 3d 8e ec ef bd ba 13 9a bd
       -0.041009877 0.10034788 -0.11715041 -0.07523294

fc2.weight f4 [128, 256]
000000 35 de 73 bd 2e 9f 06 be 32 09 80 bd ba 96 19 be
       -0.059538085 -0.1314666 -0.06251754 -0.14998904
000010 1f 7c e1 3d 0f 7f 36 bd 2a 0b 0e 3d b5 84 ce bd
       0.11010002 -0.044554766 0.034678616 -0.100839056
000020 6d 4b f2 bd 84 95 20 be 3b d1 17 3c c6 9c 74 3d
       -0.118307926 -0.15682036 0.009266193 0.059719823
000030 0e 2d a4 3c 78 4c 38 be dd 62 7f 3c 9c b4 76 3d
       0.020041015 -0.1799792 0.015587536 0.060230836
000040 ec 96 df 3b d8 6a 0d 3e 9d ee 78 be 28 23 95 3d
       0.006823411 0.13810289 -0.24309774 0.07282096
000050 8b ac c0 3d 42 a1 ff bd 1b 68 17 be da 63 5e be
       0.0940791 -0.12481929 -0.14785807 -0.21717778
000060 49 ec 9a bc 5d 1d 64 3d 92 68 c7 bd 99 a2 cf 3d
       -0.018911498 0.055692066 -0.09736742 0.10138435
000070 db 31 6c bd ef f3 e0 37 eb 9c 28 bd f0 59 42 bc
       -0.057664733 2.6816471e-05 -0.041165274 -0.011862263
000080 e5 26 64 3d 10 c8 c3 bb ca 16 95 3d 69 72 cd bd
       0.055701155 -0.005974777 0.07279737 -0.10031588
000090 8b 96 88 bb 6a 96 36 bd a7 d3 04 bc d9 2a 8f 3d
       -0.0041683367 -0.04457704 -0.0081071025 0.069905944
0000a0 0f b5 75 be dd c3 ae 3d ba 67 29 bd ea f7 00 be
       -0.2399485 0.08533452 -0.041358687 -0.12594572
0000b0 17 c5 1b 3d 9e 35 a9 3c d2 3c 7d bd 00 9e 04 3d
       0.038029756 0.02065545 -0.06182558 0.032377243
0000c0 03 0e 27 3d 59 d6 89 bd 4c e0 07 3e b9 fe 22 be
       0.040784847 -0.06730337 0.13269156 -0.15917481
0000d0 91 df 1d be 4f 43 80 be b3 8b eb bd 7b 9c b8 bd
       -0.15417315 -0.25051352 -0.11501255 -0.09014221
0000e0 62 d8 9e 3d a4 9e 9f bc 35 44 04 bd 99 34 f4 bd
       0.077561155 -0.019484825 -0.03229161 -0.11924095
0000f0 21 28 81 be ce b6 71 bc 6c b7 20 bb a9 86 d3 3b
       -0.25225928 -0.014753057 -0.002452339 0.0064552617
000100 05 f4 68 bd e3 4c b8 bd 70 53 3a 3d 24 36 50 3e
       -0.05687334 -0.0899904 0.04548973 0.20333153
000110 92 98 e3 bb 73 bd 68 bd 46 03 74 3c 8f 62 f9 bd
       -0.006945678 -0.056821298 0.014893359 -0.12177002
000120 ce 54 30 3d b4 25 dd 3d 6a d9 82 be 5c 51 8f be
       0.043049626 0.10798207 -0.255565 -0.2799176
000130 29 1f 35 bd 67 51 2e be 8f db 74 bd 94 53 e6 3d
       -0.04421917 -0.1702324 -0.0597797 0.1124641
000140 1b 95 5d bd 60 ab 19 bd 8e fc 40 be 6b ad d7 bd
       -0.054097276 -0.03751695 -0.18846342 -0.10531124
000150 65 b2 1b 3d c4 03 b5 bc 4c 2f 94 be 07 54 da 3d
       0.038011927 -0.022096522 -0.28942335 0.10660558
000160 ef b4 ff bc 19 fa 12 3c f0 15 6f 3c 3d 5b 28 3d
       -0.031214206 0.008970761 0.014592633 0.041102637
000170 24 0f 22 bc c8 cd 04 bd 24 85 6d bd 54 24 d2 bd
       -0.009891305 -0.03242281 -0.0579883 -0.10260835
000180 e9 93 20 be 90 d9 81 be 27 9b 03 bc 53 07 75 be
       -0.15681423 -0.253613 -0.008032597 -0.23928575
000190 9d ed 0a be ec b7 1c 3e 85 64 1a bd 6e 16 c7 bd
       -0.13567205 0.15304536 -0.03769352 -0.09721075
0001a0 7e 5f 94 3d 3f e0 fb bc 30 e6 b0 3c b3 04 4c 3d
       0.07244776 -0.030746577 0.021594137 0.04980917
0001b0 28 5f 8c 3d de 1c cd bc a6 d1 6b bc de ad cd bd
       0.06854087 -0.025038179 -0.014393246 -0.10042928
0001c0 4b c7 39 be d5 1d cb bd 0e cf 48 bd 7d b5 c5 3d
       -0.1814243 -0.099177994 -0.049025588 0.09653757
0001d0 f9 0b 84 bb 98 4c 35 bd 84 b3 1c be f9 b9 92 3d
       -0.0040297476 -0.0442625 -0.15302855 0.07164378
0001e0 ae e8 96 3d 1c af 21 bd 9e b0 ef 39 4c 36 ce 3d
       0.07368599 -0.039473638 0.00045717222 0.1006895
0001f0 fa 20 35 bd 72 b5 b0 3d 22 57 22 bc ff b7 93 bd
       -0.044220902 0.08628358 -0.009908469 -0.07212829
000200 41 a4 25 3d 33 94 04 3c 0c ce 57 3d 76 ea 87 be
       0.040439848 0.008091974 0.052686736 -0.26546067
000210 8d a0 18 be ab c5 61 bb a6 36 4c 3e 70 78 c7 3d
       -0.14904995 -0.0034450095 0.19942722 0.097397685
000220 78 05 ed 3d 4e af 27 bd 1d f8 c5 3c 44 1e 0f be
       0.11573309 -0.040938668 0.024166161 -0.13976389
000230 27 a7 04 be 4c 89 ab bd 65 78 9c be 7d 0f fc bc
       -0.12954389 -0.08375797 -0.30560604 -0.030769104
000240 7f 42 75 bd 91 db 15 be 34 38 3e be 1a 07 8f bc
       -0.05987787 -0.14634539 -0.18576127 -0.017459441
000250 96 3e c6 bd fd 4e 79 be b5 b4 2d bd 70 44 47 be
       -0.09679906 -0.24346538 -0.042408664 -0.194597
000260 37 b0 fe ba 4a b7 c1 3d 68 7d 94 3d c3 63 1e 3e
       -0.0019431178 0.09458788 0.07250482 0.15467744
000270 52 50 82 bd 83 ce 04 bc 17 8d 40 be 27 e6 c7 3b
       -0.06362976 -0.008105877 -0.18803822 0.0061004343
000280 3b a3 e7 bd f7 4c 88 3d 4f b4 5f bc 77 80 cf bc
       -0.113104306 0.06655305 -0.013653829 -0.025329811
000290 d4 5b c7 3d d5 54 12 be ac 10 24 be 90 50 45 bd
       0.09734312 -0.14290173 -0.16021985 -0.048172534
0002a0 8a 4c 7d bd ac 6c 3d 3d d4 28 61 be a5 9b 1f 3d
       -0.06184057 0.046246216 -0.21988231 0.038966794
0002b0 a6 98 82 bd 0a cd cb bd 78 10 f2 bd 9e ff ad 3d
       -0.06376772 -0.099512175 -0.118195474 0.08496021
0002c0 0a 8f 84 3d 9a 3b a3 3e 41 fc 4c bd 0a 8d c6 3d
       0.06472595 0.3188141 -0.050045256 0.0969487
0002d0 0d 11 9b bc bb 50 08 be 4a 1f a7 bd 29 74 3d 3c
       -0.018929029 -0.13312046 -0.08160265 0.011563339
0002e0 f6 63 50 bd b0 c7 1b b9 93 f1 7e 3e 9f 1a 5c 3d
       -0.05087658 -0.00014856341 0.24896841 0.053736325
0002f0 07 65 7b bd e9 72 a3 3d 09 f9 05 3e 17 7d c9 3d
       -0.061375644 0.07980902 0.1308328 0.09838312
000300 4c 3e f1 3c 25 32 85 bd 5a 03 2f be e2 b5 29 ba
       0.02944865 -0.06503705 -0.17091122 -0.0006473941
000310 be 57 2b bd 4f 71 0d bd b5 f8 a5 3c 6b ac ef 3d
       -0.041831724 -0.034531888 0.020260194 0.11702808
000320 78 e4 41 be 90 0e 40 3c a0 c2 86 bb 9c 7d 0c 3d
       -0.1893481 0.011722222 -0.0041125566 0.034299478
000330 3b b2 e0 3d 44 75 ab bd 19 a2 f0 bd cd e1 0f 3e
       0.10971495 -0.08371976 -0.11749668 0.1405098
000340 fa b9 14 be 21 57 40 bd 03 84 b6 3c 34 7a 20 3d
       -0.1452407 -0.046958093 0.022279745 0.039179042
000350 5d ff b1 bd 45 73 17 bd 40 a0 b7 3b e3 c4 1c be
       -0.08691285 -0.036975164 0.00560382 -0.15309481
000360 74 0c b5 bd bb 85 9d bc 93 fe b0 3d 0b a2 4f bd
       -0.08840266 -0.019228807 0.08642306 -0.050691646
000370 d4 53 83 bd f3 ed 31 be 7a bd 17 bd 3c 9e 33 bc
       -0.06412473 -0.17375927 -0.037045933 -0.010963019
000380 d6 03 15 3d 74 43 cd bd 2f 89 58 bd d8 1d b1 3d
       0.03638061 -0.10022631 -0.052865203 0.0864827
000390 75 8c 74 be 79 1b 2f be b1 8e 6d be 1d 8b cc bc
       -0.23881705 -0.17100324 -0.23198964 -0.024968678
0003a0 02 ea 94 bd ec 18 f6 3c ce 41 cd 3d db 2a ad bc
       -0.07271196 0.03004118 0.10022317 -0.0211386
0003b0 07 78 19 3e f9 f9 00 3e 4b b0 b2 3d 00 b8 fe bc
       0.14987193 0.12595357 0.087250315 -0.031093597
0003c0 45 b9 d7 3d 20 76 e3 bd 14 0c 95 bd 33 82 f7 bd
       0.10533384 -0.11106515 -0.07277694 -0.120853804
0003d0 40 c6 88 3d 3f 4f 2c bd d7 6a fb 3c 45 89 b5 be
       0.06678438 -0.042067762 0.030690594 -0.3545629
0003e0 d9 3d 5c bd 7d ff 52 3d d8 77 24 bd 4f 10 bb bc
       -0.05376992 0.051513184 -0.040153354 -0.022834925
0003f0 8c c9 aa bd 82 a4 0c bc c8 d8 e4 bd d9 51 5d be
       -0.08339223 -0.008584144 -0.1117416 -0.21613254
