checkpoint_critic_0.pth (torch, 191428 bytes, 9 tensors)

bn1.weight f4 [256]
0	0x3f4d8599	0.8028198
1	0x3f579f57	0.8422751
2	0x3f75278d	0.95763475
3	0x3f662b19	0.8990951
4	0x3f990066	1.1953247
5	0x3f2687a6	0.65050733
6	0x3f8b0a74	1.0862565
7	0x3f303560	0.68831444
8	0x3f4882bd	0.7832449
9	0x3f506a83	0.81412524
10	0x3f42d0fe	0.76100147
11	0x3f4b7afa	0.7948452
12	0x3f5108ca	0.81654036
13	0x3f8f10a6	1.1176956
14	0x3f537d61	0.8261319
15	0x3f506221	0.8139973
16	0x3f4fd972	0.8119117
17	0x3f8f1295	1.1177546
18	0x3f1d59a1	0.6146489
19	0x3f554a6d	0.8331669
20	0x3f5a3c2e	0.85248077
21	0x3f3b7234	0.73221135
22	0x3f8f3e9d	1.1190983
23	0x3f3d48f3	0.73939437
24	0x3f6eb575	0.9324563
25	0x3f3e4cb1	0.7433577
26	0x3f3cb499	0.7371307
27	0x3fae8c46	1.3636558
28	0x3f532c5b	0.82489556
29	0x3f56b5e8	0.83871317
30	0x3f369d86	0.7133411
31	0x3f74b2a3	0.9558508
32	0x3f3f037b	0.74614686
33	0x3f6a2cc7	0.91474575
34	0x3f3a2ed6	0.72727716
35	0x3f418fb6	0.7560991
36	0x3f590fb8	0.8478961
37	0x3f3bbd8f	0.7333612
38	0x3f3f60e1	0.747572
39	0x3f2d0bb2	0.6759597
40	0x3f774dce	0.96603096
41	0x3f44c4e9	0.7686296
42	0x3f29097e	0.6603011
43	0x3f3417bc	0.70348716
44	0x3f48150a	0.78157103
45	0x3f5d7023	0.8649923
46	0x3f673dd1	0.903287
47	0x3f1a5b3e	0.60295475
48	0x3f5ee17a	0.870628
49	0x3f69d346	0.91338
50	0x3f560ba7	0.8361153
51	0x3f3ffa60	0.74991417
52	0x3f5e0717	0.8672957
53	0x3f29bb14	0.66301084
54	0x3f55db9c	0.8353822
55	0x3f81681d	1.0109898
56	0x3f7c6722	0.9859487
57	0x3f38e5db	0.7222573
58	0x3f784073	0.9697334
59	0x3f70a3a1	0.9399968
60	0x3f956ffa	1.1674798
61	0x3f209a29	0.6273523
62	0x3f44ddc8	0.7690091
63	0x3f52c55d	0.823324
64	0x3f642bd4	0.89129376
65	0x3f4609c9	0.7735868
66	0x3f2c4a4e	0.6730088
67	0x3f8890d4	1.0669198
68	0x3f6e1be8	0.9301133
69	0x3f4ea9c9	0.8072782
70	0x3f5fc555	0.8741048
71	0x3f4ee748	0.8082166
72	0x3f34a12c	0.7055843
73	0x3f1f64cb	0.6226317
74	0x3f6eb1d8	0.9324012
75	0x3f51b8a9	0.81922394
76	0x3f36a0ca	0.71339095
77	0x3f46477b	0.7745282
78	0x3f4125b7	0.75448173
79	0x3f0657ba	0.5247761
80	0x3f517ca0	0.8183079
81	0x3f5cd577	0.8626322
82	0x3f5c1785	0.8597339
83	0x3f498a9b	0.7872712
84	0x3f4d8e5f	0.80295366
85	0x3f50970d	0.81480485
86	0x3f808df9	1.0043327
87	0x3f8ed415	1.1158472
88	0x3f7cfaaa	0.98819983
89	0x3f345bc7	0.7045254
90	0x3f15a6b1	0.58457476
91	0x3f4f8965	0.8106902
92	0x3f52c82b	0.8233668
93	0x3f45fd9c	0.773401
94	0x3f8792c0	1.059166
95	0x3f4b91ac	0.7951915
96	0x3f4b8715	0.79502994
97	0x3f4dadad	0.80343133
98	0x3f31c65d	0.69443303
99	0x3f74d1a9	0.95632416
100	0x3f4f5049	0.8098188
101	0x3f3d88f2	0.74037087
102	0x3f444719	0.76670986
103	0x3f77b4ae	0.9676007
104	0x3f489b3d	0.78361875
105	0x3f6eefa0	0.9333439
106	0x3f41526b	0.75516385
107	0x3f7816be	0.969097
108	0x3f851752	1.0397742
109	0x3f3906c7	0.72275966
110	0x3f328152	0.6972858
111	0x3f920b95	1.1409785
112	0x3f833924	1.0251813
113	0x3f3ca895	0.73694736
114	0x3f21a9b6	0.63149583
115	0x3fa16cba	1.2611306
116	0x3f530418	0.8242812
117	0x3f505583	0.8138048
118	0x3f58cfe8	0.8469224
119	0x3f8787f8	1.0588369
120	0x3f36b613	0.71371573
121	0x3f9873d0	1.1910343
122	0x3f30977c	0.68981147
123	0x3f2f353d	0.6844061
124	0x3f640516	0.8907026
125	0x3f425927	0.75917286
126	0x3f44c87c	0.76868415
127	0x3f43a6ae	0.7642621
128	0x3f678160	0.90431786
129	0x3f486f2e	0.78294647
130	0x3f6788d8	0.9044318
131	0x3f7c743d	0.98614866
132	0x3f25a3e3	0.64703196
133	0x3f3c1493	0.73468894
134	0x3f5a3ee0	0.8525219
135	0x3f38ab6e	0.7213658
136	0x3f3f6e0b	0.7477729
137	0x3f54d704	0.8314059
138	0x3f76316f	0.9616918
139	0x3f58aa99	0.8463531
140	0x3f5fcff9	0.87426716
141	0x3f33429b	0.70023507
142	0x3f7ec415	0.9951795
143	0x3f2431e0	0.64138603
144	0x3f4390bf	0.7639274
145	0x3f734295	0.9502347
146	0x3f532f83	0.8249437
147	0x3f5dcc74	0.86640096
148	0x3f966a83	1.1751255
149	0x3f384f23	0.71995753
150	0x3f9c7ee3	1.2226223
151	0x3f953bef	1.1658915
152	0x3f5e2fe4	0.86791825
153	0x3f52ac34	0.8229401
154	0x3f28cd9f	0.6593875
155	0x3f8538fe	1.0408018
156	0x3f50a110	0.8149576
157	0x3f44d296	0.7688383
158	0x3f2cf368	0.6755891
159	0x3f8ecf5d	1.1157032
160	0x3f241281	0.64090735
161	0x3f495b4a	0.7865492
162	0x3f548a9b	0.83023995
163	0x3f4dfb4b	0.8046157
164	0x3f3d3e0a	0.7392279
165	0x3f3931d2	0.72341645
166	0x3f4dd6b2	0.80405724
167	0x3f5768aa	0.8414408
168	0x3f59fc53	0.8515064
169	0x3f53300d	0.82495195
170	0x3f4fc1c2	0.81155026
171	0x3f4930b2	0.7858993
172	0x3f41c470	0.75690365
173	0x3f443b73	0.7665321
174	0x3f4d1475	0.8010934
175	0x3f4ca685	0.7994159
176	0x3f482a72	0.78189766
177	0x3f9731be	1.1812055
178	0x3f19bbd4	0.6005223
179	0x3f559667	0.8343262
180	0x3f4bc41e	0.79596126
181	0x3f3dc5ef	0.7413015
182	0x3f8d0bf7	1.1019276
183	0x3f5e8684	0.86924005
184	0x3f202fcd	0.6257294
185	0x3f37d07b	0.7180249
186	0x3f4ecf82	0.8078538
187	0x3f442dbd	0.7663229
188	0x3f282a86	0.65689886
189	0x3f548742	0.8301889
190	0x3f1fc9e2	0.62417424
191	0x3f4d377d	0.80162793
192	0x3f3fe787	0.7496266
193	0x3f776718	0.96641684
194	0x3f3352cb	0.7004821
195	0x3f44215a	0.7661339
196	0x3f34ea80	0.7067032
197	0x3f5b08be	0.85560215
198	0x3f472bdf	0.77801317
199	0x3f778f9b	0.967035
200	0x3fb40220	1.4063148
201	0x3f6fed4d	0.9372147
202	0x3f9e1448	1.2349939
203	0x3f9be4a9	1.2179157
204	0x3f513a17	0.81729263
205	0x3f337244	0.7009623
206	0x3f5670d7	0.8376593
207	0x3f24e7ca	0.6441618
208	0x3f3cb450	0.73712635
209	0x3f59c746	0.8506969
210	0x3f4fc374	0.8115761
211	0x3f1d6450	0.6148119
212	0x3f496b52	0.7867938
213	0x3f5b1fb4	0.8559525
214	0x3f620a0e	0.8829659
215	0x3f2a7d55	0.6659749
216	0x3f5991c8	0.8498807
217	0x3f3e0cb6	0.74238145
218	0x3f2b46fd	0.66905195
219	0x3f7eb5de	0.9949626
220	0x3f651ef8	0.8950038
221	0x3f6b392b	0.91884106
222	0x3f9bfefc	1.218719
223	0x3f4fc881	0.8116532
224	0x3f289435	0.65851146
225	0x3f49397f	0.7860336
226	0x3f4825e4	0.78182817
227	0x3f46d890	0.776742
228	0x3f68d633	0.9095184
229	0x3f52b895	0.823129
230	0x3f444499	0.7666717
231	0x3f8ab931	1.0837766
232	0x3f4b43b2	0.7940017
233	0x3f7f2eb9	0.9968067
234	0x3f4dc759	0.80382305
235	0x3f8536ef	1.0407389
236	0x3f1df725	0.6170524
237	0x3f51fb4b	0.8202407
238	0x3f418b76	0.75603426
239	0x3f470d7d	0.77754956
240	0x3f4cff13	0.8007671
241	0x3f1ff456	0.624822
242	0x3f39041c	0.72271895
243	0x3f591661	0.8479977
244	0x3f351a01	0.70742804
245	0x3f5cdda3	0.8627569
246	0x3f56e2e6	0.8393997
247	0x3f421e6c	0.7582767
248	0x3faa183b	1.3288645
249	0x3f3adcb4	0.72993016
250	0x3f2e87b0	0.6817579
251	0x3f4968ea	0.7867571
252	0x3f63f6fc	0.89048743
253	0x3f343aed	0.70402414
254	0x3f491d05	0.78559905
255	0x3f49442e	0.7861966

bn1.bias f4 [256]
0	0x3e909f3e	0.28246492
1	0x3d694f1b	0.056960206
2	0x3b8df6d5	0.004332403
3	0xbde0c846	-0.10975699
4	0x3d81b4c2	0.06333305
5	0xbd871fd1	-0.065978654
6	0x3e71d7d5	0.2361749
7	0xbe342aa8	-0.17594397
8	0xbd2133fc	-0.039356217
9	0x3e85ea2e	0.26155227
10	0x3e3013d9	0.17195071
11	0x3e3df367	0.18549882
12	0x3e07dfd2	0.13268974
13	0xbcdde7b1	-0.027088018
14	0xbc8537d5	-0.016261974
15	0x3e882abe	0.2659511
16	0x3cf3a3e7	0.02974124
17	0x3daf3a94	0.08556095
18	0xbdd0f5ff	-0.1020317
19	0x3d5c4cb6	0.053784095
20	0x3e46ca75	0.19413169
21	0x3e8e2054	0.2775904
22	0xbd581fcf	-0.05276471
23	0xbcc02950	-0.0234572
24	0x3ecb79c7	0.39741346
25	0xbe7af066	-0.24505767
26	0xbeaa83e8	-0.3330376
27	0x3d8f33b6	0.06992285
28	0x3e331ed3	0.17492227
29	0x3e85be53	0.26121768
30	0xbe537d96	-0.20653376
31	0x3e72be84	0.23705488
32	0x3ecc0669	0.3984864
33	0x3e854a44	0.26033223
34	0xbe9834ad	-0.29727688
35	0xbc31b406	-0.010846144
36	0x3e9129de	0.28352255
37	0x3d3fcc29	0.04682556
38	0xbdc725b9	-0.09723992
39	0xbd89d989	-0.06730945
40	0xbe2b55ae	-0.16731903
41	0x3e8ac13e	0.27100557
42	0xbc828df9	-0.015936838
43	0xbe5199a3	-0.20468764
44	0xbe1c6161	-0.15271522
45	0x3e3d636a	0.18494955
46	0x3e08b866	0.13351592
47	0x3edf445f	0.4360685
48	0x3e7f4308	0.24927914
49	0x3c4ac9b6	0.012377193
50	0xbe02616a	-0.12732473
51	0xbe3348e7	-0.17508279
52	0x3e9e9ba9	0.30978134
53	0xbd4d655e	-0.0501455
54	0x3d811e45	0.063046016
55	0x3e08974d	0.13338967
56	0x3ee6d439	0.45083788
57	0x3dc25e42	0.094906345
58	0x3e4a00f2	0.19726923
59	0x3e883f4c	0.26610792
60	0x3dbb8fca	0.09158285
61	0xbe017853	-0.12643556
62	0xbdfd6f50	-0.12374747
63	0x3bb85e5b	0.0056264824
64	0xbdacf08d	-0.08444319
65	0x3ddcede1	0.10787559
66	0x3d1b58be	0.037926428
67	0x3e8b62ac	0.27223718
68	0x3c6eed4d	0.014582944
69	0x3e5c929d	0.21540304
70	0xbdc820c4	-0.097718745
71	0x3e00c7d9	0.12576236
72	0x3e9c16d5	0.3048617
73	0x3db13a99	0.08653755
74	0x3e4021ab	0.18762843
75	0xbe191177	-0.14948069
76	0x3e2cf8c6	0.16891775
77	0xbb61d123	-0.003445693
78	0xbd4c81eb	-0.049928587
79	0x3c93625e	0.017991241
80	0x3dd50233	0.1040081
81	0xbe275191	-0.16339709
82	0xbe0ffe00	-0.14061737
83	0xbd2d0fa5	-0.042251248
84	0xbd88d76d	-0.06681714
85	0xbe2c1e67	-0.16808473
86	0x3e1cbf13	0.15307264
87	0xbde7b94e	-0.11314641
88	0x3db1d32d	0.08682857
89	0xbcb1a94f	-0.021687178
90	0xbe219856	-0.15780768
91	0xbe288664	-0.16457516
92	0xbd5c153b	-0.053731184
93	0x3e389b57	0.18028007
94	0x3dba7bb1	0.091056235
95	0x3d385abd	0.04500841
96	0xbe14325b	-0.14472334
97	0x3d3fc5e5	0.046819586
98	0x3c71b45e	0.014752476
99	0x3e701a74	0.23447591
100	0xbd1138e0	-0.03545463
101	0x3dea9fe0	0.11456275
102	0xbd01143e	-0.031513445
103	0x3eaa3efe	0.33251184
104	0x3ea9c32d	0.3315672
105	0x3e8b0fdb	0.27160534
106	0xbe174671	-0.14772965
107	0x3e13667c	0.14394563
108	0xbe43e054	-0.19128543
109	0x3e35cfca	0.17755046
110	0xbd045b00	-0.032313347
111	0x3e24f3d8	0.16108644
112	0x3d8516bd	0.064984776
113	0xbe0a138b	-0.13484018
114	0x3ebfcbf3	0.37460288
115	0x3df6b432	0.12046088
116	0xbe2e7c3a	-0.17039576
117	0xbe306625	-0.17226465
118	0x3e07f7f0	0.13278174
119	0x3ebe7926	0.37201804
120	0xbdbdde4e	-0.09270917
121	0x3de0a3f4	0.109687716
122	0xbe347b82	-0.1762524
123	0x3e5403bd	0.20704551
124	0x3c17fd9a	0.009276772
125	0x3dce2bfc	0.10066983
126	0xbdad8f3b	-0.08474585
127	0x3e6da05b	0.23205702
128	0xbddb599a	-0.107104495
129	0x3c76e6ee	0.015069706
130	0xbdd69e3f	-0.10479402
131	0xbe86f30c	-0.26357305
132	0xbd14094c	-0.03614168
133	0x3e1ac00d	0.15112324
134	0x3dbfe0df	0.09369063
135	0x3d82dbdc	0.06389591
136	0xbe4e5d6b	-0.20152824
137	0x3ef16262	0.47145373
138	0x3dd71779	0.10502524
139	0x3da7066a	0.0815552
140	0xbe02fc64	-0.12791592
141	0x3e320f6f	0.173887
142	0x3eb27546	0.34855098
143	0x3ea5977b	0.32342133
144	0xbb14ae51	-0.0022686908
145	0xbd0332ab	-0.032030743
146	0x3e02340b	0.12715165
147	0x3d0df052	0.034653015
148	0x3d4bb5ea	0.049734034
149	0x3d1b8258	0.037966102
150	0x3c40c411	0.011765496
151	0x3dd53b01	0.10411645
152	0x3e01a738	0.12661445
153	0x3e52b2e1	0.2057605
154	0x3cfcf3df	0.030878006
155	0x3dfa999f	0.12236332
156	0xbd946fa9	-0.0724786
157	0xbe384abd	-0.1799726
158	0xbd51b6dd	-0.051199783
159	0x3e439399	0.19099273
160	0x3db706a4	0.089368135
161	0xbdc4a8c6	-0.096025035
162	0x3d3c4581	0.04596472
163	0xbdfd1b0b	-0.12358674
164	0x3e06fe90	0.13183045
165	0x3d1a81fc	0.03772162
166	0x3e81029d	0.25197306
167	0xbe91ef06	-0.28502673
168	0x3de52269	0.11188204
169	0xbb393df6	-0.0028265691
170	0x3cf6c3fa	0.030122746
171	0xbeae5156	-0.3404643
172	0x3e306f73	0.17230015
173	0x3e60d064	0.21954495
174	0x3e35021d	0.17676587
175	0xbdefd86c	-0.11711201
176	0x3e72407e	0.23657414
177	0x3e2dc0e6	0.16968116
178	0x3e04e08d	0.12976284
179	0x3daf7c54	0.085686356
180	0x3e3e4596	0.18581232
181	0x3e0a63a1	0.13514568
182	0xbca0eab4	-0.019643165
183	0xbd85bc30	-0.065300345
184	0xbe183894	-0.14865333
185	0xbdb3446f	-0.08753287
186	0x3ddef2e3	0.10886171
187	0xbd02edbe	-0.03196501
188	0x3b199342	0.002343372
189	0x3c4bf71a	0.01244905
190	0x3e6a4ba6	0.2288042
191	0x3e87c74f	0.26519248
192	0x3e742a73	0.23844318
193	0xbc0956c8	-0.008382507
194	0x3e12fc6b	0.14354102
195	0xbe6a2faf	-0.22869752
196	0xbe2e3f40	-0.17016315
197	0x3ee3153f	0.44352147
198	0xbd861898	-0.0654766
199	0x3ece7b83	0.40328607
200	0x3e448288	0.19190419
201	0x3e0fdcc5	0.1404906
202	0x3e3ec146	0.18628415
203	0xbc0df55a	-0.008664453
204	0x3e97cfbe	0.29650682
205	0xbe06266e	-0.13100597
206	0x3e3463b5	0.1761616
207	0x3ebba17f	0.3664665
208	0xbdee96c6	-0.116498515
209	0xbdfacb3e	-0.122457966
210	0xbcdbf0db	-0.026848247
211	0x3e255c65	0.16148527
212	0x3e1ebecf	0.15502475
213	0x3e246359	0.16053523
214	0xbd943d85	-0.072382964
215	0x3e273fc4	0.16332918
216	0xbcc6b3d3	-0.024255669
217	0xbe7f726a	-0.24945989
218	0x3e55ccb1	0.20878865
219	0x3eab6af0	0.33480024
220	0xbd95ef00	-0.07320976
221	0xbdee1d42	-0.11626674
222	0xbcdf9ae8	-0.027295545
223	0xbe525962	-0.2054191
224	0xbdcfdcdf	-0.1014955
225	0x3e96e569	0.294719
226	0xbe686453	-0.2269452
227	0x3d47bfbe	0.048766844
228	0x3ee529a8	0.44758344
229	0x3e431d9c	0.19054264
230	0xbcd526c2	-0.026019458
231	0xbd111abd	-0.03542589
232	0xbd3688a5	-0.044563908
233	0xbe36dd40	-0.17857838
234	0xbd5feda8	-0.054670006
235	0x3d8bbd64	0.06823233
236	0x3ec97d17	0.39353248
237	0x3dda8b03	0.10671046
238	0x3d97bf50	0.07409537
239	0xbda0e6fc	-0.07856557
240	0xbdfcf482	-0.12351324
241	0x3e0a9099	0.13531722
242	0xbd425c60	-0.047451377
243	0x3e4ca2d2	0.19983986
244	0x3df714fc	0.12064549
245	0xbe589660	-0.21151114
246	0xbe096fa5	-0.13421495
247	0x3e9a0370	0.30080748
248	0x3da24659	0.07923574
249	0xbe13d780	-0.14437675
250	0x3ded2956	0.1158015
251	0xbd7d6b3b	-0.06186984
252	0x3e03e1e2	0.12879136
253	0xbf09cbf4	-0.5382683
254	0x3d5484c6	0.051884435
255	0xbd5b29f3	-0.053506803

bn1.running_mean f4 [256]
0	0x40557df7	3.3358133
1	0x3f57eb8d	0.84343797
2	0x3e01c453	0.12672548
3	0x3f910015	1.132815
4	0x3ec7cba1	0.39022544
5	0x3eb994a9	0.3624623
6	0x3f40b2e4	0.75272965
7	0x401b3420	2.4250565
8	0x3f9039c0	1.1267624
9	0x3ed7b625	0.42131153
10	0x3ecc3892	0.3988691
11	0x3f91b608	1.1383677
12	0x3f297daf	0.662074
13	0x4091f5e1	4.5612645
14	0x3f2c0f4b	0.67210835
15	0x400665c8	2.0999622
16	0x3f7b07ff	0.98059076
17	0x3f007c03	0.50189227
18	0x3f63d6e1	0.88999754
19	0x3f770a21	0.9649983
20	0x3e98aae7	0.29817888
21	0x3fd90d4b	1.6957182
22	0x409bc66b	4.867971
23	0x3f5c0d07	0.8595738
24	0x3eab0f41	0.33410075
25	0x3eefb215	0.46815553
26	0x3f39ba64	0.72550035
27	0x3efc03a0	0.49221516
28	0x3fa39e21	1.2782632
29	0x404eeba9	3.2331336
30	0x3fdc93d5	1.7232615
31	0x3fbe56eb	1.4870275
32	0x3fa5da38	1.295722
33	0x3e8d3758	0.27581286
34	0x40605d82	3.5057073
35	0x3f88d2e8	1.0689363
36	0x4044f685	3.0775464
37	0x404ac22b	3.168101
38	0x4030990f	2.759342
39	0x3f3eafc7	0.74486965
40	0x403c32eb	2.9406078
41	0x3f4bde81	0.7963639
42	0x3e84497a	0.25837308
43	0x3fa9ce76	1.3266132
44	0x3f899886	1.0749671
45	0x3e83fbb4	0.25777972
46	0x3ed3c654	0.4136225
47	0x3ecbfe2c	0.39842355
48	0x4015ee75	2.3426793
49	0x3ee09555	0.4386393
50	0x3fbb69db	1.464168
51	0x404224d4	3.0334978
52	0x3f1f6f59	0.6227928
53	0x3f465f52	0.774892
54	0x3fd3025c	1.6485095
55	0x3fe47990	1.7849598
56	0x3f16017c	0.58596015
57	0x3eb11632	0.34587246
58	0x3f5eb56f	0.86995596
59	0x4008bd12	2.13654
60	0x40b6e802	5.7158213
61	0x3ed65790	0.4186368
62	0x3f331a62	0.6996213
63	0x3e859f1b	0.2609795
64	0x3fcedb89	1.6160747
65	0x3f8c628d	1.0967575
66	0x3f86e3bd	1.053825
67	0x3f22c019	0.6357437
68	0x3f9098c0	1.1296616
69	0x40041d92	2.0643048
70	0x3e957e5d	0.2919797
71	0x3ffbe094	1.9677911
72	0x3ef5aa37	0.47981426
73	0x3f004843	0.5011026
74	0x402e5fb5	2.7245915
75	0x3fab677c	1.3390956
76	0x3ed700c2	0.41992766
77	0x407f73de	3.991447
78	0x3fee4373	1.8614334
79	0x3e3421b1	0.17590977
80	0x3fb67a38	1.4256048
81	0x3e7810a7	0.24225102
82	0x4001ace6	2.026178
83	0x3ee6c520	0.4507227
84	0x4008c311	2.136906
85	0x3f813b81	1.0096284
86	0x3ea7141d	0.32632533
87	0x40b22674	5.567194
88	0x3f2d12b5	0.6760667
89	0x3fe77aee	1.808439
90	0x3e1d8a8e	0.15384886
91	0x3f2c6194	0.6733639
92	0x3e41513f	0.18878649
93	0x3d9e7cf2	0.07738675
94	0x3c480613	0.012208479
95	0x4011ec97	2.2800653
96	0x3f59e858	0.85120153
97	0x403f169d	2.9857552
98	0x3fd0ad29	1.6302844
99	0x3f013fa2	0.5048772
100	0x3fb1aa9e	1.3880193
101	0x3ed3c750	0.41363
102	0x3e8cc0b3	0.27490768
103	0x4050936a	3.2589974
104	0x3ff54e54	1.9164529
105	0x3f990509	1.1954662
106	0x3fc9029e	1.5703924
107	0x4002fded	2.0467484
108	0x3de484f0	0.11158168
109	0x3e8782a6	0.26466864
110	0x3fd941f8	1.6973257
111	0x3fcae92a	1.5852406
112	0x400fe8fd	2.2485955
113	0x3f92fcec	1.1483436
114	0x3e2edcab	0.17076366
115	0x408ef13d	4.466948
116	0x408e10c4	4.4395466
117	0x3eb14485	0.3462259
118	0x3ecfc8c8	0.4058287
119	0x3eeff9d9	0.46870306
120	0x409cc7d3	4.8993926
121	0x409f6721	4.981339
122	0x4061a835	3.5258915
123	0x403d9296	2.962072
124	0x40994bb7	4.7904925
125	0x4047f573	3.124356
126	0x405f2e08	3.4871845
127	0x400e1c3e	2.2204738
128	0x3fb32b15	1.3997523
129	0x3ef94d22	0.4869166
130	0x3f0784a8	0.5293679
131	0x402f824e	2.7423282
132	0x3e0a1f61	0.13488533
133	0x4034c68e	2.8246188
134	0x40304c6c	2.7546644
135	0x40bb1560	5.8463593
136	0x3ffe6770	1.9875317
137	0x401e12cc	2.4698973
138	0x4019749f	2.397743
139	0x3f695060	0.9113827
140	0x40914044	4.539095
141	0x4033e25f	2.8106916
142	0x3eccff77	0.40038654
143	0x3fab3a38	1.3377142
144	0x3f2ced3a	0.6754948
145	0x3fcc5ba4	1.5965466
146	0x3fb0848f	1.3790454
147	0x3eabb8f6	0.33539551
148	0x3da685d7	0.08130997
149	0x3fefdfa9	1.8740131
150	0x3f214014	0.629884
151	0x3f43c2ce	0.76469123
152	0x3fefc967	1.8733338
153	0x407f4928	3.98884
154	0x4031975e	2.7748637
155	0x3d5c544d	0.053791333
156	0x3eeffd80	0.46873093
157	0x3f7c494c	0.9854934
158	0x3f97716c	1.1831489
159	0x3df2ea8d	0.11861143
160	0x3ee17f1f	0.44042298
161	0x3fa4fd9f	1.2889899
162	0x3fe50341	1.7891618
163	0x3f70671a	0.9390732
164	0x3d8d66e6	0.06904392
165	0x3f769570	0.96321774
166	0x3fbb6eec	1.4643226
167	0x3fa12015	1.2587916
168	0x3faa598e	1.330858
169	0x40871571	4.2213674
170	0x3eb5f932	0.35541683
171	0x40c63cb6	6.194911
172	0x3eb54a96	0.35408467
173	0x401ddfc1	2.4667819
174	0x3f194ed1	0.5988589
175	0x3f817c30	1.0116024
176	0x3f1c3299	0.61014706
177	0x4014c816	2.3247123
178	0x3f8df9dd	1.1091877
179	0x3feb8c2c	1.8402152
180	0x4020f6e1	2.5150683
181	0x3f619866	0.88123167
182	0x40b9ef47	5.8104587
183	0x3e5f5eab	0.21813457
184	0x3f8822ab	1.063558
185	0x3fd3ec6e	1.6556528
186	0x3f25f416	0.6482557
187	0x3fc15efb	1.5107111
188	0x4054ba1c	3.3238592
189	0x3cbda63c	0.023150556
190	0x3cdbac42	0.026815537
191	0x3e01078f	0.1260054
192	0x40665998	3.5992184
193	0x3f009990	0.5023432
194	0x3f5ce104	0.86280847
195	0x40166b10	2.3502846
196	0x3f8d33af	1.1031398
197	0x3fee156f	1.8600291
198	0x3f400556	0.7500814
199	0x3f1e498b	0.6183097
200	0x3b564cbf	0.0032699553
201	0x3fa2df3b	1.2724375
202	0x3d4d560e	0.050130896
203	0x40acdb47	5.4017673
204	0x3f9da310	1.2315388
205	0x3fae2a88	1.360673
206	0x3e3874b5	0.1801327
207	0x3ec3bb45	0.38228813
208	0x3f124244	0.57132363
209	0x3fdf86df	1.7463034
210	0x407ce314	3.9513597
211	0x3e906461	0.28201583
212	0x3fe3fc9a	1.7811463
213	0x3f0c4f3e	0.54808414
214	0x3f86db90	1.0535755
215	0x3ecd6891	0.4011884
216	0x3fcc5d5a	1.5965989
217	0x3fb72c2e	1.4310358
218	0x3ed40c0e	0.41415447
219	0x3f103fe8	0.56347513
220	0x3e53a173	0.20667057
221	0x3f8d5a30	1.1043148
222	0x3e42d8f9	0.19028081
223	0x3fa88f84	1.3168797
224	0x3e4e4801	0.20144655
225	0x40114b44	2.2702188
226	0x3f93c16a	1.15434
227	0x403b548c	2.9270353
228	0x4002efa6	2.045877
229	0x3e8f761a	0.28019792
230	0x3f329a21	0.6976643
231	0x3f84cec0	1.0375595
232	0x401b50ca	2.426806
233	0x3f4c40e1	0.797865
234	0x4027cccf	2.6218755
235	0x3ea1d0d4	0.31604636
236	0x3fbfa888	1.4973307
237	0x3fc80f5b	1.5629686
238	0x3fce1d99	1.6102782
239	0x4010acc7	2.2605455
240	0x40503176	3.2530189
241	0x3e3a2e69	0.18181767
242	0x3f7f9ad0	0.998456
243	0x403bce8e	2.934482
244	0x3f9c3ffa	1.2207024
245	0x408dffe0	4.4374847
246	0x4015fd45	2.3435833
247	0x3eca84ff	0.39554593
248	0x3db9983a	0.09062238
249	0x40412fcc	3.0185423
250	0x3edfde27	0.43724176
251	0x3ec34eea	0.38146144
252	0x3f2c5154	0.67311597
253	0x3ffb457a	1.9630578
254	0x3fe75ff7	1.8076161
255	0x4026ada9	2.6043494

bn1.running_var f4 [256]
0	0x4127ff3f	10.499816
1	0x401dd6a6	2.466226
2	0x3e312522	0.17299321
3	0x40235334	2.5519533
4	0x3eace273	0.33766517
5	0x3f6b8503	0.91999835
6	0x3f37883c	0.7169225
7	0x412a380e	10.638685
8	0x3fc3281f	1.5246619
9	0x3f18cb6a	0.59685385
10	0x3f38561d	0.720064
11	0x40a78576	5.2350416
12	0x3fce77c1	1.6130296
13	0x4207c712	33.944405
14	0x3fcb3834	1.5876527
15	0x41883865	17.027536
16	0x405dba91	3.464512
17	0x3ed1b278	0.40956473
18	0x4088bf76	4.2733717
19	0x40848882	4.1416636
20	0x3f15987c	0.584358
21	0x40ad29b4	5.4113407
22	0x42172de5	37.79482
23	0x40363db5	2.8475163
24	0x3f28c620	0.65927315
25	0x3fadd964	1.3581967
26	0x3ffd7437	1.9801091
27	0x3e4892e3	0.19587283
28	0x3fe9ea66	1.8274658
29	0x4162208b	14.132945
30	0x40c1a9a3	6.0519576
31	0x407b3845	3.9253094
32	0x405dc130	3.4649162
33	0x3ee077f1	0.43841508
34	0x414cdbb2	12.803637
35	0x4055da08	3.3414326
36	0x411213bd	9.129819
37	0x41022cbd	8.135922
38	0x4126f25b	10.434169
39	0x40301206	2.7511
40	0x409be000	4.8710938
41	0x3f969a49	1.1765834
42	0x3f373ad8	0.71574163
43	0x402e2f6a	2.721644
44	0x40e4587f	7.1358027
45	0x3e91932c	0.28432596
46	0x3f11f4b4	0.5701401
47	0x3f8b46ff	1.0881041
48	0x402f3596	2.7376456
49	0x3f446277	0.76712745
50	0x40734dcc	3.8016233
51	0x4152e8ed	13.181867
52	0x3fb06895	1.3781916
53	0x3ff73053	1.9311622
54	0x40809789	4.018498
55	0x40a76cff	5.232055
56	0x3f1148b5	0.5675157
57	0x3eeff020	0.46862888
58	0x3fd15ab9	1.6355811
59	0x4014e65a	2.3265595
60	0x42602778	56.038544
61	0x3f804992	1.0022452
62	0x40800403	4.0004897
63	0x3f2710bb	0.65259904
64	0x408c3a98	4.3821526
65	0x40450d2a	3.0789285
66	0x402fad9a	2.7449708
67	0x3f9aa988	1.2082987
68	0x400b5482	2.177033
69	0x408c60e8	4.3868294
70	0x3e88b150	0.2669778
71	0x408c44c1	4.383393
72	0x3f8c104c	1.0942473
73	0x3fe0e477	1.7569722
74	0x41115fc4	9.08588
75	0x408675a8	4.2018623
76	0x3fca2ca6	1.5794876
77	0x41b2c4ac	22.346031
78	0x40f9d659	7.8074155
79	0x3ec1f4a1	0.3788195
80	0x406ff757	3.7494714
81	0x3e956158	0.2917583
82	0x40c75bae	6.2299414
83	0x3fae6feb	1.3627905
84	0x40ab3279	5.349911
85	0x4037e0ce	2.873096
86	0x3f155e57	0.58347076
87	0x424b64a4	50.84828
88	0x3fa6a15e	1.3017995
89	0x41042c3e	8.260801
90	0x3ee9b6bf	0.45647237
91	0x3fa3862a	1.2775319
92	0x3e847a54	0.2587458
93	0x3decbb8f	0.115592115
94	0x3c99d3b5	0.018777708
95	0x4076c0ac	3.8555098
96	0x3f50d420	0.8157368
97	0x40c4d837	6.1513934
98	0x40719ff3	3.7753875
99	0x3f0ded4f	0.5544023
100	0x4092c4a2	4.586503
101	0x3f5a49e7	0.85269016
102	0x3f2e9e1b	0.6821
103	0x4198c770	19.097382
104	0x4075456a	3.8323617
105	0x400a646f	2.16238
106	0x40a69c45	5.206576
107	0x410203c4	8.125919
108	0x3e127c56	0.14305243
109	0x3f5a1db1	0.85201555
110	0x4082128a	4.064763
111	0x400f51fa	2.2393785
112	0x412379bb	10.217219
113	0x4061fe1e	3.531135
114	0x3ea24b67	0.31698152
115	0x4207bc26	33.93374
116	0x416a3690	14.638321
117	0x3f0e70b5	0.5564073
118	0x3f6ae6cc	0.9175842
119	0x3ec7ed71	0.3904834
120	0x4198f342	19.118778
121	0x42255e87	41.34231
122	0x4084a090	4.1446
123	0x40b7f0a8	5.748127
124	0x40ec4f24	7.3846607
125	0x40bd31bb	5.9123206
126	0x405a4139	3.4102309
127	0x40f10d12	7.5328455
128	0x404c4109	3.1914694
129	0x3f56f3d7	0.8396582
130	0x3fb5e04d	1.4209076
131	0x4121282a	10.072306
132	0x3e6fc206	0.23413858
133	0x410e788e	8.904432
134	0x416c630b	14.77418
135	0x41a7a970	20.957733
136	0x41008967	8.0335455
137	0x40dfcefd	6.994017
138	0x404fca2d	3.2467148
139	0x40243b0f	2.5661047
140	0x3f849991	1.0359365
141	0x40a9754c	5.2955685
142	0x3ee47444	0.44619954
143	0x4090653c	4.5123577
144	0x3fac0d5f	1.344158
145	0x408e98c9	4.4561505
146	0x4017ee39	2.373915
147	0x3eb79a4e	0.35859913
148	0x3e17d1c1	0.14826109
149	0x40fde36e	7.9340124
150	0x3e691402	0.22761539
151	0x3fe674ac	1.8004355
152	0x410978c0	8.59198
153	0x4153b51e	13.231718
154	0x409cb2dc	4.8968334
155	0x3d69c265	0.057070155
156	0x3f82cb26	1.0218246
157	0x400c9686	2.1966872
158	0x40245b78	2.5680828
159	0x3e3db4e9	0.18526043
160	0x3fa707f8	1.3049307
161	0x3ff83558	1.9391279
162	0x409fb5fe	4.990966
163	0x4042fae2	3.0465627
164	0x3dd8672c	0.105665535
165	0x4001c15b	2.0274265
166	0x40059152	2.0869946
167	0x40972c18	4.7241325
168	0x40a60132	5.187646
169	0x415244bc	13.141781
170	0x3f3a3ab3	0.7274582
171	0x41925554	18.291664
172	0x3f299d66	0.66255796
173	0x410706de	8.439177
174	0x3f989f1d	1.1923558
175	0x3fd0ef4d	1.6323029
176	0x3fc729e4	1.5559659
177	0x4132b903	11.170169
178	0x406629fb	3.5963123
179	0x41059af9	8.350335
180	0x40a38b51	5.1107564
181	0x3fa4fdce	1.2889955
182	0x425fe482	55.973152
183	0x3ec4174d	0.38299027
184	0x4047a14c	3.1192198
185	0x402100fe	2.5156856
186	0x3f914a23	1.135075
187	0x40974ce3	4.7281356
188	0x40d73087	6.7246737
189	0x3d0606d2	0.032721348
190	0x3cef50ad	0.029213274
191	0x3e49e159	0.1971487
192	0x41118ea4	9.097324
193	0x3f418f18	0.7560897
194	0x3fe2c226	1.7715499
195	0x41274d4c	10.456371
196	0x403c0462	2.9377675
197	0x40840e46	4.1267424
198	0x40039145	2.0557415
199	0x3fb1dcfb	1.3895563
200	0x3bb2a1b9	0.0054514077
201	0x402d9b30	2.712597
202	0x3d2471bf	0.04014754
203	0x423ba131	46.907413
204	0x40264879	2.5981734
205	0x408e68d0	4.4502945
206	0x3e83e756	0.25762433
207	0x3f4ad1d0	0.792264
208	0x3fe2d5a5	1.7721449
209	0x4082b894	4.0850315
210	0x4106ca3e	8.424376
211	0x3f7129a6	0.94204175
212	0x4095fceb	4.687124
213	0x3f12857b	0.57234925
214	0x403ab31d	2.9171822
215	0x3f97fa44	1.187325
216	0x402cee5d	2.7020485
217	0x4089e2ef	4.308952
218	0x3f9a0840	1.2033768
219	0x3fe2d23e	1.7720411
220	0x3eb43a52	0.35200745
221	0x400d6117	2.209051
222	0x3e928568	0.28617406
223	0x404e78b6	3.2261176
224	0x3f0546eb	0.5206134
225	0x40cfc0da	6.4922915
226	0x40282ec2	2.6278539
227	0x41712314	15.071064
228	0x40b81de5	5.753649
229	0x3f1fcb90	0.62419987
230	0x3fe4ac05	1.7864996
231	0x3f433697	0.7625517
232	0x40d4a144	6.6446857
233	0x3f6abb6f	0.9169225
234	0x413418bb	11.256038
235	0x3efce79a	0.49395448
236	0x40199991	2.399998
237	0x40721e4b	3.783099
238	0x41395454	11.583088
239	0x40aebc14	5.4604588
240	0x414a060e	12.626478
241	0x3ee1e4aa	0.4411977
242	0x40440cfd	3.0632927
243	0x413dff45	11.874822
244	0x408427b8	4.1298485
245	0x4118ea14	9.557148
246	0x4096bafa	4.7103243
247	0x3fa32ebc	1.2748637
248	0x3defb104	0.11703685
249	0x4113ab05	9.229253
250	0x3f7b8b63	0.9825956
251	0x3f78ca1e	0.97183406
252	0x3f65af30	0.8972044
253	0x40f7c6d5	7.7430215
254	0x4101235b	8.071132
255	0x40e5c5cd	7.1803956

fcs1.weight f4 [256, 48]
0	0xbccbef14	-0.024894275
1	0x3e47eb09	0.19523253
2	0xbc8461f2	-0.016159985
3	0x3c0219f2	0.007940756
4	0xbd4016ee	-0.046896867
5	0x3ce80042	0.028320435
6	0xbd1d9156	-0.03846868
7	0x3c016d84	0.007899646
8	0x3b924677	0.0044639665
9	0x3e1464d9	0.14491595
10	0xbd5ebb62	-0.05437792
11	0xbd2d8995	-0.042367537
12	0xbdd2a1fa	-0.10284801
13	0x3a5de1ec	0.0008464146
14	0xbbed0ebb	-0.007234422
15	0xbdbb4364	-0.09143713
16	0xbd8f5cdf	-0.07000136
17	0x3dd4808f	0.10376083
18	0xbdb45d31	-0.08806837
19	0xbdc5f43b	-0.09665724
20	0x3d106a2c	0.035257503
21	0x3cd8eb1d	0.026479298
22	0x3c66be32	0.014083432
23	0x3c73e09a	0.014885092
24	0x3d545aea	0.051844515
25	0x3de83a68	0.11339265
26	0x3cc07de7	0.023497535
27	0xbcb384a4	-0.021913834
28	0xbd234ebc	-0.03987001
29	0xbcccddbe	-0.025008079
30	0x3d17d5b5	0.03706904
31	0x3d0d31bc	0.03447126
32	0xbdb864ec	-0.09003624
33	0x3db3dcca	0.087823465
34	0x3dc7f544	0.097635776
35	0x3d972249	0.07379586
36	0x3dd77592	0.10520472
37	0xbbe27d41	-0.006911904
38	0x3dc1a1d4	0.094546944
39	0x3cc33703	0.023829943
40	0xbd8ca19d	-0.06866763
41	0x3d547e0c	0.05187802
42	0x3ced19e4	0.02894301
43	0x3dd3c4c9	0.10340268
44	0xbccef28b	-0.025262138
45	0x3dc37620	0.09544015
46	0xbc8178e7	-0.015804721
47	0x3e35c356	0.17750296
48	0x3df795e1	0.12089134
49	0x3dba5476	0.09098141
50	0xbc2719e9	-0.010199049
51	0x3d009709	0.03139404
52	0x3d2f78d1	0.04283983
53	0xbd95752c	-0.072977394
54	0x3c4b296f	0.012400015
55	0xbcac5339	-0.021035777
56	0x3d445f6f	0.047942575
57	0xbd10a20d	-0.035310794
58	0xbbdf4d34	-0.0068146233
59	0x3cb5d024	0.022193976
60	0x3da8f36c	0.08249554
61	0x3d040950	0.032235444
62	0xbcae4bc1	-0.021276357
63	0x3db35041	0.087555416
64	0x3dc61bbc	0.09673259
65	0x3d892ad1	0.0669762
66	0xbc7cd25d	-0.015431014
67	0xbd730d5e	-0.05933892
68	0x3df1ea3b	0.11812254
69	0xba8635d4	-0.0010239431
70	0xbcf964c0	-0.03044355
71	0x3c1239e0	0.008924931
72	0x3b83d7c0	0.004023522
73	0x3ddc4b92	0.107566014
74	0x3bffc873	0.007805878
75	0x3da96624	0.08271435
76	0xbdb34ca4	-0.087548524
77	0x3cba2283	0.022721535
78	0xbca564ce	-0.020189669
79	0x3d1410c4	0.0361488
80	0xbe136d37	-0.14397131
81	0x3d827dc9	0.06371648
82	0xbd41a810	-0.047279418
83	0x3c920c44	0.017828114
84	0xbe297ab5	-0.16550715
85	0x3db7aef1	0.08968914
86	0x3d5123d0	0.051059544
87	0xbd81bebe	-0.06335209
88	0xbd905d11	-0.07049001
89	0x3e0bb861	0.13644554
90	0xbca7f8ac	-0.020504318
91	0x3c22838c	0.0099190585
92	0xbdd17e49	-0.10229165
93	0xbda0744d	-0.078346826
94	0xbc8e9496	-0.017404836
95	0x3dceadac	0.10091719
96	0x3d60c589	0.054875884
97	0xbdbba059	-0.09161443
98	0x39fb12f5	0.00047888575
99	0xbd567ce5	-0.052365202
100	0x3caacf73	0.020850873
101	0x3d26cf9a	0.040725328
102	0xbc49a494	-0.012307305
103	0x3d7cda3b	0.06173156
104	0x3d0620af	0.032746013
105	0xbbd7f360	-0.006590292
106	0x396daf9d	0.00022667502
107	0xbd125906	-0.03572943
108	0xbb917bb6	-0.0044397963
109	0xbe23b020	-0.15985155
110	0x3b68c0ea	0.0035515376
111	0x3cbcd0fe	0.023048874
112	0xbd317a4c	-0.043329522
113	0x3d32c730	0.04364699
114	0x3c83a10b	0.016068002
115	0x3db73701	0.08946038
116	0xbd616ea6	-0.055037163
117	0xbea4c649	-0.3218253
118	0xbc930feb	-0.017951926
119	0xbcadc82e	-0.021213617
120	0xbd7a720a	-0.061143912
121	0x3e7a3966	0.24435958
122	0x3d0ab998	0.033868402
123	0x3d2cd031	0.042190734
124	0xbbecac71	-0.007222705
125	0x3b00368a	0.0019563758
126	0xbd2b2d80	-0.04179144
127	0x3de0096b	0.10939296
128	0xbdd93ddf	-0.10607504
129	0x3e6ad2ac	0.22931927
130	0x3d1ebf1e	0.038756482
131	0xbd84f210	-0.06491482
132	0xbce3b436	-0.027795892
133	0xbe3d2b98	-0.18473661
134	0xbd2fa114	-0.042878225
135	0xbc8ce8c0	-0.017200828
136	0xbd6d6165	-0.05795421
137	0x3ea073a6	0.31338233
138	0xbcd0b461	-0.025476636
139	0xbc6d9324	-0.014500413
140	0x3ca28ce5	0.019842574
141	0xbe7a3ada	-0.24436513
142	0x3c8abbf7	0.016935332
143	0xbd0ee4e7	-0.034886267
144	0x3d14c776	0.036323033
145	0x3d673caf	0.056454357
146	0x3c3a40ba	0.011367971
147	0x3b99825d	0.00468473
148	0x3db95e50	0.09051192
149	0xbca8f3ee	-0.020624127
150	0x3c37f0a4	0.011226807
151	0x3c10d629	0.008840122
152	0xbd2d8a67	-0.04236832
153	0xbd5972df	-0.053088065
154	0x3d64c73d	0.05585407
155	0x3b8ab75a	0.004233283
156	0xbd85a8ff	-0.06526374
157	0x3cc550a5	0.024086306
158	0xbd5467a9	-0.05185667
159	0x3bc74cb7	0.006082143
160	0xbc863b77	-0.016385777
161	0xbc85a714	-0.01631502
162	0x3cfffd45	0.031248698
163	0xbcf8aecb	-0.030356785
164	0xbd798959	-0.060922
165	0x3cc985dc	0.024599962
166	0xbc7adca5	-0.015311395
167	0x3d098e3b	0.033582907
168	0x3dd8a84d	0.10578976
169	0xbe55b1b0	-0.20868564
170	0x3cbab73f	0.022792457
171	0xbd5b56e6	-0.05354967
172	0xbdcb1400	-0.09915924
173	0xbcc5db66	-0.024152469
174	0xbc303003	-0.010753634
175	0xbd1987fc	-0.0374832
176	0x3dae1246	0.08499579
177	0xbe959d85	-0.2922174
178	0x3c9fc2d6	0.019502085
179	0x3d4a9dc8	0.04946688
180	0x3dbe876b	0.09303173
181	0x3dca8dc1	0.09890319
182	0x3c36f862	0.0111676175
183	0x3d161466	0.036640547
184	0x3c093aa7	0.0083758
185	0xbf02ffcc	-0.51171565
186	0x3c4295c2	0.011876525
187	0x3cf4338d	0.029809738
188	0x3dd5415a	0.104128554
189	0x3d7d0027	0.061767723
190	0x3c9f6014	0.019454993
191	0x3d94edc4	0.07271913
192	0xbc624a6d	-0.01381169
193	0x3c6caea8	0.014445938
194	0x3d3e2fc2	0.046432264
195	0xbc3ec005	-0.011642461
196	0x3de873d5	0.11350218
197	0x3d82c1aa	0.06384595
198	0xbd306308	-0.043063194
199	0x3baa9cbc	0.0052066725
200	0xbd0371f3	-0.032091092
201	0xbcd96f74	-0.026542403
202	0xbca2c35c	-0.019868545
203	0x3a634275	0.00086692657
204	0x3d9bd946	0.07609801
205	0x3d8ad5c9	0.067790575
206	0x3c8d0632	0.017214868
207	0x3a48abd9	0.0007655002
208	0x3d31797d	0.04332875
209	0x3cc71e93	0.024306571
210	0xbcb825b0	-0.022478908
211	0x3d14300f	0.036178645
212	0xbe8ad469	-0.2711518
213	0xbdf8d28a	-0.12149532
214	0x3c8bcb0c	0.017064594
215	0xbd06a51b	-0.0328723
216	0xbd0bb849	-0.034111295
217	0xbdb7e82f	-0.089798324
218	0x3b1ca6a0	0.0023903027
219	0x3c407775	0.011747231
220	0xbe155a29	-0.14585175
221	0x3ddaffd2	0.10693325
222	0xbb58e65c	-0.003309629
223	0xbc8b451a	-0.017000724
224	0xbd320065	-0.043457408
225	0x3d1fbe99	0.039000127
226	0x3c30a67b	0.01078188
227	0x3ca4c451	0.020113142
228	0xbdd1d32a	-0.102453545
229	0x3d86dbf1	0.06584919
230	0xbc6dceeb	-0.014514665
231	0xbd091b4a	-0.03347329
232	0x3d93e510	0.072214246
233	0x3dad9773	0.08476152
234	0x3cdcef74	0.026969649
235	0x3c1d2d13	0.009593266
236	0x3e8aefe3	0.27136144
237	0xbdd7b088	-0.105317175
238	0xbd0b456f	-0.034001764
239	0xbc8209f5	-0.015873889
240	0xbcc86ebc	-0.024466865
241	0x3ddf14d5	0.10892645
242	0xbbdf528c	-0.0068152603
243	0xbc8cb031	-0.017173858
244	0xbe4643d2	-0.19361809
245	0x3e18bf49	0.1491672
246	0xbcf5fa96	-0.030026715
247	0x3cc64f61	0.024207773
248	0xbd335074	-0.043777898
249	0x3e3be2cf	0.1834824
250	0x3d0d557d	0.034505356
251	0x3d9bf7f3	0.07615652
252	0xbd299f75	-0.041411836
253	0x3d88b213	0.0667459
254	0xbd89ebc5	-0.067344226
255	0x3def092b	0.116716705

fcs1.bias f4 [256]
0	0x3cac2770	0.021014899
1	0x3caf93b2	0.021432731
2	0x3d3b2ad0	0.045695126
3	0x3e018eb1	0.12652089
4	0xbe64c38b	-0.22340219
5	0xbd29063b	-0.041265707
6	0xbd04be3e	-0.03240799
7	0x3e0ba7f1	0.13638283
8	0xbe29726f	-0.16547559
9	0xbe29014f	-0.16504405
10	0x3e00e8a1	0.12588741
11	0xbd6f786b	-0.05846445
12	0xbd5ee2ad	-0.054415394
13	0x3c2da73b	0.010598953
14	0x3e02e84f	0.12783931
15	0x3d8ddc13	0.069267415
16	0x3e0f8911	0.1401713
17	0xbd8556a7	-0.06510668
18	0x3e2659e4	0.16245228
19	0x3c6eb617	0.014569781
20	0xbd96d9ce	-0.07365762
21	0x3d4be12f	0.0497753
22	0x3cb89f79	0.02253698
23	0xbe466821	-0.1937566
24	0x3d8ff060	0.0702827
25	0xbd868f45	-0.06570295
26	0xbe2dae67	-0.1696106
27	0x3c5cb635	0.013471176
28	0xbe5051bf	-0.20343684
29	0xbdf8263b	-0.12116667
30	0xbcf66d3b	-0.030081382
31	0xbe4fa089	-0.20276083
32	0x3d8d8d8b	0.06911763
33	0xbe09380f	-0.13400291
34	0x3e5a8a0b	0.21341722
35	0xbd954a41	-0.072895534
36	0x3dcdf24e	0.100559816
37	0xbd87fee6	-0.06640415
38	0x3d8b81b0	0.06811845
39	0x3da04f19	0.07827587
40	0xbe691dc7	-0.22765265
41	0x3e5de7de	0.21670482
42	0xbe8dec17	-0.27719185
43	0x3e047be6	0.12937889
44	0x3bf4c5b4	0.007469857
45	0xbe92c31e	-0.28664488
46	0xbe8a38e7	-0.26996538
47	0x3b8dae5f	0.004323765
48	0x3bbb95a2	0.0057246247
49	0x3dc07464	0.093972
50	0x3e03ea10	0.12882257
51	0xbd5a3cd4	-0.053280666
52	0x399d534b	0.00030007432
53	0x3e89733f	0.26845738
54	0xbc7cab5c	-0.015421715
55	0xbd28eb55	-0.041240055
56	0xbbc9b24a	-0.006155287
57	0xbe47f5a9	-0.19527306
58	0xbe356393	-0.17713766
59	0x3e346726	0.17617473
60	0xbc83064f	-0.01599422
61	0xbc11218b	-0.008858095
62	0x3d98c9a9	0.074603386
63	0xbe835a27	-0.25654718
64	0xbdce7202	-0.10080339
65	0xbadb68cc	-0.0016739606
66	0xbcff1974	-0.031140067
67	0x3e0cba29	0.1374289
68	0x3ba691b6	0.005083288
69	0x3da6cdab	0.08144697
70	0xbece8cc2	-0.40341765
71	0xbd98624d	-0.074406244
72	0xbe221cfa	-0.15831366
73	0x3d5ecb84	0.054393306
74	0xbda47338	-0.08029789
75	0x3d8a3828	0.06748992
76	0x3dbe4516	0.09290521
77	0xbdaf9b2b	-0.08574518
78	0x3d225ca6	0.039639138
79	0x3e13ab40	0.14420795
80	0xbdf4877c	-0.11939904
81	0xbd59e993	-0.05320127
82	0xbe23132a	-0.1592528
83	0x3d0ae702	0.033911712
84	0x3d2758fe	0.040856354
85	0xbc45adbc	-0.012065347
86	0x3d464d51	0.04841358
87	0xbe0680b7	-0.13135038
88	0x3d2bebb0	0.041972816
89	0xbd9ebae9	-0.07750494
90	0xbdefe3d2	-0.11713375
91	0xbbace704	-0.0052765626
92	0xbe084ec1	-0.13311292
93	0x3db363b3	0.087592505
94	0x3e9038ed	0.2816843
95	0xbe11225e	-0.14173266
96	0xbdedc464	-0.11609724
97	0x3e11682b	0.14199893
98	0xbdd65714	-0.104658276
99	0xbe23889e	-0.15970084
100	0x3df66e23	0.12032726
101	0x3dfe642b	0.12421449
102	0xbe658d6f	-0.22417234
103	0xbe29e4a9	-0.16591133
104	0xbe26e588	-0.16298497
105	0xbe7fff25	-0.24999674
106	0xbbc29e04	-0.005939247
107	0xbe1ca596	-0.15297541
108	0xbeadc118	-0.3393638
109	0xbccefcd7	-0.025267048
110	0xbe20b6b6	-0.15694699
111	0xbd68b4dd	-0.05681311
112	0x3d8b5ed1	0.06805194
113	0x3d1e954e	0.038716607
114	0x3dca7e3e	0.0988736
115	0xbe507a13	-0.20359068
116	0x3e7ef7b5	0.2489918
117	0xbc8cbded	-0.017180407
118	0x3e03b720	0.12862825
119	0xbdd48ebf	-0.10378789
120	0x3c762341	0.015023054
121	0xbe6d07f8	-0.23147571
122	0x3d14f0a3	0.0363623
123	0x3dd6cd9f	0.10488438
124	0xba1b0750	-0.00059138704
125	0xbcd42e11	-0.025900872
126	0x3d3636f2	0.044485994
127	0xbcdfc901	-0.027317526
128	0xbdbc3381	-0.09189511
129	0xbdc1e34f	-0.09467184
130	0x3b96bcd3	0.0046001463
131	0x3d86bad9	0.06578607
132	0xbaeac224	-0.0017910642
133	0x3e0269d5	0.12735684
134	0xbe566919	-0.20938529
135	0x3e379c55	0.1793073
136	0xbdbf8f4f	-0.09353506
137	0xbd200667	-0.039068606
138	0xbccf2633	-0.02528677
139	0x3e41b11e	0.18915221
140	0xbda7ecaf	-0.08199441
141	0xbe1a62e3	-0.15076785
142	0x3e25280c	0.16128558
143	0x3e140dcc	0.14458388
144	0xbd538386	-0.051639102
145	0xbe08a068	-0.1334244
146	0xbde1f4a3	-0.11032989
147	0xbc0ccd2f	-0.008593841
148	0x3d3c1636	0.04591962
149	0xbe1b8f59	-0.15191402
150	0xbe26bd6e	-0.16283199
151	0xbec49f30	-0.384027
152	0x3d9b87d0	0.075942636
153	0x3e025b9b	0.12730257
154	0xbdc1e251	-0.094669946
155	0xbbcee8bf	-0.0063143666
156	0x3d5de1ae	0.054170303
157	0x3e43eaa1	0.19132473
158	0xbdcbda22	-0.09953715
159	0xbd836bbf	-0.06417035
160	0x3d6f1147	0.058366086
161	0x3d47ac99	0.048748586
162	0xbe1cba57	-0.15305458
163	0x3d8e1ecf	0.0693947
164	0xbe7b439a	-0.24537507
165	0x3e4b8068	0.19873202
166	0x3d8d4187	0.06897264
167	0xbe738d33	-0.23784332
168	0x3d81b227	0.06332808
169	0x3e402ac2	0.18766311
170	0x3d0e1448	0.03468731
171	0xbd539183	-0.051652443
172	0xbc6ede76	-0.014579406
173	0xbd67b1f2	-0.056566186
174	0xbd267026	-0.040634297
175	0xbe40f51c	-0.18843502
176	0xbdae4821	-0.08509851
177	0xbe41cfef	-0.18926977
178	0x3d21bb15	0.039485056
179	0xbd2a6bf5	-0.041606862
180	0x3d21c8a9	0.039498005
181	0xbe83d1e2	-0.25746065
182	0x3e1ba5d5	0.15199979
183	0x3ddc2116	0.10748498
184	0x3e3a3407	0.1818391
185	0xbc3a3c9d	-0.01136699
186	0x3d7883be	0.060672514
187	0x3de3f2cc	0.11130294
188	0x3cb2c217	0.021821065
189	0x3dd1d9bd	0.102466084
190	0x3d9ffb29	0.07811577
191	0xbed7e329	-0.42165497
192	0x3d3a4266	0.04547348
193	0x3d5fca4a	0.054636277
194	0xbe0d4dfa	-0.13799277
195	0xbb442f0b	-0.0029935266
196	0x3e5757eb	0.21029632
197	0xbe6b7f8a	-0.22997871
198	0xbe81c527	-0.25345728
199	0xbd3da58c	-0.046300456
200	0xbdfe3e7a	-0.1241426
201	0x3defd6b7	0.117108755
202	0xbef739c5	-0.48286262
203	0x3d4317f0	0.04763025
204	0xbcf348f4	-0.029697873
205	0x3e11ae09	0.14226545
206	0xbe956a9c	-0.291829
207	0xbc0d3f14	-0.008620996
208	0x3d4abc4d	0.049495984
209	0xbd45bf52	-0.04827816
210	0xbdee132a	-0.11624749
211	0xbd40f735	-0.047110755
212	0xbbe9b484	-0.007132115
213	0xbe8fa6e3	-0.28057012
214	0x3daa22b3	0.083073996
215	0xbd00f1dc	-0.031480655
216	0xbe45628f	-0.19275878
217	0xbc02660b	-0.007958899
218	0xbe3e791c	-0.18600887
219	0xbe8e5615	-0.2780005
220	0xbd2944ff	-0.041325565
221	0x3bb9674e	0.005658067
222	0x3de1453c	0.109995335
223	0x3e5fe2c3	0.21863846
224	0xbd372680	-0.04471445
225	0xbdf06da1	-0.1173966
226	0x3dc21bf5	0.09477989
227	0xbdee0b14	-0.11623207
228	0x3e1588bb	0.1460294
229	0x3e071d7c	0.13194841
230	0xbe807d81	-0.25095752
231	0xbdcc9bbf	-0.09990644
232	0x3e6152d4	0.22004253
233	0xbd730ea0	-0.05934012
234	0x3d1a008c	0.037598178
235	0xbc0d2b96	-0.008616349
236	0x3e22978f	0.15878128
237	0x3cb34149	0.021881716
238	0x3d26dfcd	0.040740777
239	0xbcdd691b	-0.027027657
240	0x3ddc7f5f	0.107664816
241	0x3d111cf1	0.03542799
242	0xbc5d1cce	-0.013495637
243	0x3da01231	0.0781597
244	0x3e18cbad	0.14921446
245	0xbd455a67	-0.048181918
246	0x3dd7b688	0.10532862
247	0xbb397d34	-0.0028303387
248	0x3d5fdf97	0.05465659
249	0xbc736a0e	-0.014856828
250	0xbc44798d	-0.011991871
251	0xbe1234cc	-0.14277953
252	0xbd1fa8df	-0.038979407
253	0x3e0934b7	0.13399015
254	0xbd8939e8	-0.06700498
255	0xbd8a0ff4	-0.06741324

fc2.weight f4 [128, 260]
0	0xbd3fffd0	-0.04687482
1	0xbcd778d0	-0.026302725
2	0x3d56a33d	0.05240177
3	0xbd212fe5	-0.039352316
4	0xbc10c53d	-0.008836088
5	0x3c7c999b	0.015417482
6	0xba98095f	-0.0011599472
7	0x3b27b77d	0.0025591545
8	0x3d76973f	0.060202833
9	0xbddbef6e	-0.10739027
10	0xbb35ec4e	-0.0027759257
11	0x3d307acf	0.04308587
12	0xbd325020	-0.043533444
13	0xbce00dc6	-0.027350318
14	0xbda06abe	-0.078328595
15	0x3da0aee3	0.07845857
16	0xbc30620c	-0.010765564
17	0xbcf4ae69	-0.029868321
18	0x3d5f1ad7	0.054468956
19	0xbda1b5a4	-0.07895973
20	0x3ccd6b8a	0.025075693
21	0xbd9baa25	-0.07600812
22	0x3d8e8546	0.06959014
23	0x3c82eac0	0.015981078
24	0xbd642628	-0.05570045
25	0x3d3a7c5f	0.045528766
26	0xbc2a05bd	-0.010377345
27	0xbcb930d6	-0.022606295
28	0x3cb34305	0.021882543
29	0xbd4675a6	-0.048452042
30	0x3c3e1a45	0.011602943
31	0x3c00ceb5	0.007861783
32	0xbd253ebe	-0.04034304
33	0xbd240e69	-0.040052805
34	0xbc7d3b1a	-0.015455985
35	0x3c0d049f	0.008607059
36	0x3d1d3118	0.038376898
37	0x3c30167b	0.010747547
38	0xbcdf16a8	-0.027232483
39	0xbd247b28	-0.040156513
40	0xbd85e748	-0.06538254
41	0xbb84afd1	-0.0040492793
42	0x3cb42720	0.021991313
43	0x3d1f7d65	0.038937945
44	0x3d50bf5c	0.050963745
45	0xbd86172f	-0.06547391
46	0xbc43e1c5	-0.011955683
47	0xbd4c2d9e	-0.04984819
48	0xbdbd8329	-0.092535324
49	0xbcd1bdde	-0.025603231
50	0xbdbaef70	-0.091277
51	0xbc14a0a7	-0.009071506
52	0xbded0786	-0.115737006
53	0xbc04aa57	-0.008097253
54	0x3d82c147	0.06384521
55	0xbca9dde2	-0.020735685
56	0x3ca0e271	0.019639226
57	0x3c8b7bc3	0.017026788
58	0xbd8e20f1	-0.06939877
59	0x3b328cb6	0.0027244515
60	0xbdb1e1f0	-0.08685672
61	0xbd23575d	-0.039878238
62	0xbd16b614	-0.036794737
63	0xbd8a0f91	-0.0674125
64	0xbdf65eb8	-0.12029785
65	0xbd6263e9	-0.055271063
66	0xbc7bbd6c	-0.015364986
67	0x3bd0942b	0.0063653192
68	0xbbab459b	-0.0052268035
69	0xbbc9c6da	-0.006157738
70	0xbd0429f2	-0.032266565
71	0x3e09ba67	0.13450013
72	0xbbef4f80	-0.0073031783
73	0x3db4959f	0.088176005
74	0xbdeea49e	-0.11652492
75	0x3db72a8f	0.08943664
76	0x3d383da8	0.044980675
77	0xbcc2cdc0	-0.02377975
78	0xbd5b3d55	-0.053525288
79	0x3da4fb27	0.08055716
80	0x3dcf561b	0.10123845
81	0xbd37fd5f	-0.044919368
82	0xbd229e06	-0.039701484
83	0xbe21c604	-0.15798193
84	0x3cdeff62	0.027221385
85	0x3d6ed8ea	0.058312334
86	0xbb714e12	-0.0036820215
87	0x3c4d1463	0.012517068
88	0xbbbdf41b	-0.005796922
89	0xbcb9ae91	-0.022666248
90	0x3a17c949	0.00057901867
91	0xbcf584d1	-0.029970558
92	0xbc3dfcbb	-0.0115959
93	0xbeacfe2d	-0.3378767
94	0xbc77ebad	-0.015131873
95	0x3adbfe87	0.0016784229
96	0xbc6242ac	-0.013809841
97	0xbe102c7d	-0.14079471
98	0xbd301895	-0.042992193
99	0x3ce9ca36	0.028538805
100	0xbd1547be	-0.03644537
101	0xbc3d2711	-0.011544959
102	0xbc4abc65	-0.012374018
103	0x3c9e462e	0.019320574
104	0xbda3b109	-0.07992751
105	0xbd1b26ee	-0.037878923
106	0x3c5e3ddf	0.013564556
107	0x3cbe849f	0.023256598
108	0xbdc2ab26	-0.095053
109	0x3d766203	0.060152065
110	0x3c9cf2a6	0.019158673
111	0x3c7e8a4e	0.015535904
112	0xbd3e563b	-0.046468955
113	0x3c34a28e	0.011025084
114	0x3c9accf2	0.018896554
115	0xbd2a6d90	-0.041608393
116	0x3b7a8f1b	0.003823227
117	0xbc1af6aa	-0.009458223
118	0xbe2c47db	-0.16824286
119	0xbe34262b	-0.17592685
120	0x3d13b5a3	0.036061894
121	0xbd96d541	-0.07364894
122	0x3c86fe72	0.01647875
123	0x3c7158ee	0.014730675
124	0x3dbfd840	0.09367418
125	0xbd59c43e	-0.053165667
126	0x3df86f07	0.12130552
127	0xbdc3cb04	-0.095602065
128	0xbbd9f40e	-0.006651408
129	0x3d9e7114	0.07736412
130	0xbd8690a5	-0.065705575
131	0xbd89befb	-0.0672588
132	0x3cd06b00	0.025441647
133	0x3d54b731	0.051932517
134	0x3d6fa7fa	0.058509804
135	0x3c9c61b0	0.01908955
136	0x3c1ec84b	0.009691308
137	0xbcf56cc2	-0.029959086
138	0xbd4eaa58	-0.05045542
139	0x3d731d49	0.0593541
140	0xbd9878c8	-0.07444912
141	0xbca40aeb	-0.020024737
142	0xbb6b3de4	-0.0035895044
143	0x3d5eeca2	0.05442489
144	0xbd48e375	-0.049045045
145	0xbd15a552	-0.036534615
146	0x3d6dd4b4	0.058064178
147	0xbcacb9c9	-0.021084683
148	0xbd4097b8	-0.04701969
149	0xbcf10fed	-0.02942654
150	0x3e1b041f	0.15138291
151	0xbb8746ca	-0.0041283118
152	0xbdc2867e	-0.094983086
153	0x3d60c78e	0.05487781
154	0x3ccc0a6b	0.024907311
155	0xbc7fcb41	-0.015612424
156	0x3d9d72a6	0.07687883
157	0xbdb19237	-0.086704664
158	0x3a49a63a	0.0007692311
159	0xbd37f392	-0.04491002
160	0x3c0371c4	0.008022729
161	0xbc84f42d	-0.016229713
162	0x3d7556ab	0.059897106
163	0x3d06a451	0.032871548
164	0x3ba51c13	0.005038747
165	0xbd19d34e	-0.03755503
166	0x3d983a7f	0.07433032
167	0xbd1b8257	-0.0379661
168	0x3d8a41b3	0.067508124
169	0x3c8695cb	0.016428849
170	0xbd58f538	-0.052968234
171	0x3dfe65da	0.124217704
172	0xbc1065fa	-0.008813376
173	0x3d2353a8	0.039874703
174	0x3d15898f	0.03650814
175	0xbd3c38bd	-0.045952547
176	0xbdd244cd	-0.10267029
177	0xbdcaee92	-0.09908785
178	0xbd600119	-0.054688547
179	0x3df9a44c	0.1218954
180	0xbc4480c1	-0.011993588
181	0xbcad8dd0	-0.021185786
182	0x3d823549	0.063578196
183	0xbbfd3301	-0.0077270274
184	0x3c2e7115	0.010647078
185	0x3d046c6b	0.032329958
186	0xbe0912ef	-0.13386129
187	0x3d82f882	0.06395055
188	0x3db81def	0.089900844
189	0xbe16cba3	-0.14726119
190	0x3d08a8ee	0.03336423
191	0xbc45ed05	-0.012080436
192	0x3c2ca000	0.010536194
193	0xbd2eaac0	-0.04264331
194	0xbd787050	-0.060653985
195	0xbdfaa579	-0.12238593
196	0x3d7e35ac	0.062062904
197	0xbd2a9764	-0.041648284
198	0x3d9aa1e7	0.07550412
199	0xbd9eb569	-0.07749445
200	0x3d19065e	0.037359588
201	0xbda659f2	-0.081226245
202	0x3d09db3e	0.03365635
203	0xbd8e12cf	-0.06937181
204	0xbcc6d096	-0.024269383
205	0xbd013004	-0.031539932
206	0xbd635cce	-0.055508427
207	0xbd528c38	-0.051403254
208	0xbc665705	-0.014058833
209	0xbcfa4823	-0.030551976
210	0x3d6a4d0b	0.05720238
211	0x3d731fea	0.059356607
212	0xbdde5ded	-0.10857759
213	0x3ca0f6c0	0.01964891
214	0xbc4704b4	-0.012147117
215	0x3d8b7e62	0.06811215
216	0xbd8a8e43	-0.067654155
217	0x3da8d6b7	0.082440786
218	0xbc954496	-0.01822118
219	0x3d83b468	0.06430894
220	0xbd6e087b	-0.058113556
221	0x3c4eab1c	0.012614038
222	0xbddf6079	-0.109070726
223	0xbd2aa12b	-0.041657608
224	0xbca72922	-0.020405356
225	0xbdb00163	-0.085940145
226	0x3d0676ac	0.032828018
227	0xbd88d6e6	-0.066816136
228	0xbdbc985a	-0.09208746
229	0xbbca467f	-0.0061729546
230	0x3dacb54d	0.08433018
231	0x3bb7695c	0.0055972766
232	0xbde3897f	-0.1111021
233	0xbd525917	-0.051354494
234	0xbd77a4a1	-0.060459737
235	0xbd75d9f0	-0.060022295
236	0xbd2435b0	-0.040090263
237	0xbc39943c	-0.011326846
238	0x3d768a71	0.06019062
239	0x3cc92406	0.02455331
240	0xbd949851	-0.072556145
241	0x3d258388	0.04040864
242	0x3d47503f	0.048660513
243	0xbd0dded8	-0.03463635
244	0xbd3530fb	-0.044236165
245	0xbc5642e7	-0.013077474
246	0x3cc7061c	0.024294905
247	0x3d85f983	0.06541731
248	0x3d743ed1	0.05963022
249	0xbbb297a1	-0.0054502045
250	0x3cb2d95f	0.021832166
251	0x3de2b17b	0.11069008
252	0x3e205d86	0.15660676
253	0xbc8c9110	-0.017159015
254	0xbc5f7feb	-0.013641338
255	0x3d50d69f	0.05098593

fc2.bias f4 [128]
0	0x3cad1d0d	0.021132017
1	0xbdcd40b5	-0.100221075
2	0xbda3b57b	-0.07993599
3	0xbe2e3950	-0.1701405
4	0x3d083670	0.03325504
5	0xbda521dd	-0.080630995
6	0xbda1b4ba	-0.07895799
7	0xbe2f86d9	-0.17141284
8	0x3a826d10	0.0009950716
9	0xbc775ba9	-0.015097537
10	0xbc2ac6c6	-0.010423368
11	0xbe0f26fd	-0.13979717
12	0xbdd320ce	-0.103089914
13	0xbe8e429a	-0.27785188
14	0xbe413c54	-0.1887067
15	0xbe14d664	-0.14534909
16	0xbe239d0d	-0.15977879
17	0xbe298587	-0.16554843
18	0xbe564511	-0.20924784
19	0xbe1b8e55	-0.15191014
20	0xbdd16ab5	-0.10225431
21	0xbd9f9467	-0.077919774
22	0xbd40206c	-0.04690592
23	0xbe47d9e9	-0.1951672
24	0xbe037f2d	-0.12841482
25	0xbda7f151	-0.08200324
26	0xbca2fb88	-0.01989533
27	0x3d0fd6b8	0.03511688
28	0xbda4da08	-0.08049399
29	0xbdb82a7b	-0.089924775
30	0xbd951c7b	-0.07280823
31	0xbc5c7e3b	-0.01345783
32	0xbe56f27a	-0.20990935
33	0xbdcaea48	-0.09907967
34	0xbe3c4cc8	-0.18388665
35	0x3d54a36c	0.051913664
36	0x3c400090	0.011718884
37	0xbd98fa06	-0.07469563
38	0xbd0953a1	-0.03352702
39	0xbdf5b6d2	-0.11997761
40	0xbe085960	-0.13315344
41	0xbd7a4144	-0.0610974
42	0xbd8286dc	-0.06373379
43	0xbd5c9b2a	-0.053858913
44	0xbe681cd0	-0.22667241
45	0xbe10f775	-0.14156897
46	0xbe1ee257	-0.1551603
47	0xbe0089b4	-0.1255253
48	0xbdc2d5ae	-0.095134124
49	0xbe11751a	-0.14204827
50	0xbe1c373e	-0.15255448
51	0xbddc9b28	-0.10771781
52	0xbd929fba	-0.07159372
53	0x3c9d82eb	0.019227466
54	0xbdf293f3	-0.11844625
55	0xbe2a079d	-0.16604467
56	0xbd6fbcfa	-0.05852983
57	0xbd853081	-0.06503392
58	0xbd367602	-0.044546135
59	0x3abcb74e	0.0014397891
60	0xbe2766b8	-0.16347778
61	0x3d7c6da5	0.061628003
62	0xbe5a12a4	-0.21296173
63	0xbe2df701	-0.16988756
64	0xbdf87338	-0.12131351
65	0xbd1cd3df	-0.038287994
66	0xbd6926a1	-0.056921605
67	0xbdd917d4	-0.10600248
68	0xbe02a479	-0.12758054
69	0xbd8d23c7	-0.068915896
70	0xbdff9c77	-0.12481015
71	0xbda07c4f	-0.0783621
72	0xbdbdaf1f	-0.09261917
73	0xbd77fb63	-0.060542475
74	0xbe202500	-0.15639114
75	0x3cda3051	0.026634367
76	0x3d8782f6	0.06616776
77	0xbe2d585e	-0.1692824
78	0xbdafafa2	-0.08578421
79	0xbdd941f0	-0.1060828
80	0xbe03a8b0	-0.12857318
81	0xbdfc6e92	-0.12325777
82	0xbd58ff42	-0.052977808
83	0xbe02e398	-0.12782133
84	0xbdcae274	-0.09906474
85	0xbda1a69b	-0.078931056
86	0xbd10d1e0	-0.035356402
87	0xbe04e81d	-0.12979169
88	0xbda77247	-0.081760935
89	0xbe31c1b3	-0.17359047
90	0xbd86d3b0	-0.06583345
91	0xbde05670	-0.10953987
92	0xbc756631	-0.014977978
93	0xbd67edaf	-0.056623157
94	0xbd199c98	-0.037502855
95	0xbd05cabb	-0.032664042
96	0xbe0b7a16	-0.13620791
97	0xbe1eef32	-0.15520933
98	0xbd341490	-0.043964922
99	0xbe03f4e5	-0.12886389
100	0xbc099c77	-0.0083991205
101	0xbdc70f50	-0.097197175
102	0xbc3c43e7	-0.011490799
103	0x3c6a359d	0.014295009
104	0xbd238ecf	-0.039931115
105	0xbe20dc5b	-0.15709059
106	0xbd7f74f1	-0.062367383
107	0xbd835fac	-0.06414732
108	0xbaf487f5	-0.0018656241
109	0xbe18b0ef	-0.14911245
110	0xbe02498e	-0.12723371
111	0x3bd1aac7	0.006398532
112	0x3b99dadb	0.004695279
113	0x3cabb55a	0.020960499
114	0xbde191cb	-0.11014136
115	0xbe0f01b7	-0.13965498
116	0xbe16eea2	-0.14739469
117	0xbe2741af	-0.1633365
118	0xbdfdc9e1	-0.12392021
119	0xbd322448	-0.04349163
120	0xbda82ccb	-0.082116686
121	0xbe413f28	-0.18871748
122	0xbe4ef190	-0.20209336
123	0xbdec2932	-0.11531295
124	0xbe03e885	-0.12881668
125	0x3c221594	0.00989284
126	0xbdd72865	-0.105057515
127	0xbc92a169	-0.017899232
