checkpoint_critic_0.pth (torch, 191428 bytes, 9 tensors)

bn1.weight f4 [256]
00000000: fb70 713f fe4e 303f e104 463f 1ab0 353f
00000010: 78d0 983f b850 533f 4971 7f3f 2473 6a3f
00000020: 25bd 503f 892c 5a3f 4c77 813f 72c8 8b3f
00000030: 6508 593f eb94 573f d1b4 693f 41e0 873f
00000040: c5a8 443f 1f38 603f 3332 5a3f 5d9d 5f3f
00000050: 4528 6f3f f56b 3f3f fd2c 873f 1603 5d3f
00000060: 7dfb 4c3f d222 5e3f 3a51 423f a2e7 613f
00000070: b2bb 423f 8dc9 563f 140f 6d3f 92c6 2e3f
00000080: 4b46 533f ff6c 523f 17aa 513f b9f9 6d3f
00000090: 8b39 5e3f 3f9c 443f 1f12 503f 1b86 543f
000000a0: 55d8 543f c717 a33f c950 483f 4679 4a3f
000000b0: c97a 503f fc1c 673f 2f0b 573f 0c15 743f
000000c0: 58b1 713f 2800 523f 16f9 593f d198 5a3f
000000d0: 4eac 5e3f 0931 483f 46a4 803f 6683 513f
000000e0: 84e9 583f 3fc5 913f 6fea a23f 4fa5 613f
000000f0: 2a01 613f 8d01 4f3f 8347 473f 0541 4e3f
00000100: ba4f 583f ebd5 513f b466 553f 73cf 573f
00000110: 0220 473f 1b0a 4c3f 76d5 643f 0178 5e3f
00000120: b88b 563f 5a23 7f3f 01e4 583f e161 673f
00000130: f4e1 2e3f 1963 583f 9be0 463f 9eb9 5b3f
00000140: 0d05 5f3f 1e5a a03f b92a 503f c42f 503f
00000150: 0f09 533f d2f4 5b3f 4517 893f bdfc 5d3f
00000160: 8ea6 5f3f c24b 483f 43c1 813f dd6a 883f
00000170: 0f19 733f d223 4a3f 7718 793f 74e8 713f
00000180: ca13 653f 1073 563f ab02 5e3f 04d0 493f
00000190: 0798 533f 6c99 653f 02c8 5a3f 7224 6b3f
000001a0: 905c 583f 4a4b 5c3f 4f85 5a3f 9bd1 683f
000001b0: d158 5d3f 085c 503f cc51 0d3f db58 903f
000001c0: 83cc 2e3f 4829 4d3f b65f 843f 2058 4f3f
000001d0: 0ebd 4c3f f7ce 4f3f c476 403f 26f8 953f
000001e0: 84bd 4b3f 8f14 483f cc24 443f 3db5 4e3f
000001f0: 37b9 363f 8468 5c3f 8de9 473f 19a0 713f
00000200: 77e4 733f 77ef 4c3f 5a33 623f ae87 393f
00000210: 5a00 6f3f cdc0 493f 4850 5d3f a032 493f
00000220: 388a 5b3f fabd 5d3f 8a9e 553f d25c 4c3f
00000230: 4259 a03f 2ae8 483f b4f5 883f f69c 7b3f
00000240: f426 8d3f 9b73 5d3f 0b5c 703f 6dcd 583f
00000250: a71d 733f 6669 573f 7fdb 573f 415e 5c3f
00000260: de70 693f cc97 533f d628 393f feca 863f
00000270: 56ef 5b3f e08d 4f3f 5e6b 583f f32c 4b3f
00000280: 0f3a 7c3f a575 3a3f 29d4 813f 32c1 523f
00000290: 7fbc 5a3f e4e7 453f 8d86 913f 30a8 393f
000002a0: 0dd5 573f 4fa8 523f 8e1b 3d3f 101b 543f
000002b0: a7ca 603f e925 453f 9a9c 4f3f 189e 4d3f
000002c0: b6a8 913f a948 593f cc9a 7a3f 4107 4b3f
000002d0: 78a2 4c3f 7a45 613f 6824 513f 77ba 553f
000002e0: bc82 513f e0ac 4c3f f3a8 5e3f a327 573f
000002f0: d326 563f 98e4 353f e08a 7a3f 94b0 503f
00000300: 83d8 4e3f f5c0 4c3f 02aa 453f f0bb 533f
00000310: c044 4d3f 71ac 4f3f cc7f 683f d6c1 433f
00000320: 90d9 673f 3e00 8d3f 3d5e 553f 57fd 823f
00000330: 7eda 3f3f a0c7 383f 6e75 4c3f 5dd6 463f
00000340: 1e73 693f b355 3d3f 2cdd 563f b0e0 1e3f
00000350: 8b59 633f 08bf 453f 396b 503f b4a4 5c3f
00000360: 054d 603f edff 453f 35a2 4e3f 46b4 863f
00000370: 1179 803f accc 4b3f 2d3b 603f ce34 7c3f
00000380: 0be9 513f 37a6 443f b094 793f 8000 9d3f
00000390: 0744 5f3f e856 3c3f 9b06 393f 32b6 763f
000003a0: e31f 6e3f d873 9f3f 8163 493f ba16 623f
000003b0: ec68 743f 7d2f 563f 6d52 583f 9583 533f
000003c0: 136b 633f f742 373f 0b35 5d3f 5ebf 573f
000003d0: 89a4 313f eaea 503f 2fba 693f 113c 4c3f
000003e0: f36a 4f3f ca81 493f 2f2e 693f d52f 493f
000003f0: ec88 643f 7bbc 2f3f cacb 4f3f d1b5 493f
0.9431302 0.6887053 0.77351195 0.70971835 1.193862 0.8254504 0.99782234 0.9158194
0.8153861 0.85224205 1.0114532 1.0920546 0.84778434 0.84211606 0.9129153 1.0615312
0.7682002 0.87585634 0.8523285 0.8734949 0.9342082 0.74774104 1.0560604 0.86332834
0.8007124 0.8677188 0.7590519 0.8824407 0.7606765 0.8390129 0.9260113 0.68271744
0.82529134 0.82197565 0.8190016 0.9295917 0.86806554 0.7680091 0.8127765 0.8301713
0.83142596 1.2741631 0.7824827 0.790913 0.81437355 0.902786 0.8400144 0.95344615
0.9441123 0.8203149 0.851457 0.8538943 0.86981666 0.7819982 1.0050132 0.81841123
0.84731317 1.138832 1.2727793 0.88142866 0.878924 0.8086174 0.77843493 0.8056796
0.84496653 0.8196704 0.8335984 0.8430092 0.77783215 0.7970292 0.89388216 0.8690186
0.83806944 0.9966332 0.84722906 0.90383726 0.6831353 0.8452621 0.7768647 0.85830104
0.8711708 1.2527502 0.8131519 0.81322885 0.824357 0.8592044 1.0710226 0.86713773
0.8736352 0.782406 1.0137104 1.0657612 0.9496011 0.7896091 0.97302955 0.9449532
0.8948332 0.8376932 0.8672282 0.7883303 0.8265385 0.8968723 0.8546144 0.91852486
0.8451624 0.8605238 0.8535966 0.9094483 0.8646365 0.8139043 0.5520294 1.1277117
0.6828081 0.80141115 1.0341709 0.80993843 0.79975975 0.8117518 0.7518122 1.1716354
0.7958605 0.7815637 0.7661865 0.807453 0.71376365 0.8609698 0.78090745 0.94384915
0.95270485 0.80052894 0.88359606 0.72472656 0.9335991 0.78809816 0.86450624 0.7859287
0.8575778 0.86618006 0.83445036 0.7982913 1.2527239 0.78479254 1.0699983 0.9828638
1.1027513 0.86504525 0.93890446 0.84688455 0.9496712 0.841452 0.843193 0.8608132
0.91187847 0.826535 0.72327936 1.0530698 0.8591207 0.8107586 0.8453883 0.7936546
0.9852609 0.7283576 1.0142871 0.8232604 0.8544387 0.7730696 1.1369187 0.7252226
0.84309465 0.8228807 0.7387017 0.82853794 0.8780922 0.7701097 0.8109833 0.80319357
1.1379611 0.84876496 0.9789245 0.79307944 0.7993541 0.8799664 0.81696177 0.8348765
0.8184011 0.79951286 0.86976546 0.84044856 0.8365299 0.7105193 0.97868156 0.81519437
0.8079912 0.7998193 0.77212536 0.82708645 0.8018303 0.811225 0.9082 0.76467645
0.9056635 1.1015699 0.8334692 1.0233563 0.7494277 0.72179604 0.79866683 0.7767084
0.9119128 0.7395889 0.8393123 0.62061596 0.88808507 0.77244616 0.8141361 0.8618882
0.8761752 0.77343637 0.8071626 1.0523765 1.0036947 0.7960918 0.87590295 0.98518074
0.8199622 0.76816124 0.97492504 1.2265778 0.87213176 0.7357011 0.72275704 0.9637176
0.93017405 1.2457228 0.78667456 0.8831593 0.954726 0.8366621 0.8450077 0.82622653
0.8883526 0.71586555 0.8640906 0.8427638 0.69391686 0.8160845 0.9129972 0.79779154
0.81022567 0.7871367 0.91086096 0.7858861 0.89271426 0.68646973 0.8117033 0.78793055

bn1.bias f4 [256]
00000000: f32d ab3e 0bec 673d 6164 283e 84fd 29be
00000010: d74b 763d 0112 e8bb 45a1 bb3e dace e73d
00000020: 84c1 a3bd e420 6d3e 141c 363e 4f9e 343e
00000030: 107b 3dbe 3507 a03e fe29 263e cf0c 4b3e
00000040: a31a dd3d e138 603e f049 43be 6e99 a93d
00000050: 29c9 203e 92b2 013e ea3b 8cbd 0b3b ad3d
00000060: 1c4d 7a3e b97d 33be 6f0e 59be 3e13 913e
00000070: a973 603d 9764 093e 31fe ed3d b751 cd3c
00000080: 2257 ae3e 35c3 db3d 9dd3 a7bd 244c 833e
00000090: fdee 123e 6073 00be f82d a8bd 77ea 20be
000000a0: db4d 083e dc49 973e 6b55 0cbd dcc0 4abd
000000b0: 92c4 c3bd 2cff 52bc c20e 6c3e ddb8 993e
000000c0: 151f 323e 4439 0c3c 1ca5 44bb 86ba 6ebe
000000d0: e925 0b3e 1503 363e 5abd 453e 505e 763e
000000e0: fe67 e03e 779f 9e3e 1c95 f83d 734c 563d
000000f0: b3de 5d3e 179d 69bd 8b5e f7bd 3c42 5bbd
00000100: 4e6b 823c e93c cbbd e7a2 083e 77b2 afbc
00000110: b882 d8bd cc5d b93c 7717 3dbe 95e9 bc3d
00000120: 7b14 673e 91e6 d7bd e803 843d d43d 3abe
00000130: 364e 213e 5596 153e a614 713e db6a 0c3d
00000140: c8c1 ad3d 9723 a33d d545 35be 9bea f7bc
00000150: 688b a7bc d922 8dbd bb66 0b3e fba9 4dbe
00000160: de07 013e e559 783e 89e5 2e3e a2f2 31be
00000170: f02c 033e dc4e 633e c450 96bd e104 20be
00000180: 0ddd 43be 67eb ad3d d657 013e d639 323e
00000190: 5c8a 413d 5c58 4c3e 1fef 8ebd 7ab8 543d
000001a0: 1e42 793e bd17 2f3e aaef 1cbe c86f 253e
000001b0: a1c6 b2be df1e 0d3e ed88 13be a158 883e
000001c0: 899c 5bbc 7ff7 edbd e9e1 453e 6296 d73d
000001d0: 6507 96be bdcb 06be 2db0 c8bc e849 ac3e
000001e0: 634d 36be 33cb d83d a927 74be 46a1 ec3d
000001f0: 49dc 2bbe 947c d13d 6fb2 54be 70b8 a83e
00000200: b4f9 933d 5717 0fbe 1436 21be 62b7 a7be
00000210: 38a0 6d3d a94a f93c cb25 9f3d 854f 31be
00000220: e2e3 0ebe 7e1b c43d 70c5 9c3d ae63 103e
00000230: c711 843c 9b9c 873e a68e 883e b095 3b3e
00000240: e790 563e 1f33 96bc aee5 19bd f6b4 5d3d
00000250: abc0 78be 3761 6abc 00de 9cbd b3ed 493e
00000260: 5ddf 953e 4336 393e 99a5 cfbb 999b 633e
00000270: 6588 be3d c5d5 8dbe 672b 0a3e f1c7 6f3e
00000280: d31c 4d3e 6c43 79bb cca7 1c3e 8fef 41be
00000290: 3e79 44bd 19ca abbd da9b ad3d ea0a 3fbc
000002a0: 2546 adbc 9082 6f3d fca9 4aba f422 77be
000002b0: 1b65 6d3e c096 b23d 570e b5bd 835d f1bb
000002c0: eafc 04bb 97a0 693e 4cd8 463e 6d55 563c
000002d0: f6ad 12bd 59b7 3a3d 6430 a13c 1617 873e
000002e0: d520 e2bd dc2f 29be 5878 9e3d 53ae 903e
000002f0: 00d2 23be 0ed7 4d3d 74a4 a43e 5364 163e
00000300: eeca 213e 56ee 213e 79c2 b0bd 128a 4cbe
00000310: 606a 00be 8385 68bc 5c88 633e 4bba 033e
00000320: bf0f 8b3e 09d7 573e 7ac5 573d 1364 98bd
00000330: 3295 183e 5635 42be 712c 4d3d 39f6 8a3e
00000340: cb26 6f3e 3f72 c23d 6ac3 f9bd 2213 7cbd
00000350: f9c1 4a3e 2cb0 3c3e a84b 23be d389 23be
00000360: 4969 363e 7e0f 90be 64f2 9f3e 6221 463e
00000370: dbc6 a7bd e785 93bd 264b 84be 3dc3 09be
00000380: f4ca a5bd 19b5 23bd a2a9 383e 401e 7d3e
00000390: 0ece c63e 413d 163e c400 c1bd c7a1 003d
000003a0: e973 f43d 254a 5d3d 2b97 7abd a4ec 5a3e
000003b0: 4287 0b3e 1c5d 943d a3fe 05be 0cb5 34be
000003c0: 0d7a 6abd 5c7f b53d 8ec1 6dbb 5d57 0a3c
000003d0: a954 223e b4df 54be aaec 87bd a998 693e
000003e0: c231 753d 3bec f7bd 4b12 873e cc24 81be
000003f0: b047 3c3e 5caa 8cbd 54a9 c9bd 8ca5 83bd
0.33433494 0.056621592 0.16444542 -0.16600615 0.06013092 -0.0070822244 0.36646476 0.11318751
-0.079958946 0.23157078 0.17784148 0.17638515 -0.18503976 0.312555 0.16226956 0.19829105
0.10796096 0.21896698 -0.19071174 0.082812175 0.15701737 0.12665775 -0.06847365 0.08458527
0.24443477 -0.17528428 -0.21196912 0.28334993 0.054797802 0.13417278 0.11620749 0.025063379
0.34050852 0.10730592 -0.08194659 0.25644028 0.1434898 -0.12544012 -0.08211893 -0.15714441
0.1331095 0.29548538 -0.03426115 -0.04950033 -0.09558977 -0.0128782205 0.23052505 0.30023852
0.1739467 0.008558575 -0.003000564 -0.2331334 0.1358868 0.17774613 0.19310513 0.24059415
0.4382934 0.30981037 0.12137815 0.052319 0.21666984 -0.05703458 -0.120785795 -0.053529963
0.015920307 -0.09923727 0.13343392 -0.021447403 -0.105718076 0.022627734 -0.18465982 0.0922424
0.22566406 -0.10542024 0.064460576 -0.18187648 0.15752491 0.14608128 0.23543033 0.034281593
0.084842265 0.079657726 -0.1770242 -0.030263236 -0.020452216 -0.06891412 0.13613407 -0.20084374
0.12600657 0.24253042 0.17079748 -0.17377713 0.12810111 0.22198051 -0.073396236 -0.15626861
-0.19127293 0.08492165 0.12631163 0.17404875 0.04725109 0.19955581 -0.069792025 0.051933743
0.24341628 0.17098899 -0.153258 0.16155922 -0.34917167 0.13781308 -0.14407702 0.26630118
-0.01340402 -0.11619472 0.19324459 0.1052673 -0.29302517 -0.13163657 -0.02449807 0.33650136
-0.17802958 0.10585632 -0.23843254 0.11554198 -0.16783251 0.102288395 -0.20771192 0.32953215
0.072253615 -0.13973747 -0.15743285 -0.32757097 0.058014125 0.030431109 0.0777088 -0.1731549
-0.13954118 0.09575556 0.07654846 0.14100525 0.016121758 0.26486668 0.26671332 0.1831882
0.20953713 -0.018334923 -0.037572555 0.054127656 -0.24292247 -0.014305404 -0.07659531 0.19719581
0.29271975 0.18087105 -0.0063368795 0.22227325 0.09303359 -0.27702156 0.13493119 0.23416115
0.20030527 -0.0038034571 0.15298384 -0.1893904 -0.047967188 -0.083881564 0.08476992 -0.011660317
-0.021151612 0.058474123 -0.0007731018 -0.24134427 0.231831 0.087201595 -0.08840626 -0.007365884
-0.002029235 0.22815166 0.19418448 0.0130818905 -0.035810433 0.04558501 0.019676395 0.263848
-0.110414185 -0.16522163 0.077377975 0.28258 -0.15998077 0.05025392 0.32156718 0.14686708
0.15800068 0.15813574 -0.08630843 -0.19974545 -0.12540579 -0.014191988 0.22219986 0.12864034
0.2716045 0.21078123 0.052678563 -0.07440963 0.14900663 -0.18965659 0.05009121 0.27140978
0.23354642 0.09494447 -0.121954754 -0.061541684 0.19800557 0.18426579 -0.1594683 -0.15970545
0.178136 -0.2813682 0.31239617 0.19348672 -0.081922255 -0.07203274 -0.25838584 -0.13453384
-0.08095351 -0.03996763 0.1803346 0.2471857 0.38829082 0.14671804 -0.09423974 0.031404283
0.119361706 0.054025788 -0.06117932 0.21379334 0.13625816 0.07244322 -0.13085417 -0.17647189
-0.057245303 0.088621825 -0.0036278698 0.008443681 0.15852608 -0.20788461 -0.06636937 0.22812141
0.059861906 -0.12105604 0.26381144 -0.25223386 0.18386722 -0.06868431 -0.0984675 -0.0642806

bn1.running_mean f4 [256]
00000000: c125 603e 3960 b23e 1891 9a3f d5d3 d53d
00000010: e360 f83e 0347 dd3e 323a 3f40 4a75 c03f
00000020: 6ec7 533f a5ca 4840 64c4 7c40 00fe 4440
00000030: 4af7 7340 6936 5940 6033 713e 0e02 2f40
00000040: 3263 3d3f 8ae3 a13f 778c 3e3f de46 913f
00000050: f15d 9c3f d203 7d3f 30e7 2940 9770 1440
00000060: ab4e 3e3f 6843 2d3f 5b0f 0e3f 3132 9a3e
00000070: c8c0 da3e 52e6 ae3f b667 4640 7eb4 763e
00000080: 3ce6 d13f 0033 873f 48b2 693f 7421 b63f
00000090: 6e3d 0b40 83e5 813f a2c2 cf3f f856 b73f
000000a0: b54c 9d3f 76a8 063d 4648 e13e c58f 6f3e
000000b0: b0b1 b03f 1417 4b40 ac4a 183e 22b3 4840
000000c0: 4040 6b3e 26e3 803f 14ea 1440 2c33 4e3f
000000d0: 40f4 b23e 0d04 603e fd34 3340 29bf de3f
000000e0: 65c0 ce3f da47 bb3e 2cbf a83f 77e0 3c40
000000f0: f336 9a3d 0e55 013f cedd 2d40 c8d8 cd3f
00000100: c732 0340 3adf c03f c027 eb3f c471 a73e
00000110: c3a1 493e 4c72 363f 27be 973f b478 263f
00000120: f634 733f 9da3 ca3f 57bc be3f 97bb 8b3f
00000130: 39ac 1b3f 5016 2340 3089 2140 154d b83f
00000140: e9aa a83f db02 a140 38ac 8040 5cda c73e
00000150: 9a09 a93f a7ce 063e 464f 1c3f 0f5c 8440
00000160: 0664 0c40 bc60 c53f 9c17 393f 10ad 6440
00000170: f50d 453f f4d6 4d40 d831 103f f6d4 1e40
00000180: 06e0 203f 3a0f 883f d68e e13e 2edf 443e
00000190: 2646 c83e ffee 383e 6bce 0f3f dd1a 983f
000001a0: 372f 6c3f 8b19 1040 a57a 853f e455 3740
000001b0: 94af e43d 36fe 183f ac2b 4c3d e538 e93e
000001c0: 3fed 663d e743 b03f b14d f93b 252d 3840
000001d0: ce77 0e3f 5822 b43f c63f b93f e563 783f
000001e0: 4b88 fb3f 7036 743f 0eb8 633f 587b de3f
000001f0: d207 2e3f 1484 1340 f19d b73f e3dd 0f3e
00000200: 3517 f93e d6a3 8340 727e fb3e 982a c53f
00000210: 9848 5d3f 5501 1b40 66f4 da3f b4fe 1340
00000220: 656e 0040 c0df 2f3f 58c8 8e3f 6b3b 513f
00000230: 474a 933f e037 143f 112b 6d3d 93c3 f43e
00000240: cd4d 263f 5aa4 2640 95f6 413e 463e 2c3f
00000250: 88f8 643e 969b 3240 af9d 903f 535c c53e
00000260: 84d2 6e3f 0be1 2a40 5a9a af3e 2d2e cf3e
00000270: 5500 f23e d0ad f93f df92 683f 6b6f a73e
00000280: aa2e 1d40 a42f f33e 7940 753f eaf3 e93f
00000290: 7b6a 9f3e 07c6 cd3f 447a 3f40 82cc fa3d
000002a0: f6a8 ec3e fed6 9940 f27f 8c3f b4d4 0e40
000002b0: f498 bd3f 137b a23f f91c b13f cd90 e73d
000002c0: 8d2d 353e ecd5 c23f 21a1 863e cd91 c23e
000002d0: 6b26 a53f 00f9 3d3e 52f7 283f 36e4 7e3f
000002e0: 6913 063f 0e86 fa3f e67c 243f 9470 bb3f
000002f0: 703d 833e efa1 3d3e 473b 923f aaaa ea3f
00000300: c3b8 ae3f 0376 213e 0f58 993f e494 943f
00000310: 65c2 c43f 67ee 593f 50f8 0140 43a5 c63f
00000320: cbd2 1a3e 39fd cc3f 9c49 283f f145 b63c
00000330: 6bcc 993f 4b4a 473f 964c 813f 1fd1 7b3f
00000340: 0210 3d3f c26a 8e3f 8460 6a3f 01d2 163f
00000350: 8c1d cb3f e968 2e40 759e d03f 3132 1b40
00000360: 68a8 0a3f be95 573f 1d70 cc3f ab51 5640
00000370: 24c9 093f 4a21 de3e b23f 0340 7005 9340
00000380: 625b 193f 04cf db3f 94c9 503f 149b 353e
00000390: 5a74 a03f feae 173e 22dc d53e 2ae8 7940
000003a0: 8657 fd3d 5b6a b440 b10d 4740 8cc4 c13f
000003b0: e83b 5f3f 707e ba3f a7c3 1e40 32ac 783e
000003c0: 3d95 6d3f 5eec bd3e f811 4840 04ee 6f3f
000003d0: c440 733e 8cb8 4d3c abf2 8340 63bf b83c
000003e0: 399f 893f d73e c73f 755a a33e ae25 f03f
000003f0: bc7b 633f 3681 9d3e b939 523f 0d47 ec3f
0.21889402 0.34839037 1.2075529 0.104407944 0.4851142 0.4321824 2.987927 1.5035794
0.8272618 3.1373684 3.9494867 3.078003 3.8119683 3.393946 0.23554754 2.7345004
0.73979485 1.2647564 0.7443308 1.1349752 1.2216169 0.98833954 2.6547356 2.319372
0.7433879 0.6768098 0.5549218 0.30116418 0.42725205 1.3664038 3.10008 0.2409229
1.6398387 1.0562439 0.9128766 1.4228959 2.1756244 1.0148166 1.6231272 1.4323416
1.2289034 0.0328755 0.44000453 0.23394687 1.3804226 3.1732836 0.14872235 3.1359334
0.22973728 1.006932 2.326787 0.8054683 0.34951973 0.21876545 2.8001091 1.7402087
1.6152464 0.36578256 1.3183341 2.9512002 0.07530012 0.5052041 2.716663 1.6081781
2.0499742 1.5068123 1.8371506 0.32703984 0.19690613 0.71268153 1.1854905 0.6502793
0.95002687 1.5831181 1.4901227 1.0916623 0.60809666 2.5482368 2.5239983 1.4398524
1.3177158 5.0315986 4.021023 0.39033782 1.3206055 0.13164769 0.6105846 4.1362376
2.193605 1.5420146 0.7230165 3.573063 0.7697442 3.2162447 0.56326056 2.481748
0.6284183 1.0629647 0.44054288 0.19225761 0.3911602 0.1805992 0.56174344 1.1883198
0.92259544 2.251559 1.0428053 2.8646173 0.11166301 0.59762895 0.049846336 0.4555122
0.0563786 1.3770722 0.0076081385 2.8777554 0.5565156 1.4072981 1.4472587 0.97027427
1.9650968 0.95395565 0.8895272 1.7381392 0.6798068 2.3049364 1.4345075 0.14049487
0.48650518 4.1137495 0.49119908 1.5403624 0.86438894 2.4219563 1.7105834 2.3124208
2.006738 0.6870079 1.115489 0.8173129 1.1507043 0.5789776 0.0579024 0.4780546
0.64962465 2.6037812 0.1894172 0.6728252 0.22360432 2.7907462 1.1298121 0.38547
0.9328997 2.6699855 0.34297448 0.40464917 0.47265878 1.9506168 0.9084911 0.32702193
2.4559731 0.47497284 0.958015 1.8277562 0.31135926 1.6076058 2.9918375 0.12246038
0.46222657 4.807494 1.0976546 2.2317324 1.4812303 1.2693809 1.3836967 0.113069154
0.17693157 1.5221534 0.26294807 0.38001862 1.2902349 0.18552017 0.6600238 0.9956697
0.5237337 1.957216 0.6425308 1.4643731 0.2563281 0.18518804 1.142434 1.8333333
1.3650135 0.15767674 1.1979998 1.1607938 1.5371825 0.851294 2.0307808 1.5519184
0.15119474 1.6014777 0.6573732 0.022250148 1.2015508 0.7784774 1.0101497 0.9836597
0.7385255 1.112633 0.9155352 0.5891419 1.5868392 2.7251532 1.6298357 2.4249384
0.5416322 0.84212863 1.5971714 3.3487346 0.5382254 0.43384773 2.0507627 4.5944138
0.59905064 1.7172551 0.81557584 0.17734939 1.2535508 0.14812848 0.4176951 3.9047952
0.123702094 5.637983 3.1102107 1.5138106 0.87200785 1.4569836 2.4806917 0.24284437
0.92805845 0.37094396 3.1260967 0.9372256 0.23755175 0.012556206 4.1233726 0.022552198
1.0751716 1.5566052 0.3190495 1.8761499 0.8886068 0.30762643 0.8211933 1.8459183

bn1.running_var f4 [256]
00000000: e869 423e eb97 8f3f fc56 2040 b8ca d93d
00000010: f714 c93e 3096 a03f 54a8 7641 a283 7840
00000020: bf16 2340 e6fb a240 bd80 c941 caff 8541
00000030: 6b53 fd40 ffff 0d41 9afe f33e cf52 9f3f
00000040: 748c 1140 d10e 3240 220c 993f cd56 8040
00000050: 9ac0 3440 b02e 7740 f6e4 0e41 e3b2 c640
00000060: b0ba d13f 7e5b c93f e11d 0240 430b 123f
00000070: a09d d43f 2668 e240 30d9 3440 8641 3f3f
00000080: f870 7240 efc8 1e40 8b88 3c40 f807 5540
00000090: cf62 6040 1084 0c40 57bc f53f 4475 4d40
000000a0: 3009 ea3f 4b1c 7e3d 335d a83f a44c f63e
000000b0: 5206 ea40 299d b340 6140 563e ec2c 2740
000000c0: edd0 083e b87d 1340 83eb f93f 7d37 2540
000000d0: 0771 333f 89f8 373f f928 3941 edd6 cc40
000000e0: 6869 1640 68b5 0a3e d3ff 8e40 dd1e bf40
000000f0: 4698 4f3e ec6a 973f 293c 1041 7cfe 6940
00000100: 860d aa40 d1b1 fc3f 5505 9940 d193 ab3e
00000110: 2f28 bb3e 7c04 6f40 8d75 4740 e78d 3940
00000120: 0661 3440 1744 bd40 9ec4 8e40 65c6 6640
00000130: 3f7a a43f 282a c740 b49e d940 10fa bf40
00000140: 8500 1a40 368a 1842 f115 9f40 8faf 8d3f
00000150: 1fb7 6940 cab8 683e d3e0 a73f 4419 b640
00000160: f89d b840 805d 2740 af94 f53f f24b a341
00000170: 0617 853f 3afa 5140 a210 453f 9f82 8f40
00000180: d216 b33f 5e55 0640 2164 7e3f 3c52 f13e
00000190: 8c9f b73f 4264 aa3e f6a0 b73f 9cb3 1340
000001a0: 30ac 3440 da9a 9340 2f0c 5340 65f6 c640
000001b0: 8b4c 1c3e babb a43f 11ba d93d c24f 163f
000001c0: c182 e33d 608f 6a40 3211 4e3c d1ff 6540
000001d0: ba46 1840 21e1 6040 d2a8 b740 3b9d fb3e
000001e0: 16de 0441 28de 7740 ef12 fa3f d19d 7940
000001f0: 7c9b 1640 9166 1f41 96d6 8740 dab0 a73e
00000200: 50ef 313f 0ed6 bc40 209e f23f fba0 7e40
00000210: 0d6c d83f f15d 9840 737a 5440 f903 de40
00000220: 5f5f 2d41 74cf fe3f e8ef 4640 6184 d43f
00000230: ceb5 d23e 51a3 fe3f b9db 853d 2de3 563f
00000240: 8051 113f 83d8 7840 a472 643e 187f 0b40
00000250: db80 bb3e 0371 b340 5b2e 8040 d5e6 103f
00000260: b38e 1940 9b8d 0841 7bb7 5f3f e7a3 343f
00000270: 6181 e33f ad0b ba40 e640 0c40 a429 8d3f
00000280: a9ba 1141 35d1 873f cde3 2240 340e 7540
00000290: c39d 2d3f 664a 9a40 9fe1 8f41 c9bb 3e3e
000002a0: c371 a93f aae9 dc40 1b71 2540 e94d 5641
000002b0: 5c53 c03f 37aa 6440 ef1e a940 c0bf fe3d
000002c0: 3625 793e 3185 fd3f 7c22 003f f104 383f
000002d0: 1189 7440 0d2c c03e f771 b23f d938 2f40
000002e0: cdaf b63f 45ad 9440 a760 043f 7087 3140
000002f0: 83d6 e33e ab3f 1e3f d355 4740 3190 9140
00000300: 0f44 9b40 7705 bd3e 8e24 7c40 d452 5340
00000310: 5173 6840 f187 0840 ec72 7840 2df9 9140
00000320: 9cc6 473e 56f7 0340 0459 863f 70ed 403d
00000330: 88e6 8840 6894 de3f f281 0f40 84ec 5e40
00000340: a57f d53f f2b5 4140 c826 f43f 60bc c23f
00000350: 15bc 9040 2800 ab40 f6ce 6e40 3bb7 ed40
00000360: 8471 573f 766f 1d40 12fc 6e40 c366 9d41
00000370: 4a6f ba3f b859 493f bb46 9a40 9443 0242
00000380: 1f30 e13f 1982 dc40 78d0 ec3f 39da cb3e
00000390: d190 5b40 4fbc b03e 562d 793f fbfd 8640
000003a0: c0b1 983e aa35 7642 caf9 8c40 26de 8240
000003b0: 6f74 c93f a4a0 ad40 1c6d d240 6272 d43e
000003c0: 59b4 4b3f 3bb5 803f 91ea 8140 1070 3640
000003d0: 22c6 643f f088 7f3c e12e c540 46a7 0a3d
000003e0: f4d9 6d40 b368 9a40 c2d7 b83e e9b3 c640
000003f0: dc3a 0a40 f436 463f 13ce 3940 a7fb 7140
0.18985713 1.1218237 2.505309 0.10634369 0.39273807 1.2545834 15.416096 3.8830342
2.5482633 5.0932493 25.18786 16.749897 7.916433 8.874999 0.47655183 1.2447146
2.2741976 2.7821543 1.1956828 4.010596 2.8242555 3.8622246 8.930899 6.2093368
1.6385098 1.5731046 2.0330737 0.57048434 1.6610603 7.0752134 2.825756 0.74709356
3.788145 2.481014 2.945834 3.3286114 3.5060308 2.1955605 1.9198102 3.2102823
1.8284054 0.0620387 1.3153442 0.48105347 7.3132715 5.6129346 0.20922996 2.6121168
0.13360949 2.3045483 1.9524997 2.5815117 0.7009434 0.7186361 11.572503 6.401236
2.3501835 0.13545763 4.4687285 5.9725175 0.20272931 1.1829505 9.014688 3.6561575
5.314151 1.9741765 4.781901 0.33511212 0.36554095 3.7346487 3.1165497 2.899286
2.8184218 5.9145617 4.461501 3.605859 1.2849807 6.223896 6.800623 5.999275
2.4062817 38.13497 4.9714284 1.1069201 3.6518018 0.22726741 1.3115486 5.690584
5.7692833 2.6150818 1.9186 20.412083 1.0397651 3.2808976 0.76978505 4.484695
1.3991339 2.0989604 0.99371535 0.47133052 1.4345565 0.33279616 1.4345996 2.3078375
2.8230095 4.612653 3.2976186 6.2175775 0.15263574 1.286979 0.106311925 0.5871545
0.11108924 3.665001 0.012577342 3.5937388 2.3793168 3.5137408 5.739358 0.49143395
8.30422 3.8729343 1.9537028 3.9002573 2.35324 9.962541 4.2449446 0.32752115
0.69505787 5.9011297 1.8954506 3.9785755 1.6907974 4.7614675 3.3199737 6.937985
10.835784 1.990706 3.1083927 1.6602899 0.4115433 1.989359 0.065360494 0.8394039
0.56764984 3.8882148 0.22309357 2.1796322 0.36621746 5.6075454 4.0056586 0.5660222
2.3993347 8.534572 0.87389344 0.70562595 1.7773858 5.8139253 2.191461 1.1028333
9.108071 1.061072 2.5451539 3.828992 0.6781885 4.821582 17.985167 0.18626322
1.3237842 6.9035234 2.5850284 13.394021 1.5025439 3.572889 5.285026 0.12438917
0.24330601 1.9806272 0.5005262 0.7188254 3.8208659 0.37533608 1.3941029 2.7378447
1.42724 4.646151 0.5170998 2.7738914 0.44499597 0.618159 3.1146133 4.5488515
4.852058 0.36918232 3.9397311 3.3019304 3.6320384 2.1332972 3.8820143 4.561667
0.19509357 2.0619712 1.0495915 0.047101438 4.278141 1.738904 2.2423062 3.4831858
1.6679579 3.02673 1.9074335 1.5213737 4.522959 5.343769 3.731382 7.428617
0.84157586 2.459928 3.7341352 19.675177 1.4565213 0.78652525 4.821134 32.565994
1.759281 6.890881 1.850112 0.39814928 3.430714 0.34518668 0.973348 4.2185035
0.29823112 61.552406 4.405492 4.0896177 1.5738658 5.4258595 6.575819 0.41493517
0.79572064 1.0055307 4.0598836 2.8505898 0.89364827 0.015596613 6.1619725 0.03385093
3.7164278 4.8252807 0.3610211 6.2094617 2.1598425 0.774276 2.9032028 3.7809846

fcs1.weight f4 [256, 48]
00000000: 02a8 153c 1c12 ae3d 8ac9 0e3c bc38 7abb
00000010: a682 9bbd 8e11 623e ecb6 5ebc 67e9 7cbb
00000020: f595 003d f195 013e b702 d5bc 1aee 2a3d
00000030: 17c6 86bd 24c4 a7bc 3b30 ad3c 5e72 f0bb
00000040: efa4 86bd 9dff 103e fd2b 51bd 174d 023d
00000050: 4e0e ac3d 5e69 a1be 993c 513d 6dca 123e
00000060: fd78 21ba a7b1 a43d 0a3e adbb 0b92 d9bc
00000070: d782 31bc d075 2b3e 22ba 073c 1758 f43c
00000080: dfa2 64bb 3075 cd3d fa09 613a 16a3 d53c
00000090: bd99 8b3d 4050 e7bc ae27 12bb 94af c3bc
000000a0: 48a2 56bc 6a6d 85bc d9d0 be3c b0b6 98bc
000000b0: 3c95 97bd 6133 7cbe 4bc2 afbc 3429 633d
000000c0: 865a 0c3e 98c0 1fbe 6e68 5abc f3f9 fcbc
000000d0: 4d17 9ebb 02f6 9bbd 5ada 173c 329f aabd
000000e0: c9cb 703d 337c 8ebe 1408 793b 89b8 d13c
000000f0: e6e2 81bd cfff 253b 9bae 2ebc 0049 ba3d
00000100: 6cfb 9e3d 2c98 28be d3c6 98bd a8ca b4bc
00000110: 5e3f 16bc abf9 a13d 0586 b7bd 6136 3d3d
00000120: db6f dc3d f449 34be 06a4 873a 2524 3dbd
00000130: 3b5e 23bd 541e a03c e7dc dcbc f9ef bdbd
00000140: a1bd 2bbd b719 54be 1f43 3abc 2f4f 3c3d
00000150: b77a a0bc beb4 753d d71c b23d 9a35 10bd
00000160: 42e9 94ba 8df4 5fbe 2479 723c b8e9 7dbd
00000170: 34d0 cc3c eeb7 e73a 29a0 923c d69c ed3c
00000180: f399 2bbd 34c8 af3d dd7c 8cbc 6a2c c1bd
00000190: dc66 803d aea6 ea3d a13c f5bc 74fe a13c
000001a0: 2b2d 593c 6bcd 0f3e 6924 de3c 0ab4 6abd
000001b0: c71b 2d3c 7279 783d eb60 f93c 4e9b c13a
000001c0: f8e5 0d3b 1de5 393e 684f e93c 089e 653d
000001d0: 6435 a4bd d825 a6bd c986 b5bb 83b2 5fbd
000001e0: f20d 67bd 4b38 19be fb58 f23b 42cf 893c
000001f0: 47fb 48bd aa3f 9b3d d2ce 8bbd c215 ac3d
00000200: f1a2 cd3c 3c7e 82bd 54fc 263d 9b29 af3d
00000210: 4250 2fbd 4c8a 123d b063 27bd fc70 083e
00000220: 5578 f13d 5c26 cf3d 9d32 07bb 08a0 213e
00000230: dd42 383d 3d61 70bb c744 253d d2bf 0c3e
00000240: b159 083e acfd 403d bc4b 33bc 7c17 1d3b
00000250: a5d2 20bd 5c1b 9abd a69b 35bc 8bb5 d63b
00000260: 5f8c 963d 5d8f 0dbd 4b07 553d b782 5a3c
00000270: 8797 f7bd c87e d5bc 0526 64bd 83cd 783c
00000280: 48fa 133e 3e59 83bd bbc3 ca3c 9c43 5ebd
00000290: 6a66 033d 746d cb3d 41a8 b2bc f388 1e3c
000002a0: 4340 f0bc 5de4 3bbe 16b5 5b3c 3c4e d53c
000002b0: 05cf fa3c 3e55 a1bd 65f4 a4bc d874 2c3d
000002c0: 36ca 913c 04f2 3dbe e2ee e1ba 8808 983b
000002d0: 913a 183e 81b3 473d 73cb 24bc 9a20 06bc
000002e0: 1c5e 543d b59a acbe 0c13 d5bb 9143 a63c
000002f0: be4b 363c 9ac6 0b3e c410 8d3a 8d71 813d
00000300: b20b e73b 5a1f 2e3d 61fd 363d cf11 31bc
00000310: df6b 093e 9c6e 293d 6995 37bd 73fa c53b
00000320: 55f1 01bc 40bb 87ba 31d7 99bc a2db d43a
00000330: c5f4 7d3d ab00 3c3d f9f1 953c bc90 c73a
00000340: d0c7 773c b68a 3fbc 0e51 afbc 236e 1a3d
00000350: 585e 89be 833a 88bd 489f 943c 0167 00bd
00000360: 5d68 0cbc e577 63bd 2d19 303b 1360 7f3c
00000370: 658c 2abe 38f5 ac3d c572 45bb cca0 57bc
00000380: 3913 09bc ccd1 523d 135b 333c ed77 c93c
00000390: 06f5 b4bd 4b0d 343d 091b 6bbc df82 edbc
000003a0: b531 e53c 13a1 323d dd8e f03c 5f7b 063c
000003b0: de79 893e 4831 4ebd 9378 01bd 7d63 8dbc
000003c0: 02a5 98bd 4dac fe3d 02e9 453c a0b0 d7bd
000003d0: 2923 40bd 2ff8 993d ac61 36bc 9af0 82bd
000003e0: 2ad9 b9bd 1aee c53d 39c3 9c3b 183f 95bd
000003f0: fec4 7b3d f3e5 c13c fbca c6bd 075d 04bd
0.009134294 0.08499548 0.008715043 -0.003818079 -0.075932786 0.22077009 -0.013593417 -0.0038591267
0.03139301 0.12654854 -0.026002271 0.041730978 -0.065807514 -0.02047927 0.021141162 -0.0073378524
-0.06574427 0.14160009 -0.05106734 0.0318118 0.08401166 -0.315257 0.05108318 0.14335032
-0.0006159691 0.08041697 -0.0052869366 -0.026558897 -0.010834417 0.1674416 0.008284124 0.02982716
-0.0034887118 0.10032117 0.00085845555 0.026078742 0.068164326 -0.028236508 -0.0022301483 -0.023887433
-0.013100214 -0.016287524 0.023292946 -0.0186418 -0.07401511 -0.24628974 -0.02145495 0.055459216
0.13706407 -0.15600812 -0.013330562 -0.030880904 -0.004824555 -0.07615282 0.009268368 -0.08331145
0.058788095 -0.2782913 0.00379992 0.025600689 -0.063421056 0.0025329476 -0.010661746 0.09095955
0.07762799 -0.16464299 -0.07459798 -0.02206929 -0.009170381 0.079089485 -0.08961109 0.046194438
0.10763522 -0.17606336 0.0010348565 -0.04617705 -0.039884787 0.019545712 -0.026960803 -0.09274287
-0.04192889 -0.20712934 -0.011368542 0.045973953 -0.019589765 0.059986822 0.08696907 -0.03520737
-0.001136102 -0.21870632 0.01479939 -0.06199047 0.025001623 0.0017678717 0.017898636 0.02900545
-0.041894864 0.085831076 -0.017149383 -0.094322994 0.06269619 0.11457573 -0.029936137 0.019774653
0.013255398 0.14043204 0.027116971 -0.057300605 0.010565705 0.060662694 0.030441722 0.0014771016
0.0021651965 0.18153806 0.028480247 0.056058913 -0.08017996 -0.08112687 -0.0055397493 -0.0546136
-0.056409784 -0.1496288 0.007395861 0.016822461 -0.04906776 0.07580502 -0.06826557 0.084025875
0.02510211 -0.063717335 0.040767983 0.085528575 -0.04280115 0.03577642 -0.040866554 0.1332435
0.1179053 0.10114738 -0.0020629533 0.15783703 0.04498564 -0.0036679052 0.040348794 0.13745049
0.13315465 0.04711692 -0.010943349 0.0023970297 -0.039263386 -0.0752475 -0.011084473 0.0065524033
0.073509924 -0.03456055 0.05200891 0.013336829 -0.120894484 -0.02606143 -0.05570032 0.015185717
0.14450943 -0.06413506 0.024751535 -0.054263696 0.03208009 0.09932986 -0.021808745 0.009676206
-0.029327517 -0.18348832 0.0134098735 0.026038282 0.030616293 -0.07877587 -0.020136068 0.04210362
0.017796617 -0.18549353 -0.001723733 0.004639689 0.14866091 0.048755173 -0.010058272 -0.008186484
0.051847562 -0.33711782 -0.0065025147 0.02029589 0.011126457 0.13649979 0.0010762443 0.06320486
0.0070509547 0.042510368 0.044675235 -0.010807469 0.13420056 0.04136525 -0.044820223 0.0060418188
-0.007931073 -0.0010355487 -0.01877937 0.0016239772 0.06200101 0.045899075 0.018303858 0.0015225629
0.015123323 -0.011690786 -0.021400955 0.03770269 -0.2682979 -0.06651785 0.018142357 -0.031348232
-0.008569804 -0.055534262 0.0026870475 0.015586871 -0.16655119 0.08445209 -0.0030128222 -0.013160896
-0.008366399 0.05146961 0.010947007 0.024593318 -0.08835797 0.04395799 -0.014349707 -0.028993068
0.027977804 0.043610644 0.029364998 0.008208125 0.2685079 -0.050339967 -0.03160913 -0.017259354
-0.07453348 0.124352075 0.012079479 -0.105317354 -0.04690853 0.075180404 -0.011131685 -0.06393547
-0.09074624 0.09664555 0.0047840145 -0.07287425 0.061467163 0.023669219 -0.09706684 -0.03231528

fcs1.bias f4 [256]
00000000: c55d 0e3e c6ed fdbc 5f17 023c 19a6 e2bc
00000010: 75d7 89bb 9ffb 813d fcae 7b3d 45dc e83c
00000020: 2b61 a8bd 25df e1bc ae67 bd3d 9d4a ffbc
00000030: 1f9a 44be fc5c ee3c 31aa 233e acb9 96be
00000040: 8331 4d3e 4d45 573c 0755 be3d ca65 2fbd
00000050: 27ba 2c3e 2fb9 0b3e e376 cbbd 4e55 cfbd
00000060: 9546 16bd 0c3c 60be 5a4e 0abe 4ad8 c4bc
00000070: 08df bebd d8f8 39be d4b9 5fbe 54f2 9cbc
00000080: 83a5 013d f05a 393d c316 1f3e 917f 4ebe
00000090: 1158 67bd 6740 bb3c 3e9c 833e 8f01 a6bb
000000a0: 774e 96be ef2f 233e b3d3 b43d 6626 313d
000000b0: 430b e83c 9809 cabd 6dcb 25bd 3ee1 87be
000000c0: 3e14 03be f11d c03d b912 8ebd c117 96bc
000000d0: 8aa6 d13d e7de 263e a1ac 9a3d 2827 6bbd
000000e0: cdc2 c43e 45c3 1bbb 954c 0ebe f1bb ac3d
000000f0: 55d0 513e 8bd2 c8bd 1b5a 1f3e 262b 4d3d
00000100: 8891 c9bd c701 0cbe 924a c2bd 7ead 853d
00000110: 71d4 41bc 5ac6 a63d b819 65be c16a 50bd
00000120: 497f 31be 7b73 233e 6857 ff3c be1f 35bd
00000130: 448b 0fbd 63eb aebd 94ba e33b 2855 0d3d
00000140: 9929 88be 4d7c 09be c1af 83be 6a73 d13c
00000150: fa81 893c ed53 d53d 86f0 c6bc 130d 62bd
00000160: a789 98bc e687 17bc 4933 dbbd 81db 1bbe
00000170: 2ffa f7bd 0d3e 38bd 9f03 3b3e ea94 06be
00000180: a18d f8bd 1083 ba3c d082 92bd c546 4b3d
00000190: c095 273b ab35 62bd 3876 1ebe ed76 0abe
000001a0: 9fb1 35be fcd0 5abd a1b4 4d3d 7af4 a93d
000001b0: d08f 22be 1fe1 8f3d 9078 6fbe b9eb 74be
000001c0: 9a93 523e 3a7d b0bc 2e28 0dbd ef74 bc3c
000001d0: 95c8 f03d 728b 153e 0feb e13c 893d 44be
000001e0: 87a7 143d 4203 1abe 3766 e93d 7cab 623e
000001f0: 950e 1d3c efcd 19bc fc80 a9bc 47ea a63d
00000200: a6ed 32be c6dd e3bd 4016 2bbd eddb 153e
00000210: a0da d6bd 84b1 163e 66f6 48bd 3238 ee3d
00000220: af0a 5a3d c699 2ebd 89f0 37bd 6553 063e
00000230: 78a2 02be 09a1 ffbc 64e9 63be 47ce a43d
00000240: 094e 3ebe d315 c7bd b1d1 cabe 9bac e43c
00000250: a16b debc 906f d6bd e9e2 06be b1f1 2dbe
00000260: 122d b03d 265c 233e 9fe8 22be 32a4 93be
00000270: e484 f9bc 90c8 cabb 0aac 11be 79ed 0bbd
00000280: db75 003e 79b4 b13d 1329 1fbe cf65 053e
00000290: ccfd 303d 2f4e 863e 1ef4 1dbb 9173 52bd
000002a0: d1cc 843d 3d2d 04bd d2f3 593e fe8b 7e3d
000002b0: 4274 76bd f04b 39be 517c e8bd 2d2f 83be
000002c0: 6f3f bfbd 83b6 a03d e86b 533d e8aa 8dbe
000002d0: aa8b 0a3e 8194 b8bd 14a3 353e 1fae 3e3e
000002e0: be1f 6f3d 3228 23bd 4b37 63bd 1c73 dc3d
000002f0: bbcc b7bd 284a 6c3e 1d94 9b3d 23cc aabd
00000300: 8eb9 c93c db6f a93d 3d05 cebd 6003 853c
00000310: ecdb ee3c 92e6 26be 308e 23be 8b06 9bbd
00000320: ab3e 7fbb 4a4b 883d a799 4ebd 4253 ea3d
00000330: 3693 36bd 60e6 0b3e e6e8 e6bc f7bc b5bd
00000340: 01e7 78bd 8d58 8f3d b327 d0be 6895 ca3c
00000350: 419d ecbd d4b9 6cbe d4bd 943d cd2f 73bc
00000360: 9fa4 b6be 9dea 42bd 707b d53d 372d 16be
00000370: c9a9 d2bb 8193 8b3c d3e4 6e3d 4ce4 c63d
00000380: 5cd2 28be d549 ae3d 789a ff3d ce70 27bd
00000390: c7c7 58bc 4230 06be e38e e0bd 5a30 77be
000003a0: 1276 2b3e 0427 8d3a 7581 073e 6ba5 0e3d
000003b0: 4f8c 51be 1897 ae3d 3c2d f8bc 822d 42bd
000003c0: 99a5 863d e52b 803c 20d0 0a3d 5ff7 e93d
000003d0: 8f16 f13d 2dcb c33c dd24 133d c182 e6bd
000003e0: 252a 573e b2ca e43c a8ec a23d 2e56 b0bd
000003f0: f026 e5bc 2485 fb3c d895 2bba eca0 9ebd
0.13902958 -0.030997168 0.007940142 -0.027667092 -0.0042065927 0.06346821 0.061446175 0.028425345
-0.08221658 -0.027572224 0.09248291 -0.031163508 -0.19199418 0.029097073 0.15982892 -0.2943853
0.20038418 0.013139081 0.092935614 -0.042821683 0.16867886 0.1364486 -0.09934785 -0.101236925
-0.036688406 -0.21897906 -0.13506451 -0.024028916 -0.093198836 -0.18161333 -0.21848232 -0.01915852
0.031651985 0.04525274 0.15536027 -0.2016585 -0.05648047 0.022857858 0.2570514 -0.005066104
-0.2935674 0.15936254 0.08829441 0.04324951 0.028325683 -0.09865111 -0.040477205 -0.26539034
-0.1280069 0.09380711 -0.06937165 -0.018321874 0.10236843 0.16295968 0.075524576 -0.05741039
0.3842987 -0.0023767513 -0.13896401 0.084342845 0.20489629 -0.09805783 0.15561716 0.050089978
-0.09842211 -0.13672553 -0.094868794 0.06527232 -0.011830435 0.08143301 -0.22373092 -0.05088306
-0.17333712 0.15962021 0.031169608 -0.044219725 -0.035044923 -0.0854099 0.006949732 0.03450504
-0.26594236 -0.13426323 -0.25720027 0.025567729 0.01678561 0.10416398 -0.024284612 -0.05518825
-0.018620325 -0.009248709 -0.10703141 -0.15220453 -0.121082656 -0.04498105 0.182631 -0.13142744
-0.121363886 0.022767574 -0.07153857 0.049628038 0.0025571436 -0.055226963 -0.15474784 -0.13521929
-0.17743538 -0.05342196 0.05022109 0.08298583 -0.15875173 0.0702536 -0.23385835 -0.23918046
0.20564118 -0.021544088 -0.034462146 0.023004977 0.11757008 0.14603975 0.027577905 -0.19164099
0.03629258 -0.15040305 0.11396449 0.22135729 0.009585996 -0.009387477 -0.020691387 0.081501536
-0.17473468 -0.11126284 -0.041769266 0.14634676 -0.10490918 0.14716154 -0.04906311 0.11631812
0.053232845 -0.04262712 -0.044907127 0.1311775 -0.1275729 -0.031204717 -0.22257 0.08047157
-0.18584456 -0.097209595 -0.39613107 0.027914336 -0.02715093 -0.104704976 -0.13172497 -0.16986729
0.086023465 0.1595312 -0.1590905 -0.2883621 -0.030458875 -0.0061884597 -0.14225784 -0.03416202
0.12544958 0.086770006 -0.15543012 0.13027118 0.04321079 0.26231524 -0.0024101804 -0.051379744
0.06484378 -0.032269705 0.21284416 0.062145226 -0.060169466 -0.18095374 -0.113518365 -0.2562193
-0.09338271 0.07847311 0.05161658 -0.27669454 0.1352984 -0.090127 0.1773799 0.1862111
0.05837988 -0.039833255 -0.055472653 0.10764143 -0.08974596 0.23075163 0.0759661 -0.08339717
0.024624612 0.08273288 -0.10059593 0.01623696 0.029157601 -0.16298893 -0.15972209 -0.07569607
-0.0038947265 0.06654985 -0.050439503 0.114416614 -0.044573985 0.136621 -0.028187227 -0.08873933
-0.060767177 0.069993116 -0.40655288 0.024729446 -0.11553431 -0.23117763 0.07262769 -0.01484294
-0.3567247 -0.047587026 0.104239345 -0.14665686 -0.0064289314 0.017038109 0.058323693 0.09711513
-0.16486496 0.08510176 0.124806345 -0.040879063 -0.013231224 -0.13104346 -0.109647535 -0.24139538
0.16744259 0.0010769074 0.13232978 0.034825724 -0.2046368 0.085249126 -0.030295007 -0.04740668
0.06574554 0.01564593 0.03388989 0.114241354 0.11771881 0.023900593 0.035923827 -0.11255408
0.2101217 0.027928684 0.07955295 -0.086101875 -0.027972668 0.030703135 -0.0006545461 -0.07745537

fc2.weight f4 [128, 260]
00000000: e77b 123d f659 88bd 2e11 0a3d 0a92 4cbc
00000010: 4fd6 78bc d683 f5bc cc38 8cbd c829 d43c
00000020: 911d 203d f105 e6bc 9f39 5c3d 130f 9e3b
00000030: 6f02 35bd c02b 933c a75b bbbd 6e73 a03d
00000040: 30db 18bd a6b5 163d b6c5 873c 48e4 df3b
00000050: 7c7d bdbd d97e 84bc 2f16 563d 3817 4c3d
00000060: 384a 3dbd ed8d 0dbc 9373 d63c 89cd aa3c
00000070: b532 743d b952 37bd 7cac a83c 53aa 513d
00000080: b6bd 613b 1a8a 0ebd ed17 14bd 2351 c33d
00000090: 3821 63bd a00e 70bc a860 81bc 83ae 083d
000000a0: 799e 383c 3482 18bf 23a1 873d 1a50 383d
000000b0: 6f55 9f3c a6cf bb3c 678b b9bd 2ae5 623b
000000c0: 8d2a 28bd 6fd2 f3bc e721 213d ee2c 06bd
000000d0: 5891 edbd 98c4 e5bc e6a1 8cbd 436c d7bc
000000e0: 153f 9c3d dea1 233e 27b1 85be 0ca1 e33c
000000f0: 6f94 c0bc ee6e 33bc 9aae 6e3c 9d7d c7bb
00000100: dfb2 a5bd fb7b c83b da28 5a3c e221 a03c
00000110: 4d56 8f3b 3df6 b9bc 9299 1a3d 03a1 463d
00000120: 23e8 6b3d ab8c 303d acd8 39bd 323a 293d
00000130: 9d76 a83c 489f 90bc 976a 82bd f38f 35bd
00000140: 81a0 c83d 5258 55be 4449 f1bc fb44 68bd
00000150: d589 b23a fc85 36bd a187 ac3d 3995 163d
00000160: 3235 fcbc 8d65 8ebc 60fb ddbc aa58 933d
00000170: 2c6f 1b3d 25aa 00bc 0cc9 0cbd 7623 bf3c
00000180: 4ec0 6fbd a82e 96bc c201 87bd 7e95 2fbc
00000190: 4e42 76bc 4a78 7c3d f3e2 c63c dfa9 66bd
000001a0: 34be a9bd 58fa 2abd bcfe cf3c 5115 bbbc
000001b0: 1b01 79bd b85d 1d3a dfee 8cbc d876 e83d
000001c0: dc18 3dbd bbbf 733d 54aa 92bb e9af 4c3d
000001d0: 1d1e 103b fea3 9abb 19f9 ddbc ca30 bb3d
000001e0: 859f eb3d fd02 67bd dc1d 52bb d3fd 54bd
000001f0: 12a0 853c 5983 823c 1c09 8f3d 2026 39bd
00000200: acc2 743d 54e8 ad3d 4c76 debc 2065 de3c
00000210: 984e 1bbd 004c 9d3c bdb6 dd3c a42d c3bb
00000220: b68d bdbc 057b 3c3d 72d3 1ebb 11a8 4c3d
00000230: 4aff 553d cf64 f2bc 08da 49bd dadb aa3a
00000240: b963 983b eb21 6f3c 3736 a73d 69eb 13bd
00000250: ec8c ce3d 1f6b 303c b41c 40bb 87b2 493d
00000260: 037d 83bc 111e d73d f70d 293d cf33 b23a
00000270: 0602 f5bc 4796 d0bc 282f 1fbd 77c0 d53c
00000280: 3c4d 00be 42d2 4dbd 3bfb b7bc 999e 833d
00000290: 70a6 9fbd db7b abbc a906 063e 8f39 2bbd
000002a0: bbf7 983d b3e3 913d ce18 073c 3fe9 ad3d
000002b0: fc53 243d c810 8b3d c5cb 8cbb 6b40 d7bd
000002c0: f108 2d3d 8f59 b73b 83af 48bd 8f29 223c
000002d0: 32b6 19bd 48a8 35bd 7c94 cc3c 1e02 933d
000002e0: cf7f a03c a975 c83d eaa8 38bd 8fe2 6a3d
000002f0: 5330 5f3c 6207 6a3c 918b acbd de79 223c
00000300: b8b6 b13d 1719 4fbd 1492 98bd d197 6cbd
00000310: d1f0 b63b 4982 d9bc 60e4 a63d 5ffe 89bd
00000320: 1151 3dbb 5c10 9dbd 9fca 3fbc 4a9b 723d
00000330: 5da6 163d 8f93 7dbd 4045 243d 34aa c03c
00000340: 40f4 40bc ac18 26bd 8608 a83d 09a0 503d
00000350: 32a3 9cbd 0502 bdbb b9ba 5d3d 1037 e73c
00000360: 163c f23b 0489 033c 34bd 373d a285 25bd
00000370: 9af5 88bc b10a 713d a99e 6cbd 0dbb 9fbc
00000380: 958a 38bd 247a 86bd 5519 9abc 847c 5b3c
00000390: baa1 9cbb 13c0 393c d8ab df3b 9fea 623d
000003a0: 8e0d adbd 00fd 85be 6335 e2bc dcfe e03c
000003b0: 1c22 2cbc 6598 33bd 0407 c53d 0dad c83c
000003c0: 1f3e 273d 6f12 613d 30da 663c 52ec 11bd
000003d0: 4bee a7bc 56f5 3dbd 5afd 43bd 4ac2 063d
000003e0: 74e4 173c 10bc 793d ca84 cd3c 34c1 583d
000003f0: dcd7 2abc 47a9 83bd 87b9 07bc 20ea b93c
0.035762694 -0.06657784 0.03370779 -0.01248599 -0.015187814 -0.02997009 -0.06846771 0.02589883
0.039090697 -0.028079005 0.05376589 0.0048235743 -0.044191774 0.017965198 -0.09148341 0.078345165
-0.03731841 0.036794327 0.016573768 0.006832633 -0.0925245 -0.016173767 0.05226725 0.04982683
-0.04621336 -0.008639795 0.026178157 0.02084996 0.05961867 -0.044756625 0.02059006 0.051187824
0.0034445352 -0.034799673 -0.03615563 0.0953696 -0.0554516 -0.014651924 -0.01579316 0.033369552
0.011268252 -0.59573674 0.06622531 0.044998266 0.019449918 0.022926163 -0.09059792 0.0034621456
-0.041056205 -0.029763428 0.039338972 -0.032757692 -0.11599988 -0.028047845 -0.06866817 -0.02629674
0.076292194 0.15979716 -0.2611172 0.027786754 -0.023508279 -0.010951741 0.014567995 -0.0060879723
-0.080907576 0.0061182952 0.013315404 0.019547407 0.0043743015 -0.022700423 0.037744112 0.048493396
0.05759443 0.0431029 -0.04537265 0.041315265 0.020564372 -0.017654076 -0.06367987 -0.044326734
0.09796239 -0.20834473 -0.029453881 -0.05670641 0.0013621399 -0.04456137 0.08424307 0.036763404
-0.030787084 -0.017382408 -0.027097404 0.07194646 0.03794782 -0.007853066 -0.03437142 0.023332339
-0.058533005 -0.018332794 -0.06592132 -0.010716794 -0.015030457 0.061638154 0.02427814 -0.056314345
-0.082882315 -0.041742653 0.025390022 -0.022837313 -0.06079207 0.000600304 -0.017203746 0.11350793
-0.046166286 0.05950902 -0.004475871 0.04997245 0.0021990605 -0.0047192564 -0.027096318 0.09140165
0.11505035 -0.056399334 -0.0032061255 -0.05199988 0.016311679 0.015931772 0.06984159 -0.045202374
0.059755966 0.08491579 -0.027156018 0.02714783 -0.03791675 0.019201279 0.027064675 -0.0059563685
-0.023138862 0.046015758 -0.0024234918 0.049964968 0.052245416 -0.029589085 -0.049280196 0.0013035492
0.0046505597 0.014595489 0.081646375 -0.036113176 0.100854725 0.010767727 -0.0029313983 0.049242523
-0.016050821 0.105037816 0.041273084 0.0013595762 -0.029908191 -0.025462283 -0.03886333 0.026092751
-0.12529463 -0.050249346 -0.022458663 0.064267345 -0.07795417 -0.020933082 0.13088478 -0.04180294
0.07469126 0.07123508 0.00824566 0.08491754 0.040119156 0.0679031 -0.004296752 -0.105103336
0.042244855 0.005595393 -0.048995506 0.009897604 -0.03752727 -0.04434994 0.024973147 0.07178138
0.019592194 0.09788067 -0.045082964 0.05734497 0.013622361 0.014283987 -0.08425058 0.009916751
0.08677429 -0.050561037 -0.07449737 -0.05776197 0.005582907 -0.026551383 0.08149028 -0.067379706
-0.002888743 -0.07669136 -0.0117060235 0.059230126 0.03677975 -0.0619083 0.040105104 0.02351866
-0.011776984 -0.040550873 0.08204751 0.05093387 -0.076483145 -0.005768063 0.05413315 0.028224498
0.0073924167 0.008028273 0.044858173 -0.040410645 -0.016718674 0.058848087 -0.057768498 -0.019498372
-0.045054037 -0.06566265 -0.018810907 0.013396386 -0.0047800215 0.011337298 0.0068259053 0.055399533
-0.08449851 -0.26169586 -0.027613347 0.027465276 -0.010506179 -0.043846507 0.09620479 0.02449658
0.040830728 0.05494922 0.014090106 -0.035625763 -0.02049937 -0.04637655 -0.047849037 0.032900132
0.009270776 0.060970366 0.025087733 0.052918628 -0.010427441 -0.064287715 -0.008283979 0.022694647

fc2.bias f4 [128]
00000000: 9d52 3ebd bcbc 33be 53e9 43bd 56b4 57bd
00000010: 34a1 7bbd 98e6 74bd e524 21be ace0 d9bd
00000020: c60d b5bc a2dc 91bd 7a11 fdbc fdb4 19be
00000030: 2c18 ac3c 84df 3dbd 77c2 20be ed8b b7bd
00000040: 9710 33be 3fff 13be b949 afbd 972d e5bd
00000050: 6417 41be 3265 9fbd b526 c9bd 2524 2bbe
00000060: 40a1 37bd f293 91bd a2c5 05bd a341 4cbe
00000070: 5ac0 d8bd 3c9f 283d 173f 1cbd ef5d 88bd
00000080: d30c 85be 7e3c e3bb 5de9 1dbe 2541 313d
00000090: 7985 c0bb 94ec 593c 6995 f2bc 3ca3 bcbd
000000a0: dc02 e8bd d303 a6bd b9d7 dbbd d81f a6bd
000000b0: 884d 24bd e9a5 37be ed2b 1abe 14ea 4fbd
000000c0: 0fd7 c3bd 2b5a 60bd b71f bdbd 1083 1fbb
000000d0: dd41 28be 0c37 7ebc e5c6 cfbd d6f9 36be
000000e0: 5f44 fbbd 7ae8 993c 736c 20be 563d b2bd
000000f0: 991a 2cbd 57d6 98bc c2c3 16be aecb 16bd
00000100: 901e 30bd 8183 6abd 5bd0 3abd 169e 87bd
00000110: caf4 cbbd 9c33 1bbe 7490 a0bd 6bcc 10be
00000120: c02b 9ebd 36c9 be3b 00d8 42bd 8287 62bc
00000130: b56b 90bd 17ce 8bbd 1015 52bb dff7 48be
00000140: 7d4a 29be 4cdf f2bd 48df 24be b753 d1bd
00000150: 7d75 94bd b943 89bd e2ef d4bc 5229 bcbd
00000160: 102b 8cbc 87ae a2bd 3b93 09be 4b7e 87bd
00000170: c164 15be 09a5 87bd 707c 30bd cb00 10be
00000180: 3748 74bd 8265 a6bd ad96 b9bd 883d 91bd
00000190: 5789 29bd 0774 c9bd 018e 20bd 1c6d 83bd
000001a0: b314 17be ae24 13be 7181 f6bd ba5e 98bd
000001b0: 63c8 7fbc 9e62 27bd 98b4 3cbc b5bf f0bd
000001c0: fde9 1dbc 0bf9 f3bd 8591 443c 7bbe 6cbe
000001d0: 6336 40bd b0b5 afbd 2f48 fcbc 733c 01bd
000001e0: c18b 1bbd 84f8 33be 915f a8bd 63bb a3bd
000001f0: 9fe6 d4bd d4d1 a0bd 5d4a 9cbd b36a 6ebc
-0.046465505 -0.17552465 -0.047829937 -0.052662216 -0.061433032 -0.059790224 -0.1573673 -0.10638556
-0.022101294 -0.071221605 -0.030892123 -0.15010448 0.02100762 -0.04635574 -0.15699182 -0.089622356
-0.17486797 -0.14452837 -0.08558983 -0.11190336 -0.18856579 -0.07782973 -0.09821836 -0.16713007
-0.044831514 -0.071082965 -0.03265918 -0.19946913 -0.10583563 0.041167483 -0.038146105 -0.066585414
-0.25986347 -0.0069347015 -0.15421052 0.043275017 -0.005875286 0.0133010335 -0.02961226 -0.09210822
-0.113286704 -0.08106198 -0.10734505 -0.081115425 -0.040113002 -0.17934383 -0.15055819 -0.050760344
-0.095625035 -0.05477349 -0.09234565 -0.0024339594 -0.16431375 -0.015516054 -0.10145358 -0.17868742
-0.122689 0.018787611 -0.1566637 -0.08703105 -0.042017553 -0.018656893 -0.14723113 -0.036815338
-0.042997897 -0.05725432 -0.04560886 -0.066219494 -0.09958799 -0.15156406 -0.07840052 -0.1414048
-0.077231884 0.005822326 -0.047569275 -0.013826253 -0.070517935 -0.06826418 -0.0032056011 -0.19625805
-0.16532321 -0.11858997 -0.161008 -0.102210455 -0.072489716 -0.0670237 -0.025993291 -0.09187569
-0.017110378 -0.07943445 -0.1343507 -0.06615885 -0.14589216 -0.06623275 -0.043087423 -0.14062802
-0.059639182 -0.0812483 -0.09061942 -0.07091814 -0.041390743 -0.098365836 -0.039197925 -0.06417295
-0.1475399 -0.14369461 -0.12036408 -0.07439943 -0.015611741 -0.040865533 -0.011517666 -0.11755315
-0.009638307 -0.119127356 0.011997585 -0.23119538 -0.046926867 -0.08579576 -0.030796139 -0.03155179
-0.037975077 -0.1757527 -0.08221353 -0.079947256 -0.1039555 -0.078525215 -0.07631371 -0.014551806

fc3.weight f4 [1, 128]
00000000: 2c36 073c 9401 2abc 8d7a 66bc 80f4 04bc
00000010: f205 1e3c bbdd 87bc 5702 6cbc 2291 aabc
00000020: 78ad 063c e37d 80bc 6947 7c3c a54d 74bc
00000030: b049 d03b acfd d73b 1257 443d ef47 1ebc
00000040: 43f6 94bb a085 01bd a5a4 043c 0554 6e3c
00000050: c65e 8bbc 97ce 03bc ff68 013c fe47 1c3c
00000060: 2266 45bc f02a 40bc 2e73 cc3b f701 b13c
00000070: 4582 93bd 0a5d 023c 0789 af3b f9c3 d73b
00000080: 15ae 333d a09c cbbb 45f2 333c 076c dd3b
00000090: c673 d43b 0ec6 4abc fa82 0dbc c5f0 1a3c
000000a0: 6ba8 d83b ee5e 5c3c b22a 153c c079 eabb
000000b0: c78b f0bb d64a 973d 7edc 943c 6693 cbbb
000000c0: 1942 86bc 2675 4f3c e498 18bc 8d7b 98bb
000000d0: dd44 183d 1863 803b c819 05bd 0487 ad3d
000000e0: 2056 873c 1fe2 1a3c cc93 0abd f94b 8c3c
000000f0: f21e 1abc 1bb1 d83b a89a c0bb 00e1 bf3b
00000100: 6687 1bbc 04fb b63b 6c1e c93b 03c2 bb3b
00000110: bb0e 44bc 8b2d e23c 780f 52bc 1ea2 983d
00000120: 729a 50bc 183e 28bc 3d00 e33b 9ee9 ce3b
00000130: fc93 383c 819d 25bc 6217 0abc 5619 963d
00000140: 0c8d 37bc ef40 9dbc 283b 0f3c d79b b9bc
00000150: a984 0dbd 8f25 bf3b e8c4 15bd 3c60 82bc
00000160: 3296 ad3b e33f 25bc 5b17 463c 7dce 13bc
00000170: 3b0e ee3c 1679 083d dc79 febb 3b0d 083d
00000180: 6963 17bc 822e 72bc eeb5 0d3c 2a3a f6bb
00000190: 0346 023c 4c99 57bc 1f9f 753c b5e0 ee3b
000001a0: 50d4 103d 1bac 23bc e8fe 963b 6079 dd3b
000001b0: 895f 0a3c ccc3 183c 1f45 283c 9303 3a3c
000001c0: 7dee 4a3c 96e9 60bc e17f 85bb 83e4 2a3e
000001d0: e81b b33b e00a 3fbc ca42 cdbb e3c7 65bc
000001e0: 23ce 3dbc e997 333c eb4b 06bc 7787 33bc
000001f0: 8023 6fbc c6d3 fb3b 443c 173c 50a0 183c
0.008252662 -0.010376353 -0.014067304 -0.008114934 0.009644972 -0.016585222 -0.014404855 -0.020821158
0.008220069 -0.015685027 0.015397885 -0.01491109 0.0063564405 0.0065915193 0.0479346 -0.009660705
-0.0045459582 -0.031621575 0.008095895 0.014546399 -0.017012965 -0.00804486 0.007898568 0.009538649
-0.012048276 -0.011728987 0.0062393164 0.021607382 -0.07202581 0.007956753 0.005356911 0.006584641
0.04386719 -0.0062137395 0.0109830545 0.0067572626 0.006483528 -0.0123763215 -0.008637184 0.009456818
0.006611874 0.013450367 0.009104418 -0.007155627 -0.0073408815 0.07387321 0.018171545 -0.0062126396
-0.01638894 0.012662208 -0.009313796 -0.0046534003 0.03717505 0.003918063 -0.03249529 0.08473018
0.01652056 0.0094533255 -0.033832356 0.01712607 -0.009406792 0.0066129095 -0.0058778115 0.0058556795
-0.009492731 0.0055841226 0.00613766 0.005729915 -0.011966403 0.027609607 -0.012821071 0.074527964
-0.012732135 -0.010268711 0.0069275186 0.0063144704 0.011265751 -0.010108353 -0.008428426 0.07329051
-0.011203062 -0.019196002 0.008742131 -0.022657318 -0.034550343 0.0058333348 -0.036564738 -0.015915029
0.0052974457 -0.010086033 0.012090529 -0.009021399 0.02905952 0.0333186 -0.0077659916 0.033215743
-0.00924001 -0.014781596 0.008649332 -0.007514258 0.007951262 -0.013159107 0.014991551 0.0072899708
0.035358727 -0.009989764 0.004608024 0.006758854 0.008445629 0.009324025 0.010270386 0.011353391
0.012385962 -0.013727566 -0.0040740822 0.16688733 0.005465973 -0.011660308 -0.0062640654 -0.0140247075
-0.011584791 0.010961511 -0.008196811 -0.01095759 -0.014595866 0.0076851575 0.009230677 0.009315565
