checkpoint_critic_1.pth (torch, 191428 bytes, 9 tensors)

bn1.weight f4 [256]
00000000: 13c4 393f 2a21 413f 6498 4d3f eb98 5d3f
00000010: 1849 613f c011 573f 09d1 5b3f 4beb 563f
00000020: f6ae 343f 5879 463f ea25 293f c54e 483f
00000030: 503b 453f ced1 473f 2e51 933f 3786 3d3f
00000040: 2021 4f3f d1e1 4d3f bdfb 303f 6e1a 2c3f
00000050: e93f 373f 4af1 473f c0ab 603f a9c3 3e3f
00000060: c009 633f 2acd 4f3f 36a6 323f 2937 3c3f
00000070: a5b6 343f c82f 493f 79e6 3b3f c01c 883f
00000080: 2486 253f 5016 363f 7d1a 363f 9fbc 3d3f
00000090: f56d 5d3f 6c39 493f c211 2e3f d3e2 183f
000000a0: cb9a 3e3f 6a20 6c3f 4152 333f bc8b 4b3f
000000b0: 646a 373f 980e a23f feb6 683f 30aa 653f
000000c0: e307 543f 3008 333f 619c 273f 14b3 533f
000000d0: 5f2f 3c3f e739 673f b94d 883f b694 853f
000000e0: 0167 8f3f 59e8 4b3f bd86 4a3f 4f74 243f
000000f0: 086f 7e3f 9638 373f ba9c 483f eecb 463f
00000100: 5a6b 833f 9c8e 4a3f e626 493f 5501 383f
00000110: d26c 9e3f c373 5c3f 0836 903f f95d 693f
00000120: ca53 2e3f 3c5b 353f c1c3 433f ae20 483f
00000130: 69da 1f3f ad15 553f 5dbd 473f ec7c 333f
00000140: ec04 4c3f 932e 5c3f 777e 4a3f 871e 823f
00000150: 6c7e 4c3f eba2 633f 4670 3f3f 70c9 5f3f
00000160: 9c67 333f e66c 9d3f 9668 5e3f 18c4 793f
00000170: c653 253f 073f 693f 1301 293f 5d07 443f
00000180: 1138 4e3f 11fb 3f3f 2972 413f 5985 5e3f
00000190: 5575 423f 3963 553f 6d0c 423f 9a40 603f
000001a0: 39bf 373f cfc6 443f e2eb a43f 89fa 4c3f
000001b0: d2e5 9a3f 7a3c 473f 8801 373f 286b 833f
000001c0: 74c9 663f fc06 563f b572 963f 5413 9d3f
000001d0: f805 3d3f 14d8 5a3f 934f 623f d50a 533f
000001e0: ddca 413f 22d4 3b3f dad3 423f 83e0 143f
000001f0: 89bd 473f cf6e 693f 71de 393f 4235 423f
00000200: 7fbe 7b3f 2adb 3d3f f91d 3e3f 738c 3e3f
00000210: 4eb0 1e3f 4a0e 9e3f 3ac1 613f 845a 3a3f
00000220: 2c49 223f 338e 2d3f 7cdf be3f 5195 583f
00000230: 2ae8 573f 6cc3 3e3f 8844 533f fc9b 2f3f
00000240: 39c5 5c3f d3e4 6b3f 3577 333f 66fb 423f
00000250: fcd3 1c3f 34c1 653f 11b2 4f3f b471 513f
00000260: 7440 413f 5b87 313f cfcc 473f 584d 793f
00000270: 6445 363f facf 803f c077 443f 91a2 483f
00000280: 5519 3a3f b3ac 3d3f 4a8b 2e3f 9bfa 2c3f
00000290: d866 4b3f 1e7c 313f d846 773f e26d 573f
000002a0: 0133 483f 9a21 453f 326c 633f 0ce9 363f
000002b0: e81f 593f a4f1 463f ab68 4f3f ce58 363f
000002c0: 2ca4 573f 737b 3c3f 5617 693f 5693 493f
000002d0: 9112 423f 5208 4c3f 02f8 363f 81de 3c3f
000002e0: 62f3 2b3f 88dd 423f 839f 3c3f 7270 533f
000002f0: 011e 2d3f 00a2 a73f 4d0d 2c3f 85d6 373f
00000300: 6aad 463f 0abc 5e3f bba0 253f fd31 873f
00000310: 98bb 633f 1953 3a3f 30a0 893f de38 5d3f
00000320: d692 263f ef6c 9e3f fbfc 4c3f da61 2b3f
00000330: 3dc8 563f dfd8 163f 1375 393f 43bc 213f
00000340: 2603 1e3f 812c 1e3f f4ce 6d3f 62d8 683f
00000350: 5aa4 443f 3aa5 433f 6dd9 623f b8da 693f
00000360: 32cf 653f c8b5 453f 07c1 383f 3d8a 873f
00000370: 329e 673f 49b6 533f f78e 9b3f 3c40 3e3f
00000380: f7ad a63f d108 4b3f 8c8e 583f 7df5 473f
00000390: e0f7 473f a367 4a3f d778 3d3f c11a 793f
000003a0: 88fd 403f 2f7b 983f fc46 3d3f 9c9d 603f
000003b0: 1c95 833f 2fc0 3c3f c560 6e3f 5c2a 603f
000003c0: 8027 523f dbad 3b3f 0d11 2e3f 1380 453f
000003d0: 5540 473f 44f1 4e3f 0ef0 8c3f e493 4d3f
000003e0: 1ad1 4c3f 5e7d 503f af0c 593f 9d6f 583f
000003f0: fdb0 2d3f 3a79 633f fd71 523f df54 203f
0.7256481 0.7544123 0.80310655 0.8656146 0.8800216 0.8401146 0.8586584 0.8395278
0.7057947 0.77528906 0.6607348 0.7824519 0.7704363 0.7805451 1.1509149 0.7403292
0.8090992 0.80422693 0.6913412 0.6722783 0.71581894 0.7810255 0.8776207 0.74517304
0.8868675 0.8117243 0.6978487 0.7352167 0.70591193 0.78588533 0.7339855 1.0633774
0.6465781 0.71127796 0.7113417 0.7411594 0.86495906 0.78603244 0.67995846 0.59721106
0.74454945 0.9223696 0.70047385 0.7951009 0.71646714 1.2660704 0.90904224 0.8971281
0.82824534 0.6993437 0.6547299 0.82695127 0.7350978 0.90322727 1.0648719 1.0436008
1.1203309 0.7965141 0.79111844 0.6423997 0.9938817 0.7157072 0.78364146 0.7765492
1.0267136 0.79123855 0.7857498 0.7187703 1.2376959 0.8611414 1.1266489 0.91159016
0.680966 0.7084234 0.7647057 0.78174865 0.6244264 0.832362 0.7802332 0.7011249
0.7969501 0.86008567 0.7909922 1.0165566 0.79880404 0.8892047 0.7478069 0.87416744
0.7007997 1.2298858 0.86878335 0.9756484 0.64580953 0.911118 0.66017264 0.76573735
0.805543 0.7499247 0.7556482 0.8692222 0.75960284 0.83354527 0.7580021 0.87598574
0.7177616 0.7686586 1.2884486 0.80069786 1.2101386 0.77826655 0.7148671 1.0267076
0.90151143 0.8360441 1.1753756 1.2271523 0.7383723 0.8548596 0.8840267 0.82438403
0.7570017 0.73370564 0.7610451 0.5815508 0.7802358 0.91184705 0.72605044 0.75862515
0.9833755 0.7416254 0.74264485 0.7443306 0.6198777 1.2348111 0.88185465 0.72794366
0.633929 0.67795104 1.4911952 0.8460284 0.8433863 0.7451694 0.82526445 0.6859739
0.8623844 0.92146033 0.7010377 0.76164854 0.6126096 0.8974793 0.8113108 0.8181412
0.7548897 0.6934716 0.7804689 0.9738364 0.7119963 1.006347 0.76745224 0.78373057
0.72694904 0.74091643 0.6818129 0.67569894 0.794538 0.6933001 0.96592474 0.8415204
0.78202826 0.77004397 0.8883697 0.7144935 0.8481431 0.77712464 0.81019086 0.71229255
0.8423488 0.7362587 0.9105123 0.7874044 0.7580958 0.79700196 0.7147218 0.73777014
0.6716825 0.7611928 0.73680896 0.8259345 0.6762391 1.3096313 0.67207795 0.71811706
0.7760836 0.87005675 0.6469838 1.056213 0.8895812 0.72783047 1.075201 0.864149
0.65067804 1.2376994 0.8007352 0.66946185 0.8389929 0.5892467 0.72444266 0.6317789
0.61723554 0.6178666 0.9289391 0.90955174 0.7681328 0.7642399 0.88613015 0.91349363
0.8976928 0.772305 0.72169536 1.0589062 0.9047576 0.8270002 1.2153004 0.74316764
1.302184 0.7931033 0.8459251 0.7810896 0.781126 0.7906439 0.7401251 0.9730645
0.7538686 1.1912593 0.7393644 0.8774049 1.027988 0.7373075 0.9311641 0.87564635
0.8209152 0.7331216 0.6799477 0.7714855 0.7783254 0.8083689 1.1010759 0.8030379
0.80006564 0.81441295 0.8478498 0.8454531 0.6784819 0.8885685 0.8220518 0.62629503

bn1.bias f4 [256]
00000000: a878 8c3e ff15 613e 6836 47be aa9f 8ebd
00000010: f08c 98be a600 623e 4ca7 433e 16c2 cb3a
00000020: e79a 7fbd dd2b 433e 626a 913d 654d 933e
00000030: af7b ba3d b278 e93e 49ee 2c3d f6f5 ab3e
00000040: 031d 503e ffc7 5ebd 3374 f7ba f8ef 55be
00000050: 8a80 e6bd acc0 10bc 403b 59be 9187 4e3a
00000060: d5f5 cb3e a3c0 ca3d 89e1 42be d0b6 533e
00000070: b50b 28bd 96d4 ab3d c852 6bbe bd12 9cbb
00000080: 2205 d93e 740b dc3e 507c bcbe 4c3e 913e
00000090: 7e96 91be e95d 783e 2697 42be cfdb 38be
000000a0: 96b7 8fbe cf78 553e 1749 ccbd 01f2 28be
000000b0: 2781 febb 9655 773e c939 9e3e 2683 c63e
000000c0: 43f9 c13d 8950 203e 99df e7bb c244 bebe
000000d0: 8b6d 3d3e 242e 1b3e fc29 713e f147 f03d
000000e0: 11a8 6f3e b7fe 003e 0121 2d3e 5e88 e7bd
000000f0: 5e91 bb3d ff5d 3c3e eb8a 94bd 92fb 743e
00000100: 196f 44be 2b8c d0bc 9da1 16be 4f2c 853d
00000110: 7383 59bd 935c 8f3e 14c2 403e f2f1 533e
00000120: 1106 873e 4da4 6fbe bcf7 3fbe 9c18 b83d
00000130: 27b2 833d a002 a1bc 7012 373e a91f 453e
00000140: 0614 2a3e 21f0 133e 8cbd 3bbe 99cc 8a3d
00000150: 8be1 aa3e fbe2 1b3d c2f9 8a3e 7d0d 433d
00000160: 51e6 2c3d 480e ad3e b28d 5e3e 1610 933e
00000170: 1abe b6bb 6454 773e 698b 4e3e 0c1b c33d
00000180: c485 ce3d f975 363e 3256 a6be 9123 9ebd
00000190: 6d71 203c 4b9b 46be 6b98 893e 4d85 d83d
000001a0: 014c 713e 0caf d33c af57 ab3e 298f 55bc
000001b0: 3b85 54be ef3b b03e 7c6c cebe 3523 533e
000001c0: 35b4 853a 655c 123e 43d2 8c3e 0596 823e
000001d0: 9140 babe 8fd2 7d3e ab39 ccbd 2543 953d
000001e0: b287 6f3d 2415 723d ed49 a7be b458 5ebe
000001f0: a331 74bd fb80 5abd 6834 17be bbde 053e
00000200: 3889 053e 821c c8bc 2151 66be df60 11be
00000210: 99f7 383e 500a 3b3e eb80 c13d 2ec0 d8bd
00000220: e214 0cbe ba45 ab3e 25b9 563e 7d1f 3d3d
00000230: 69b7 a2be ae10 493d 61d5 8e3e 42c0 ac3e
00000240: 09f1 783e 1806 7abc 6560 0fbd 2c08 55be
00000250: 0c33 38be 98de 3abd a4e2 b03d 81d5 4fbc
00000260: e569 353e 40d6 21be 1e0f 253d e66e 8b3e
00000270: 12a5 1a3e 02b0 183e 8e89 d2bc 10bb 923d
00000280: 8970 3abd 44fb 82be 9335 56be ca08 103e
00000290: 7d8c a83e 78f7 a03d 4b14 663e 4e30 1b3e
000002a0: 59ab bdbd a86c f63c c4bc fe3d 0a18 0ebf
000002b0: 1c0f 8f3d 0faf 7c3e 999c b23d 03f1 053e
000002c0: 0c09 213e 5012 f53d 0b43 8d3d 19d4 c1ba
000002d0: edf5 d2bc 5c0c a7bd 0890 babd 2d0c 623e
000002e0: 6ab6 a4bd fa53 d8bd 8f4a 94bd 4643 303e
000002f0: 45af 8b3e 2ab4 1a3e c75a 163e 5817 e63e
00000300: b1b9 873e 5e89 743e fa6c 21be c90f 433c
00000310: cab4 83bc 9014 833c b11f 403d 6be2 2f3e
00000320: 3378 59be 26fc 433e 7846 15bd 9296 303b
00000330: cdc1 ae3d 92ce bdbd eafb 913e 3fb6 033e
00000340: 1739 263e e8eb 67be f501 363e 246a 153e
00000350: d400 093e 3d5a 0f3e e30a 8cbd 1c40 17bd
00000360: c8c3 173e e7c5 89be c7b9 1c3e 792f c43d
00000370: dec1 01be 6f25 61be da0c fb3c 6fd4 19bb
00000380: ec5f 463e 6439 11bd dab5 f2bd 8e18 863c
00000390: efe1 b43e aa04 b2bb 5004 523e 37b6 243e
000003a0: 434f 37bd ce85 b2bc 9fad e23b bee9 6e3e
000003b0: 8a80 bd3e 9203 64be 41c0 aa3d cdbe f8bc
000003c0: bd0c 37bc 9cf3 e53d 925d 213e 4723 afbd
000003d0: 78a6 933c 20b3 cebd 9280 f63c 5905 813e
000003e0: 66dd d0bd 0623 31be cda7 023f 1108 5b3e
000003f0: ed6a 043e 1cc7 12bf 46d5 f1bb fa4c e6bd
0.27435803 0.21981047 -0.19454348 -0.06964047 -0.29795027 0.2207056 0.19106787 0.0015545513
-0.062403586 0.19059701 0.07100369 0.28769985 0.09105622 0.45599896 0.042219434 0.3358609
0.20323567 -0.05438995 -0.0018879235 -0.20892322 -0.11254986 -0.008834999 -0.21214008 0.00078784773
0.39835992 0.09900024 -0.19031347 0.20675206 -0.04102679 0.08390157 -0.22980797 -0.004762976
0.4238673 0.42977488 -0.36813593 0.2836784 -0.2843513 0.24254574 -0.19002971 -0.180526
-0.28069752 0.20846866 -0.09974878 -0.16498567 -0.007766861 0.24153742 0.30903462 0.38771933
0.09471371 0.15655722 -0.0070762155 -0.37161833 0.18498819 0.1515432 0.23551172 0.11732472
0.23403956 0.12597166 0.16907121 -0.11305307 0.09158586 0.18395232 -0.07253059 0.23924091
-0.19183005 -0.025457462 -0.14710088 0.06502592 -0.053103875 0.28000316 0.18824035 0.20697764
0.26371816 -0.2340252 -0.18746847 0.08989069 0.06430464 -0.019654572 0.17878127 0.19250359
0.16609201 0.1444707 -0.18334025 0.06777305 0.333752 0.038058262 0.27143675 0.047620285
0.042211834 0.33799958 0.2173374 0.2872321 -0.005576861 0.24153286 0.20170368 0.09526643
0.100841075 0.1781844 -0.32487637 -0.077216275 0.009792668 -0.19395177 0.26874098 0.105723
0.2356415 0.025840305 0.33465335 -0.01303462 -0.20753948 0.34420726 -0.40317142 0.20618899
0.0010200801 0.14293058 0.27504167 0.2550508 -0.36377385 0.24787353 -0.09971937 0.072881974
0.05847902 0.059102193 -0.32673588 -0.21713525 -0.05961765 -0.05334566 -0.14766085 0.13073246
0.13040626 -0.024427656 -0.22491886 -0.1419711 0.18063201 0.18265653 0.09448417 -0.1058353
-0.13679841 0.33451635 0.20969065 0.046172608 -0.31780556 0.049088173 0.2789717 0.3374043
0.24310698 -0.015260242 -0.03500404 -0.20803899 -0.17988223 -0.04562244 0.08636978 -0.012685181
0.17716177 -0.15804386 0.04029762 0.27233046 0.15102032 0.14910892 -0.025700357 0.071645856
-0.04551748 -0.25582325 -0.20918874 0.14065853 0.32919684 0.07859701 0.22468679 0.15155146
-0.092611976 0.030081108 0.12438348 -0.5550543 0.06985304 0.24676155 0.08721275 0.1308022
0.15726107 0.119663835 0.06897553 -0.0014787941 -0.025752032 -0.08156654 -0.09109503 0.22074957
-0.08042605 -0.10562892 -0.072407834 0.17213163 0.27282158 0.1510779 0.14683066 0.44939685
0.2650886 0.23880526 -0.15764228 0.011905619 -0.016077418 0.016001016 0.046905223 0.17176215
-0.21237259 0.19139156 -0.036444157 0.0026945216 0.08533058 -0.09267916 0.28512508 0.1286249
0.16232716 -0.22648585 0.17774184 0.1459127 0.13379222 0.13999267 -0.06838014 -0.036926374
0.14820778 -0.269088 0.15305243 0.09579367 -0.1267161 -0.21986936 0.030645777 -0.0023472568
0.19372529 -0.035455123 -0.11851092 0.01636913 0.35328624 -0.005432685 0.20509458 0.16085134
-0.044753324 -0.021792319 0.00691767 0.23331353 0.3701213 -0.22266987 0.08337451 -0.030364418
-0.011172471 0.112281054 0.1575835 -0.085516505 0.018023714 -0.10092759 0.030090604 0.25199392
-0.101984784 -0.17298517 0.51037294 0.21389796 0.12931414 -0.57335067 -0.0073801605 -0.11245151

bn1.running_mean f4 [256]
00000000: 9829 563f 43b9 0040 4835 cd3f 90db 123f
00000010: 7ced 803e 44fd cc3f be55 6940 df21 ce3f
00000020: 9a55 7f3f 9593 a140 a090 ae40 d829 0340
00000030: 58cc 9b3f 0ce3 3640 bcf4 883e e374 db3f
00000040: 9405 573f e9f5 bf3f 9a00 f53e 00f6 bf3f
00000050: 8915 803f 0c69 d33f ce9c 6540 a566 c13f
00000060: a672 7c3f 09e4 b03f e35d 2240 96a9 6b3e
00000070: ef8e fd3f 537a 5140 fb55 7f40 fa21 b03d
00000080: ee1c 2040 52b2 c23f 8a79 953f 48ac bb3f
00000090: 32a7 0140 1717 f33f a8eb e13e d4b1 a73e
000000a0: 9ac4 563f 1df7 243e d047 253f e465 1840
000000b0: bd1f bb3f 0417 a33d 7b65 1640 7aa4 da3f
000000c0: 703c 4f40 f9f4 e13e 1877 3e3b 9262 5340
000000d0: 6200 1740 089b 5c3e a4d3 8c3f 0970 a83e
000000e0: 1400 ca3f 4f69 913e 1e5b 193c 6737 6f3f
000000f0: 1426 753e 3b00 b93f f78e 0140 c852 2f40
00000100: 5fd8 5440 fb09 b840 ebac 643f e6b7 9d3f
00000110: 7939 9d40 2f48 0f40 3611 c240 5103 5b3e
00000120: 08a4 623f af4b da3f a9b6 b73e dff3 9a40
00000130: 7213 a83e 8e59 b03f 6e26 ff3f 5725 373e
00000140: ca5d a53f 785c 853f 7b36 3f40 f023 a23e
00000150: 520a 0640 0a8f b13e aa86 ce3e 8cac d23f
00000160: ebb4 8c3f a20a 933f a217 e13e 24a5 6d3f
00000170: b34f 253f ab30 083f b07a 623d 72b2 c03f
00000180: effc bf3e a099 8f3f 1845 6a3f b516 1a40
00000190: 524c f63d 6332 523c 1546 fa3f 8747 fa3f
000001a0: bd54 dd3c 9083 af3e a162 333e 85f3 5a40
000001b0: 4e99 903c dd31 563e a7bb 8140 9610 923f
000001c0: 3ca8 a83f 92a2 0840 b2fa 3f3f 2341 dc3e
000001d0: 3836 f13e bc78 b83f d69a 2040 6573 2b40
000001e0: ba4e 093f 06f3 cd3f 6693 5f3f 1603 093f
000001f0: 1909 9b3e 0969 4b3f 0aeb ce3f aff5 3840
00000200: 3a0b a33f 9672 373f d11e 053f c5ad 8a40
00000210: 6748 e83e ab66 0d40 d7a9 dd3e fd0b 1540
00000220: 9842 633f d083 7e3f 5b48 923e 3a73 ff3e
00000230: 9fac f63f acd3 ea3f 846f 1b3e 52db 6a3f
00000240: cae1 0c3e ce20 b63f 0a82 793f c397 1a3f
00000250: 2549 383d 3fee d13f c125 4640 80ba 833f
00000260: 7e94 bb3e 6354 e53f b881 f83e d347 433f
00000270: 8204 7e3f 7a2d ef3e e19c e23f 79f6 4b3e
00000280: 4457 d33e aeec 2240 f0b7 fe3e d765 893e
00000290: a1e9 183e 21e8 c43f fec4 c33f 38b5 0b3e
000002a0: 20fa 3b40 9d4c a53f c678 b93e 183f f840
000002b0: b25f a13f 9eb3 e03f 352a 263f c3e6 c83f
000002c0: a1c7 763e 929a 5840 4386 023e bd15 bf3f
000002d0: 78b2 8040 8d47 dd3e bc69 903f 214c b73f
000002e0: d52b f63e 24df c83f e82c 1540 2b31 d73d
000002f0: 0716 3c40 5832 083d 8234 543d df84 193f
00000300: 9cc6 823f b02c f93e 64eb a93f 7f45 a63f
00000310: 718e ad3f 2708 3640 114e 383e 1d74 2940
00000320: 8e02 973d 5928 883e a9cf 0440 bff3 1e3f
00000330: 1cf9 2840 c215 0c3e 1df1 a63f 1067 bc3d
00000340: 54ce 523e 83c1 7f3e 6e55 a140 3676 623f
00000350: 4b39 373f 2bf3 6c3f ff8c 623f 4050 c73f
00000360: 2a74 3540 f0f1 743f 7a8f 873f 9e51 4340
00000370: cef8 b53f 1a89 cd3f 417a bd40 64eb 6b40
00000380: e86c 383e 1ae1 0740 b699 8c3f b8e1 2540
00000390: ae0a 783f 5fb1 013f a1fc 8f3f a51c 3b40
000003a0: b400 823f 923c 8440 6774 0e40 3bdf 3f3f
000003b0: 44c7 f73f fd76 0040 7aaa 1240 33a2 0f3f
000003c0: eb77 cb40 1b2d 1540 8a80 1c40 b3cb 3c3f
000003d0: b28b ca3e d9ee 553f 7cc1 033f 020b c83f
000003e0: 5fbf d43f 8318 5440 9211 0c40 9678 2540
000003f0: 66cd 2f3f 362b 9d40 c9d3 9d3d c857 983f
0.8365722 2.0113075 1.6031885 0.57366276 0.25181186 1.601479 3.6458583 1.6104087
0.9973999 5.0492654 5.4551544 2.049429 1.2171736 2.8576078 0.26749218 1.7145046
0.83992887 1.4996921 0.4785202 1.4996948 1.0006572 1.6516433 3.5876956 1.510945
0.9861244 1.3819591 2.5369804 0.2301391 1.9809245 3.273091 3.9896228 0.086002305
2.5017657 1.5210669 1.1677716 1.4661951 2.0258298 1.8991421 0.44125104 0.3275286
0.8389374 0.16109891 0.645627 2.381219 1.4619061 0.07963374 2.3499439 1.7081444
3.2380638 0.44132212 0.0029062685 3.3028913 2.3593984 0.21543515 1.1002088 0.32897976
1.5781274 0.28400657 0.009360103 0.9344391 0.23940307 1.4453195 2.024351 2.7394276
3.3257062 5.7512183 0.8932635 1.2321746 4.9132657 2.2387807 6.064601 0.21387984
0.8853154 1.7054347 0.35881546 4.8422694 0.32827336 1.377733 1.9933603 0.17885338
1.2919247 1.0418844 2.9877002 0.31668043 2.09438 0.34679443 0.40337116 1.6458907
1.0992712 1.148762 0.43963343 0.9283011 0.64574736 0.5319926 0.055292785 1.5054457
0.3749766 1.1218758 0.9151168 2.407636 0.12026276 0.012829396 1.9552637 1.9553078
0.027017945 0.34280062 0.17518093 3.4211133 0.017651226 0.20917459 4.054157 1.1411312
1.3176341 2.1349225 0.74991906 0.43018445 0.47111678 1.4411845 2.5094504 2.6789181
0.5363575 1.608979 0.8733429 0.53520334 0.30280378 0.79457146 1.6165478 2.8899953
1.2737801 0.7165922 0.5200015 4.333712 0.4536774 2.2093914 0.4329364 2.3288567
0.8877349 0.9941988 0.28570828 0.49892598 1.927143 1.8345847 0.15179259 0.91740906
0.13758007 1.4228761 0.9746405 0.6038782 0.04499163 1.6400832 3.0960543 1.029129
0.36636728 1.7916378 0.48536468 0.7628147 0.9922563 0.46714383 1.7704126 0.1991824
0.41277516 2.5456958 0.49749708 0.2683551 0.14932872 1.538334 1.5294492 0.13643348
2.9371414 1.2914006 0.36224955 7.757702 1.2607329 1.7554815 0.6490815 1.5695423
0.2409959 3.3844342 0.1274653 1.4928509 4.0217857 0.4321865 1.1282268 1.4320108
0.48080316 1.5693097 2.3308659 0.10507425 2.9388444 0.033251137 0.051807888 0.5996837
1.0216861 0.48666906 1.327496 1.2989959 1.3559095 2.8442476 0.1799853 2.647712
0.07373534 0.26593283 2.0751746 0.6209068 2.6402044 0.13680175 1.3042332 0.09199345
0.2058652 0.24976163 5.0416784 0.88461626 0.715718 0.92558545 0.8849639 1.5571365
2.835215 0.9568167 1.059066 3.0518565 1.4216554 1.6057465 5.9211736 3.686242
0.18010294 2.123114 1.0984409 2.5919018 0.96891296 0.5066127 1.1248971 2.9236233
1.0156465 4.132394 2.2258546 0.7495 1.9357686 2.0072625 2.291655 0.5610687
6.3583884 2.330878 2.4453454 0.7374832 0.39559704 0.8356758 0.5146711 1.5628359
1.6620902 3.313996 2.1885724 2.585485 0.6867279 4.911525 0.077064104 1.1901789

bn1.running_var f4 [256]
00000000: 2596 cb3f 7b2d 0741 271e a840 00a2 a63f
00000010: f1f5 073f 8e07 a340 d57c b340 e7b1 0240
00000020: 40d9 1040 4474 d440 499c ee40 19ee c140
00000030: 163c 2340 7474 d740 d230 3e3e f899 2540
00000040: 4463 e43f 4cb8 a03f c895 0440 820c 8a40
00000050: 196d 8140 444d bb40 6bb0 ad40 fd02 d240
00000060: 8013 2d40 8eb6 9940 ba61 5141 4b94 e83e
00000070: 855a 7b40 f1c0 e540 4b26 e540 eea2 d23d
00000080: 4fb5 fd40 d577 c840 3e73 0141 a192 8540
00000090: b6af 5640 32ca 8940 e387 8f3f 7fbf 323f
000000a0: 3800 1640 0e11 003e b000 0040 80cd c240
000000b0: f00f 5140 69f1 d03d a207 be40 5e1b c43f
000000c0: 9c6e e940 a1be 523f 0cf6 ad3a b14c 1d41
000000d0: 70b7 0441 0cc9 fb3e b712 f33e 467a 2c3f
000000e0: 4364 6e3f 1582 a03e 7538 ae3b d330 4f40
000000f0: 59cd 013f faaa a340 d406 a440 df0e df40
00000100: 5622 9f41 9613 4141 a852 8c3f 689f 5d40
00000110: f7ee 3042 1438 8440 054b 6042 b89d 9e3e
00000120: dff9 3240 d5fb ae40 7438 683f 1ca9 0c41
00000130: 0ba4 af3f e1d4 cf40 cddc c840 881c e73e
00000140: ac5c 8a40 7045 a33f f261 5f41 7528 243f
00000150: 8b00 0f41 ec0f 5e3f 35b7 8d3f 0c08 2b40
00000160: b95c 3c40 22ba a73e 3d62 9f3f 9fe9 1b40
00000170: 43d3 e73f de19 8a3f 6b5a cd3d b827 8240
00000180: 0358 193f f992 5040 1827 fd3f 83ba b640
00000190: 983b 6d3e c5a0 843c 2e9d e340 81c0 d440
000001a0: a22e 713d 8d3f b23e 438b 033e e33c fc40
000001b0: 631c 353d f3ac fa3e d9b6 1f41 5271 8140
000001c0: f026 8540 5689 c640 04e4 2140 3f4e f33e
000001d0: a5bb 853f 0eb9 9840 321b 3041 1f69 b640
000001e0: e4a3 573f 49cc a140 32e6 4940 6e13 a03f
000001f0: da0d 103f 2fdf a93f 96e4 9e40 7c72 e740
00000200: c452 5540 880a ae3f 88a8 cf3f 17b4 1541
00000210: 5c0a f13f 76cf 1b41 de4c b53e fea1 0841
00000220: 9bce 8440 a280 1640 faf8 1b3f edf9 ff3e
00000230: b155 ac3f 612f 6d40 4a05 d53d 925a 3b40
00000240: 5ad4 543e 4ad3 9440 53be 0640 a4f4 ad3f
00000250: 1b3e 623d 8163 8c40 7b81 3b41 aa23 fe3f
00000260: c0db 493f dc66 0141 bca6 fb3f e15b 313f
00000270: 9d26 a340 b285 653f 54e8 0241 d7c7 a13e
00000280: 2b30 843f a98f f640 e85c 1d40 2c61 513f
00000290: 9f9a 2f3e 0d8e 0541 1904 d340 0f81 3d3e
000002a0: 4bc0 2040 53da 6b40 4bc8 5c3f f404 1a41
000002b0: 6b01 a040 d897 d740 dc55 d73f eb73 6240
000002c0: fc57 113f dbc8 0041 1a9e 2b3e 7782 c53f
000002d0: 722d b540 dbe7 8c3f 318b 5940 487f 5e40
000002e0: 008b b33f 4ace cb40 feb3 2041 5a24 2d3e
000002f0: de96 d340 380e 943d f6a5 8d3d b4cb d93f
00000300: f275 db3f 1524 3a3f 24a9 a740 64d0 d23f
00000310: 5979 9f40 fe52 3941 48b2 033e 5603 3841
00000320: a9e8 8d3d a3e5 d13e 635d 6340 2fc0 4c40
00000330: 84cc 4641 9b4e 6d3e 4ca8 9f40 8eba 3a3e
00000340: 6678 f23e 7270 363f 3e01 5341 a8b1 c53f
00000350: bc62 2640 102c 1e40 5c59 8e3f daee 1540
00000360: a620 9340 7d7b 4740 d518 4f40 dc11 8841
00000370: 6216 1b40 7f3f 933f cd4a 7542 4144 8240
00000380: 2d4a 913e bf27 8c40 8d52 7740 0308 1841
00000390: 6c7e 0140 4cb0 8d3f 5a97 2140 e44e 2d41
000003a0: f9bc 6340 356d 0242 5920 ab40 b69e db3f
000003b0: 1f6a c940 c05e 6541 d0ff 0241 7593 6e3f
000003c0: 1c94 3341 3c7f ff40 0c8e bd40 3084 9d3f
000003d0: 2ee1 8e3f 4783 2640 1db2 b23e e879 1a41
000003e0: 4130 c540 12c6 1141 eac6 8e40 5b6a da40
000003f0: 960d ab3f ce86 a041 1b70 c83d d2fb 9040
1.5905195 8.448604 5.2536807 1.3018188 0.5310965 5.094672 5.6089883 2.0421083
2.26326 6.6391926 7.456578 6.0603147 2.5505424 6.7329655 0.18573311 2.5875225
1.7842793 1.2556243 2.071642 4.314027 4.0445676 5.853182 5.4277854 6.562865
2.7043152 4.8035345 13.086359 0.4542564 3.9273999 7.1798024 7.1609244 0.102849826
7.9283824 6.264628 8.090635 4.174149 3.3544745 4.305932 1.1213344 0.6982345
2.3437634 0.12506506 2.000042 6.0875854 3.2665977 0.10202295 5.9384317 1.5320852
7.294752 0.82322127 0.001327218 9.8312235 8.294785 0.49176824 0.47475216 0.67374074
0.9312174 0.31349245 0.005316789 3.237355 0.5070396 5.114621 5.1258335 6.9705653
19.891766 12.067282 1.0962725 3.4628544 44.233364 4.1318455 56.07326 0.30979705
2.796501 5.468241 0.9071114 8.791286 1.3721937 6.494736 6.276953 0.45138955
4.3238125 1.2755566 13.961412 0.6412423 8.937633 0.86743045 1.1071535 2.6723661
2.9431593 0.32759196 1.2451855 2.436134 1.8111347 1.0789144 0.100270115 4.0673485
0.5989992 3.2589705 1.9777555 5.7102675 0.23167264 0.016189942 7.112937 6.648499
0.058882363 0.3481411 0.12846093 7.8824325 0.044216525 0.48960075 9.982141 4.045083
4.161003 6.2042646 2.529542 0.47520635 1.044789 4.7725897 11.0066395 5.700332
0.8423445 5.056187 3.154675 1.250593 0.56271136 1.3271235 4.9654036 7.232725
3.3331766 1.3596964 1.6223307 9.356467 1.8831286 9.73815 0.35410208 8.539549
4.1502204 2.3516011 0.60926783 0.49995366 1.3463651 3.7060168 0.104013994 2.927403
0.2078413 4.650792 2.1053665 1.3590283 0.05523501 4.3871465 11.719111 1.9854634
0.78850937 8.087612 1.9660258 0.6928082 5.0984635 0.8965713 8.181721 0.31597778
1.03272 7.7050366 2.4587955 0.817889 0.17148827 8.34718 6.59425 0.18506263
2.5117366 3.6852005 0.8624312 9.626209 5.000173 6.7372856 1.6823077 3.538325
0.5677488 8.049037 0.1675953 1.543044 5.6617975 1.1008257 3.3991206 3.4765186
1.4026794 6.368932 10.043943 0.16908398 6.6121664 0.072292745 0.0691642 1.701529
1.7145369 0.72711307 5.239397 1.6469846 4.983563 11.582762 0.12860978 11.500814
0.06929142 0.4099551 3.5525749 3.19923 12.424931 0.23174517 4.989294 0.18235227
0.47357482 0.7126533 13.187803 1.5444841 2.5997763 2.4714394 1.112102 2.3427033
4.5977354 3.1169121 3.2358906 17.00872 2.4232411 1.1503752 61.323048 4.070832
0.28376904 4.379852 3.8644135 9.501956 2.0233412 1.1069427 2.5248628 10.83176
3.558409 32.606647 5.3476987 1.715781 6.294204 14.335632 8.187454 0.9319375
11.2236595 7.9842815 5.9235897 1.2305965 1.1162469 2.6017625 0.34901515 9.654762
6.1621404 9.110857 4.4617815 6.825483 1.3363521 20.065823 0.097870074 4.53074

fcs1.weight f4 [256, 48]
00000000: ec7a 353c 68dd 1e3e 67a5 643b 2c79 71bd
00000010: 9d14 10be c46d 343e 772c 9abc 41a4 71bd
00000020: 6dd9 c53d f238 063e ae32 17bd 1658 993d
00000030: 2f77 90bd 195d 20bc 8a9d 273c 2e6a d33c
00000040: f429 c1bc b758 d83d 44f7 77bd b513 c2bd
00000050: e6c0 513e df14 b9bd 4272 2a3d 5170 893c
00000060: f795 9e3d a5eb 063e d550 8d3c d395 26bd
00000070: f5eb 5c3d d0a1 fb3d 0d7c fc3c 10bf 803c
00000080: c78c c5bc 78da 1a3e bd74 ad3c b36b b0bc
00000090: bb4a 953d a6bb 8fbc 8327 943c 756f 92bd
000000a0: e185 dd3b 14c3 bf3b b634 543d ebde 72bd
000000b0: 9a84 47be 456a afbc dd5b e73b f294 723c
000000c0: 494f 603d afb8 233e 561d 53bc cb1e 4c38
000000d0: d1b4 43bd e171 d83c 3626 1f3c fe8d 56bd
000000e0: 27b8 a43a 34d4 b13c 182a 50bc 50bb e4bd
000000f0: db86 afbd c7d3 663d 888d debc 37c0 3dbd
00000100: 3dd2 263c 9261 ec3d f2e8 1abe 724f 2fbc
00000110: f7f9 b23c 3f19 9a3d 6a48 2abe a9c9 6b3d
00000120: 47ac e9bc d6d3 13be 3263 9fba ac9f 8b3d
00000130: bf46 493b 871a fa3d ef4c efbc 4405 b13c
00000140: 54a3 e2bd 65a7 dbbd 7b08 6fbd 3c6b e23d
00000150: 96cd 303b 3514 e93d a1c2 233d 3ca3 f03c
00000160: f2ab 3ebc bcdd f6bd 9822 4e3c ba8d 99bd
00000170: 012e c5bb c72b 08bb cc74 803c 8a3a 833c
00000180: d1a2 3f3d 0c79 90bc 16de 9fbc 8d47 01be
00000190: af4d 993d fcfb 64bd 5a4e 04bd 990e 47bc
000001a0: e33e 913d 04dc 383c 07aa aeba 1c5f 54bd
000001b0: 7c4c 033e 2c3e a1bd c38f 023b 5a04 e33b
000001c0: e9e1 b73a b8ef 2abd 7edc e83c 30d9 e93d
000001d0: 404a 123e dbc2 c53d 154e b7bb 2e27 663b
000001e0: 5f87 4dbd 2eed eaba 3fb5 163d 9bdf 09bd
000001f0: e1c9 7abd cfe3 c1bd a331 1fbd 9763 093d
00000200: 842a 9fbc 99cd eb3c 73dd 083d c076 69bd
00000210: 764f 24be 7235 d4bd 8d82 45bd 9b1d 18bc
00000220: 178f b93c c20c 2e3e a3ef e63c d88b 583d
00000230: 6b54 36be 8b32 323e 9797 903d 530b 053d
00000240: 8cc4 ad3d 12da 143e fae3 da3a b951 9c3c
00000250: d666 263e 163b 473d ca63 c83a db5d be3c
00000260: 1b05 1abd 1671 bb3d 8478 503d 58d2 ac39
00000270: 3e0a 893c b587 a53d d4b5 68bd e1c5 0e3b
00000280: 36c1 a43c b15e a23d 750a cf3c 431e b4bb
00000290: c152 80bc aaa3 8b3d 1360 aebc f562 6f3d
000002a0: 5668 c13d 210b 5b3d 27d1 bb3b f2d0 cdbc
000002b0: 5e41 2fbe 88c6 383d 59d9 e3bc e068 14bc
000002c0: 12a9 b33d e4c1 3f3d c7f2 533b 68c4 fcb9
000002d0: c6dd 343c 2760 1f3e 1322 a7bb 620d 5abc
000002e0: 6e7e a53d 9929 b6bd 7289 123c 70a9 203e
000002f0: 0e23 713d f8c1 d73d b25a 873c da99 4c3e
00000300: 6db6 c43d e591 a7bd 5844 413d 72fe 8a3c
00000310: 6fc8 0abd 72de 993d a44e 2dbd bd82 0a3d
00000320: 51ec a83d 85b3 94bc 3bb4 d2bb a8c2 ff3b
00000330: d816 a2bd e770 f5bd 311b fb3c 2270 fc3b
00000340: 292b 183e 09ee f83c 1412 a03b eeed ac3d
00000350: 011e 26be 1d5a 32be bdfa 353d e015 7c3c
00000360: 44ee afbd 4048 2a3e 1ad6 7f3b ea6d 88bb
00000370: 8308 c93a b61d f23d 666a ebba 85cc 06bd
00000380: 5f4b 9bbd f0f3 0d3e f546 1e3c eb83 eb3c
00000390: 7838 583d db6a f9bd e917 80bc 3377 cbbc
000003a0: 8439 213d e671 d93d ecb7 e43c 37b5 063d
000003b0: fb54 263e dfc8 21be d262 07bd 2129 f33b
000003c0: e7b2 ad3b 96e3 703e f4b0 d43b 3037 e8bd
000003d0: 4ae3 31be 051e 973d 15f9 88bc 6c79 93bd
000003e0: efb1 7abd cf50 4c3e 4b34 163d 74b4 7abd
000003f0: 8ff5 10bd 0da7 cd3d 217d 85bd b123 a9bc
0.01107667 0.15514147 0.0034888627 -0.05895345 -0.14070363 0.17619997 -0.01882003 -0.058994535
0.09660611 0.1310766 -0.036913566 0.07487504 -0.070539825 -0.009787821 0.010230431 0.025807466
-0.023579575 0.10563796 -0.060538545 -0.09476415 0.20483741 -0.09037184 0.04161287 0.01677719
0.07743447 0.13175829 0.017250458 -0.040670227 0.053935964 0.12286723 0.03082087 0.015716106
-0.02411498 0.15122402 0.02117383 -0.02153573 0.07289644 -0.017545532 0.018085247 -0.07150165
0.0067603444 0.0058521125 0.05180808 -0.059294622 -0.19484177 -0.021412978 0.0070605115 0.014806019
0.054763112 0.1598842 -0.012885412 4.866607e-05 -0.04777986 0.02642149 0.0097137 -0.052381508
0.0012567089 0.021707632 -0.012705348 -0.111685395 -0.085706435 0.05635431 -0.027167097 -0.04632589
0.010181961 0.115420476 -0.15127924 -0.010700094 0.021847708 0.075243466 -0.16629186 0.057565365
-0.028524531 -0.14436278 -0.00121603 0.06817564 0.0030712334 0.12212091 -0.02921149 0.021608956
-0.110663086 -0.10725287 -0.058357697 0.110556096 0.0026978008 0.11380807 0.039980534 0.029374711
-0.011637675 -0.12054011 0.01258149 -0.07497735 -0.006017447 -0.0020778046 0.015680693 0.016019125
0.046786133 -0.017635845 -0.019515079 -0.1262495 0.0748552 -0.055904374 -0.032301284 -0.012149476
0.07092073 0.011282925 -0.0013325819 -0.051848516 0.12822145 -0.078731865 0.0019922114 0.006928009
0.0014029118 -0.04173252 0.028425451 0.11418378 0.14286137 0.09656306 -0.005594025 0.0035118568
-0.050177928 -0.0017923468 0.036793943 -0.033660512 -0.061227683 -0.09467279 -0.038865697 0.033542242
-0.019429453 0.02878456 0.033414315 -0.056998014 -0.16045937 -0.103617564 -0.048220206 -0.009284402
0.022651238 0.16997054 0.02819044 0.05286774 -0.1780564 0.17402093 0.070601635 0.032481503
0.08484754 0.14536312 0.0016700022 0.019081937 0.16250166 0.048640333 0.0015288529 0.023238113
-0.037602525 0.09152429 0.050896183 0.00032963115 0.016728517 0.08082525 -0.05681403 0.0021785425
0.020111661 0.07928217 0.025273541 -0.0054967715 -0.01566446 0.06818326 -0.021286046 0.058443982
0.094437286 0.05347741 0.00573172 -0.025124047 -0.1711478 0.04511121 -0.0278136 -0.009058207
0.08772482 0.046815768 0.0032340751 -0.0004821152 0.011039203 0.15564023 -0.0051004975 -0.013308855
0.08080755 -0.08894653 0.008943902 0.15689635 0.05887132 0.105350435 0.01652274 0.19980565
0.096051075 -0.08182124 0.04718432 0.016967032 -0.033882555 0.07513131 -0.042311326 0.033816088
0.08248199 -0.018152008 -0.0064301766 0.0078051873 -0.07914513 -0.11984425 0.030652614 0.007703797
0.14860214 0.030386942 0.0048849676 0.08443819 -0.16222383 -0.17417188 0.044428576 0.015386075
-0.085903674 0.16629124 0.0039037527 -0.0041634934 0.001533762 0.11822073 -0.0017960786 -0.03290989
-0.07582735 0.13862586 0.009660472 0.028749427 0.052788228 -0.12178584 -0.015636401 -0.024837112
0.03936149 0.106174275 0.027919732 0.032887664 0.16243355 -0.15799282 -0.033053227 0.0074206744
0.005300868 0.23524317 0.006490821 -0.11338651 -0.1737186 0.07378773 -0.016720334 -0.07200894
-0.061204847 0.19952701 0.036670964 -0.06120725 -0.035390433 0.10041628 -0.06518007 -0.020646902

fcs1.bias f4 [256]
00000000: aabe c4bc c7bb 71bd 2479 173d 0d21 57bd
00000010: ca3e 983d b67c 863d dc93 0cbd 3881 0cbe
00000020: dd66 fbbd afd3 943c 198d 4e3e 36cf 093d
00000030: 7b87 cbbc d822 edbc b437 ebbd 5879 b53d
00000040: 7712 103e 00ba cd3c 0632 8b3d 7ee0 d83d
00000050: 5600 293e 01aa bf3c aee3 87bd 5c94 90bb
00000060: 2c7a 363d 3f13 3ebe c0d5 36be 9c6f a63d
00000070: 0d0e debd 5108 72bd c839 eebd 0b46 6c3c
00000080: 7ddc 53bc 9549 6ebd cec3 fa3d 28e1 81be
00000090: 1060 00bd f850 f23c bcf0 e2bd f692 03bd
000000a0: 5b90 58be 8587 aa3c 1b6d d5bd c0d2 61bd
000000b0: a6fb 83bc 08e8 afbe ad13 f7bd ab8f 1cbe
000000c0: 92b5 34bc f3fd a43d 252e 55be 3fe3 0abc
000000d0: c8ab d6bb e96a 53be 54fb d23d 15b8 48be
000000e0: f8f4 63be 66a5 aabe 6594 26be de99 433d
000000f0: a03a 8bbd 2b67 3dbe 59ad 4f3e 9b7a 663b
00000100: 8c5f d8bd 7990 9c3a 8b88 6cbe 8a93 b5bb
00000110: 8255 49bd b344 973c eda1 1bbe 1f29 e83d
00000120: f492 3fbe 2387 d73c 0775 47bd 9ccf 86bc
00000130: 18d6 343e 0a20 36be 025a 0a3d 5914 cb3d
00000140: e70c cbbc e8a1 413c 5b1f 37be f9b2 5bbe
00000150: 3332 6f3d fdf2 94bc 0d6f aabc 0574 28be
00000160: 0ffb 413d cd9f b13c 6030 29be 8098 6ebe
00000170: 0874 bfbe bbe5 eb3d faf5 cd3d c488 b4bd
00000180: 9384 d1bd a90a 213d d897 4d3c 5d96 c43c
00000190: b181 3dbe 3905 95bd aff8 e0bd 03a8 f5bd
000001a0: 307b c4bd aa5a 7dbc 21f0 2cbe a745 c73d
000001b0: acf0 5abe 43fe 6bbd 819d 80bd 28b6 fc3c
000001c0: 346d 3cbc 4edb 5cbd eca9 b33d 31a6 d9bd
000001d0: e887 6d3e 63f6 d93d e41c 6e3c bbd7 c43d
000001e0: c12d 6f3c 5b74 f2bd d4db a33c d891 913a
000001f0: 1875 0dbe cd4c bcbd 2111 033d 34e3 843b
00000200: c20f f0bd 2b1b 18bd 7204 d8bc b6b3 233e
00000210: 140c 2b3c fb4d 03bd a31e 0dbe 6a27 293e
00000220: 3c1e 86bd 678b 1a3d d36b c13b a944 c53d
00000230: 83b4 103e a84b 06bd 809a cdbd 6b59 923d
00000240: 94ab 81bc 7c2a 1dbe 23ca 08bd 0080 60bb
00000250: b96f 773d 0afa d4bd 2466 e4bd 2f98 b0bc
00000260: 9b14 163e 66bf a03d f291 98bd a167 f6bc
00000270: f00b 1bbe 177d 633d 68dd bebb e9d9 81bd
00000280: 2718 643e fe9e 553e b816 8fbc 2a82 32bd
00000290: a7a1 f7bd 375e 7f3e 1f74 93bd 2f4a e0bd
000002a0: 26db b53d 131f cc3d 668c 3dbc 9210 393e
000002b0: b5d8 5d3d 8085 45be ddc5 abbd 9456 bfbd
000002c0: 73e6 9bbe 9ce4 db3d 7c78 023e 1d7f c3be
000002d0: 4e54 a13e 4104 0fbd 3413 bc3d 637a 1e3e
000002e0: 87a1 633e 85c7 ff3c e471 083e 0a5b 8cbc
000002f0: 15a1 5cbd e9a8 6f3e 0bc1 dbbd 333c 17be
00000300: 0e12 14be 7b55 90bc 49bd dabc 8610 66be
00000310: 9fce a0bd 59f8 33bd beb8 32be a5a2 943c
00000320: 35c0 a4be 1a16 643e d43e 09be 2068 213e
00000330: 1496 973d 2481 ad3d b842 a5bd 84bb 30be
00000340: ddf8 f43d a341 983d 5c60 bcbc a1d6 54be
00000350: 8092 c43d acfd 00be 1f69 4a3c 2e52 adbc
00000360: 83a6 e1bd 2d87 99ba 173e b1bd f8a8 4cbe
00000370: 57e1 393e 6828 4d3d 1ee2 bdbc 0dc9 aa3e
00000380: 5c09 65be bbe5 9a3d fcf4 05bd b4c3 3ebe
00000390: 4164 7cbd 7cef 98bd de2a 02be a9c9 0e3e
000003a0: bc4c ca3c ab92 0cbe cdef 043d 1f6d ba3d
000003b0: e9c6 49bd bd3a eb3d c3bb a73c a025 38be
000003c0: 386a d63d 17de 4c3d 4c91 983c 04ff b7bd
000003d0: 94c6 f1bc 78eb 8f3d 0b22 b8bd eefd 8fbc
000003e0: dafb 963d 4cb5 7ab9 5ddb c83d 7f30 c7bd
000003f0: d326 79bd dc47 c83d d3e0 28be ee24 d6bd
-0.024016697 -0.05901697 0.036980763 -0.052521754 0.07433851 0.065667555 -0.034320697 -0.13721168
-0.12275479 0.018167345 0.20171012 0.033644877 -0.024844876 -0.028947279 -0.11485234 0.08861035
0.14069544 0.025113106 0.067966506 0.105896935 0.16504034 0.023396494 -0.06635223 -0.004412217
0.044550106 -0.1856203 -0.17854977 0.081267565 -0.10842524 -0.059089962 -0.11632115 0.014420996
-0.0129309865 -0.058175642 0.12244378 -0.25367093 -0.031341612 0.029579625 -0.11081073 -0.032122575
-0.21148817 0.020816574 -0.10421201 -0.055132627 -0.016111206 -0.34356713 -0.120643 -0.1528918
-0.011029618 0.080562495 -0.20818384 -0.008477031 -0.0065512396 -0.20646252 0.10301843 -0.19601472
-0.22261417 -0.33329314 -0.16267546 0.04775416 -0.06798291 -0.18496387 0.2028097 0.0035168293
-0.10565099 0.0011944912 -0.23098962 -0.0055412697 -0.049153812 0.018465376 -0.15198489 0.11335968
-0.18708402 0.026309555 -0.04869559 -0.016456418 0.17659795 -0.1778566 0.033777244 0.099159904
-0.024786426 0.011818387 -0.17883055 -0.21454991 0.058397483 -0.018182272 -0.020804906 -0.16450508
0.04735857 0.021682644 -0.1652236 -0.23300362 -0.37393212 0.11518427 0.10056682 -0.088151485
-0.10230365 0.039316807 0.012548409 0.02399748 -0.18506505 -0.07276387 -0.10984933 -0.11994936
-0.09593809 -0.0154635105 -0.16888477 0.09730082 -0.21380872 -0.05761553 -0.062800415 0.030848578
-0.011500645 -0.053920083 0.087726444 -0.106274016 0.23196375 0.10642698 0.014533255 0.0961146
0.014598311 -0.11838599 0.020002283 0.0011106087 -0.13814199 -0.09194336 0.031998757 0.004055405
-0.117217556 -0.037135284 -0.026369307 0.15986523 0.010439891 -0.03205679 -0.13781218 0.16518942
-0.065487355 0.0377306 0.005902746 0.096322365 0.1413136 -0.032786995 -0.10039234 0.071459614
-0.015828885 -0.15348238 -0.033395898 -0.0034255981 0.06040928 -0.10399254 -0.11152294 -0.021556942
0.14656298 0.07849006 -0.07449712 -0.030078711 -0.15141273 0.055539217 -0.0058247335 -0.06340391
0.22274838 0.20861432 -0.017466888 -0.043581165 -0.120913796 0.24938284 -0.07199883 -0.109516494
0.0887969 0.099668644 -0.011569118 0.18072727 0.054161746 -0.19289207 -0.08387349 -0.09342685
-0.30449256 0.10736963 0.12741274 -0.38182917 0.31509632 -0.034916166 0.0918335 0.15476374
0.22229587 0.031223068 0.13324696 -0.017133255 -0.053864557 0.23404278 -0.107301794 -0.14769058
-0.14460012 -0.017618885 -0.026701586 -0.2246724 -0.0785191 -0.043938015 -0.17453286 0.018143961
-0.32177892 0.22274056 -0.13402873 0.15762377 0.07401672 0.08471897 -0.08069366 -0.17259032
0.119615294 0.07434394 -0.022995166 -0.20785 0.09598255 -0.12596768 0.012354164 -0.02115735
-0.11018088 -0.0011713259 -0.08654421 -0.19986331 0.18152367 0.050087363 -0.02317911 0.33356515
-0.22366852 0.07563349 -0.03270434 -0.18629342 -0.061619047 -0.07467553 -0.12711665 0.13944115
0.024694793 -0.13727824 0.032455254 0.091028444 -0.04926196 0.11485813 0.020475274 -0.17983103
0.10469478 0.05001649 0.01862397 -0.08984187 -0.029513635 0.07027334 -0.08990868 -0.017577138
0.073722556 -0.00023909396 0.09807465 -0.09726047 -0.06082804 0.09779331 -0.16492014 -0.104562625

fc2.weight f4 [128, 260]
00000000: 2ed2 8bbd b763 4cbd 4564 8f3d e650 603d
00000010: c966 463d 834c 063c f66b e93c ec80 353d
00000020: c6b1 823d 4522 46bd 1224 4c3c 0951 263e
00000030: a711 4ebd d788 54bd eb53 2fbd 8c10 c03c
00000040: b1ba 0e3d 87a2 2d3d 923d fbbc d91b 15bc
00000050: e894 33bb 1494 f7bc a64a 2e3d 4018 9f3d
00000060: cbfd 293d ec58 78bd 5935 e33c 4210 c1bb
00000070: 530f 853c 840a 2abd fb8c 153d 079b d13d
00000080: baec 3abc 9862 a63c 9131 d13c 3d2a c9ba
00000090: 55e2 77bc 84f5 b63b 5422 68bc 0001 d83d
000000a0: 55d0 98bc 153e 65bd 6666 4c3d 071d c4bc
000000b0: 7ee5 523d af12 d2bd f090 1abe ee39 babc
000000c0: ee1f 16bc 58a1 3ebd e26d 15bd 5aa8 3a3c
000000d0: 50d5 95bd 9ff9 2d3d b5c0 2b3d ede2 02be
000000e0: fcf8 153d 41b4 8b3d 2164 9cbd c809 893c
000000f0: 5157 9bbc 9fa3 0fbd 812e dcbc 36b6 e13b
00000100: f4ce 82bd 6e88 aaba f207 bbbb 3116 8f3d
00000110: b51e 5b3e bd91 8bbd a58d 99bd f388 f13d
00000120: e7f9 b2bd 296f 313d f3ff 69bd 9e3b 5e3d
00000130: 0ea6 1b3d 41ea ccbc bc6a bebd d89b 93bc
00000140: 178d c13d 458b 663c ca6e 493c 0c5e 26bd
00000150: f53b f33c 6dc6 97bd 3800 853d 9904 62bd
00000160: a256 82bd deeb 953c 8d8d 22bd 48b3 51bc
00000170: 8d49 f0bc 7e44 d5bd fc0d 23bd db8d 433d
00000180: 7892 2abd e1e6 2dbd ea40 40bd ad63 023d
00000190: 74ee f1bd 6dcd 643c f552 623c def8 cfbb
000001a0: cba0 353d c1e4 26bd b960 c33d 25db a93a
000001b0: 3815 62bb 1c2e 73bd e5a4 9a3b 5748 963d
000001c0: 97b1 c7bd 5b0b 5d3d 2fc2 80bd 6520 4fbd
000001d0: 4b68 0e3c de70 f43c ad62 973d 938c ab3c
000001e0: e797 10bc ff78 f23c ddc4 b53b ddf1 683a
000001f0: 8412 173d 5f32 82bd dc38 253d d354 83bd
00000200: 185a c23b 69f6 313d e705 94bc c6cc 293b
00000210: 7e66 d53c f7f4 c4bd fdbe 323d c3c0 753c
00000220: d0d9 2abd dc1b 1e3d 2e06 12be ae7f ab3d
00000230: f5c4 91bb f2b4 56bd 6f69 97bd f43b 8c3c
00000240: 541d 1fbc 5fd6 13bc b555 a83c e657 85bc
00000250: ac93 d1bc 87c6 e53c a882 6a3c a9e7 083d
00000260: 7c56 30bd b696 c13c 982c 2abc 17bd 66bd
00000270: b80d e93b 63fc 0bbd fe1e b93b 3479 bc3d
00000280: 647b 88bd 47ec 9fba 30a8 1c3d b279 52ba
00000290: c1c0 29bd 67cf 1fbd 9e26 b7bc 4368 12be
000002a0: d940 2d3d e360 083d 6270 023d 130f fc3d
000002b0: 6a49 fd3c 9ef8 a63d 47ab ba3c 00b7 96bc
000002c0: d7bd 3fbd 1f37 68bb e762 9fbd b593 033e
000002d0: d6b8 4b3c 01c2 4a3d b74a f4bb aa86 173d
000002e0: 770d 293c a7e9 3dbc 9308 6fbd a153 e23c
000002f0: e9f5 90bc 53d1 17be 391e ad3d 1c09 83bd
00000300: 2376 8a3d d0d0 2ebc b532 71bd aefe 78bd
00000310: 9dd7 133d eab8 04bd 8767 383d 04a0 a7bd
00000320: d02d 99bd 10fd 3ebd 605d debb fecf 2f3d
00000330: 51e1 a73c 1f7d 3c3b 875d 183c 51b0 473d
00000340: 740b c73d 9ba8 abbc 5804 c23d f77e ec3c
00000350: 2271 d4bc 80fb 6b3c cbf2 b43b 3e7a b53d
00000360: 382e f0bd a8d4 743d 9972 4d3c 610e d63d
00000370: c4e9 53bd 22e3 913d 87d2 0cbe 4350 9dbd
00000380: 5c18 d13b dd12 59bd 9296 de3c 1731 2abd
00000390: dd80 4ebd 5576 07bc d03a fa3c 4dc4 5a3d
000003a0: 7c75 88bd 68df 2ebe ec08 c4bc e7c6 153d
000003b0: 293a a8bd 0f58 3dbd a205 c13d d10a 1e3d
000003c0: 311b 4a3c 9dc6 a83d ccbc bfbc 94c0 453c
000003d0: 146b 4fbd 885c 1b3d 2263 9abd a28a 083d
000003e0: 3e93 ec3b d2e0 ab3d db17 683b f34a 863d
000003f0: c06c a43d 3078 9c3c 0ebe 313b 698c 693c
-0.06827198 -0.049899783 0.07001547 0.05476465 0.048437867 0.008196953 0.028493863 0.044312403
0.06381564 -0.048372526 0.012459772 0.1624185 -0.050309803 -0.051888313 -0.04280464 0.02344539
0.03484601 0.042391326 -0.030669007 -0.009100878 -0.0027401987 -0.030221976 0.04255166 0.07768297
0.0415018 -0.060631678 0.0277354 -0.0058918307 0.016242659 -0.041513935 0.036511403 0.10234647
-0.011408979 0.020310685 0.02553633 -0.0015347671 -0.015129645 0.005583467 -0.014168341 0.10547066
-0.018654028 -0.05596741 0.049902342 -0.023939623 0.051488392 -0.1025747 -0.15094352 -0.022732701
-0.009162886 -0.04654059 -0.036481746 0.011392677 -0.07316077 0.042474385 0.041931827 -0.12781878
0.036614403 0.0682149 -0.076362856 0.016728297 -0.018962534 -0.03506815 -0.026877644 0.0068881763
-0.063871294 -0.001301063 -0.0057077343 0.069866545 0.21398433 -0.06814907 -0.0749772 0.11793699
-0.08739071 0.0433189 -0.057128858 0.054256074 0.03800016 -0.025014045 -0.09297702 -0.018018648
0.09450739 0.01407129 0.012294481 -0.040617034 0.029691676 -0.074108936 0.06494182 -0.055180166
-0.0636418 0.018300947 -0.039685775 -0.012799092 -0.029331947 -0.104134545 -0.03980826 0.047742706
-0.04164359 -0.04245651 -0.046936907 0.03183334 -0.118130594 0.013964993 0.013813724 -0.006346806
0.044342797 -0.0407455 0.09539933 0.0012958987 -0.003449751 -0.059370145 0.004719364 0.073380165
-0.097506694 0.053965908 -0.062870376 -0.050568003 0.008691858 0.029838976 0.07391868 0.020941054
-0.008825279 0.029598711 0.0055471496 0.0008886138 0.036882892 -0.06357264 0.04033743 -0.06412663
0.00593115 0.043447886 -0.01806922 0.0025909408 0.026049849 -0.09617036 0.043639172 0.014999571
-0.04171163 0.038600788 -0.1426017 0.08373962 -0.004448528 -0.052418657 -0.07393157 0.017118432
-0.009711582 -0.009023278 0.02054868 -0.016277265 -0.02558311 0.028048767 0.014313377 0.033424053
-0.043051228 0.023631435 -0.010386609 -0.056332674 0.007112231 -0.03417624 0.0056494465 0.09202805
-0.0666416 -0.0012201153 0.038246334 -0.0008028998 -0.04144359 -0.039016154 -0.022357281 -0.14297585
0.04229817 0.033295523 0.031845458 0.12307563 0.030918796 0.08152889 0.02278675 -0.018397808
-0.046811905 -0.0035433245 -0.07782536 0.12849315 0.012434205 0.049501423 -0.0074551958 0.03699366
0.010318152 -0.011591352 -0.058357786 0.027627768 -0.017695384 -0.14825945 0.0845303 -0.06398222
0.06760814 -0.010669902 -0.05888625 -0.060789756 0.036094297 -0.03240291 0.045020606 -0.081848174
-0.07479441 -0.046628058 -0.0067860335 0.042922966 0.020493181 0.0028761101 0.009299642 0.048752133
0.097189814 -0.02095442 0.09473485 0.028869135 -0.025932852 0.014403224 0.0055221072 0.088612065
-0.117275655 0.059773117 0.012539529 0.10451961 -0.05173661 0.071234 -0.13752185 -0.07681324
0.0063810777 -0.052996505 0.027171407 -0.041550722 -0.050415862 -0.008267959 0.030545622 0.053409863
-0.06663033 -0.1707741 -0.023930036 0.03656664 -0.08214218 -0.046226557 0.094249025 0.038584534
0.0123355845 0.082410075 -0.023405455 0.01206984 -0.050639227 0.03793004 -0.07538439 0.033335336
0.007219701 0.083924904 0.003541461 0.06557264 0.08028555 0.019100279 0.0027121338 0.014254668

fc2.bias f4 [128]
00000000: 4468 48bd d9f8 c2bd 6cb5 26bd 3b9d fcbd
00000010: fb7d 7dbc d672 87bc 5f8c 01be 0c8a ddbd
00000020: 8be1 89bd 8892 32bd ebe3 2c3b 4400 1dbe
00000030: 3c88 e9bd 28d6 17be 04f2 e9bd 47b0 29be
00000040: 4c2a e0bd 9c0c 96bd d1c3 05bd d202 f6bd
00000050: 3574 2abe be88 a6bd 57cc 19be f9fa 5cbe
00000060: d099 ebbd aed8 03be 43ea 52bb 2de0 35be
00000070: afc2 a6bd 3e75 b5bd 0bfd babd e63e 35be
00000080: 7b49 01be dc70 35bd 1876 01be 0be6 083d
00000090: 11bf c33c 0680 50bb 19ac b8bc 2412 463b
000000a0: 82c0 82be b91b 49be fe9a b9bd eddc 22be
000000b0: c15e 0dbe 62bf 02be 456d 71be e89e b3bc
000000c0: 6ad7 c6bd 52e0 113d a841 0ebe a801 24bd
000000d0: fab8 c8bd 8f69 3dbd e25e aabd 2589 0abe
000000e0: 76da ddbc ea5f 35bd 2d21 70be 6f2e bfbc
000000f0: ada1 e6ba e475 42bc 03f1 03be 9ea2 b2bd
00000100: cec9 d7bd a15e 96bd 0125 bcbd ae6f b3bd
00000110: 277b 79be 7cb6 abbd 190e 34be 0075 a1bd
00000120: f4b9 debd 781e 2ebb 5238 1ebd b9d8 253d
00000130: c967 61bd f84e 2dbe 10ae 1dbe 56d0 e2bd
00000140: a30c b2bd 940f f4bd aceb 05be d3ce cdbd
00000150: 72a3 ecbc 6549 063d 754d ce3b f5ea 29be
00000160: a389 16be f5f6 0dbd d77e 3dbe a142 d9bd
00000170: 139b 02bd 9f7a 1cbe 4de9 cbbd bf14 21be
00000180: 8852 c2bd 6f01 12be 77fe 96bd 6220 54bd
00000190: 4446 d9bd c39e 2fbd 23a6 14be 4646 08be
000001a0: 985d e8bd 5fdd 07be 94c6 bebd 7959 b6bd
000001b0: c37b 3fbd aab9 97bd d1ae adbc f369 eabd
000001c0: fd6b f3ba 8811 06be 544f cbbd 72b8 16be
000001d0: 1d8e eebd 8be0 f0bd 0417 e2bc 96b5 283c
000001e0: e668 44bd fc70 59be 9f49 10be 00d3 2fbe
000001f0: b777 81bd 1832 5ebc 6b32 04be 03ce ebbd
-0.04892756 -0.0952012 -0.04070036 -0.12334677 -0.015471931 -0.01653425 -0.12651204 -0.10817346
-0.06732472 -0.043596774 0.0026380967 -0.15332133 -0.11402938 -0.14827788 -0.11423114 -0.1657115
-0.109455675 -0.07326624 -0.03265745 -0.12012257 -0.16645892 -0.0813155 -0.15019356 -0.21580113
-0.11503947 -0.12875625 -0.0032183088 -0.17761298 -0.08142602 -0.08860253 -0.09130295 -0.17699775
-0.12625687 -0.044297084 -0.12642705 0.03342251 0.023894818 -0.003181459 -0.022543 0.0030223215
-0.25537497 -0.19639482 -0.090627655 -0.15904589 -0.13805677 -0.12768319 -0.2357684 -0.021926358
-0.09709056 0.03561432 -0.13892233 -0.040040642 -0.098009065 -0.046243247 -0.08318879 -0.13528879
-0.02708171 -0.044280924 -0.23450156 -0.023337571 -0.001759579 -0.011868928 -0.12884907 -0.08722423
-0.10536538 -0.07342268 -0.091867454 -0.087615356 -0.24363385 -0.083844155 -0.17583503 -0.07883644
-0.108753115 -0.0026568454 -0.03862793 0.040489886 -0.055030618 -0.16924655 -0.15398431 -0.11074893
-0.086938165 -0.11917034 -0.13078183 -0.10049214 -0.02888653 0.03278484 0.0062958547 -0.16593535
-0.14700942 -0.034659345 -0.18505417 -0.106084116 -0.03188617 -0.15281151 -0.09956608 -0.1573057
-0.09488398 -0.1425836 -0.07372754 -0.051788695 -0.10609105 -0.042876016 -0.14516501 -0.13308057
-0.113459766 -0.1326804 -0.093152195 -0.08903784 -0.046748888 -0.074084595 -0.021201523 -0.114459895
-0.0018571612 -0.13092625 -0.0992724 -0.14718798 -0.116482 -0.11761578 -0.027598865 0.0102972
-0.0479516 -0.21234506 -0.14090584 -0.17170334 -0.06321662 -0.013561748 -0.12909858 -0.11513903

fc3.weight f4 [1, 128]
00000000: cbff 003c b94f fa3b 5b50 47bd 6428 41bc
00000010: e2f4 a7bc f31e 143c ad2a 733c 0687 74bc
00000020: cb81 cf3d 7d8d 333c 105d 313c 3c01 3a3c
00000030: 0c82 86bc b5c9 0dbd aa08 343c 9149 96bc
00000040: a989 c1bc f547 a6bc 86a1 1f3c 0d91 0c3c
00000050: 28de 83bc 265f 66bc b912 88bc fd15 17bd
00000060: 877e 25bd 85f4 ddbc 42fe 323c 9daf ecbc
00000070: 4a4e 3e3c a1e2 aabc ab2e 5ebc 6671 ea3c
00000080: 727e 703c eb39 c3bc 5d1d d73c e3ae c43c
00000090: 832f 0d3c 5abf 23bc 4cb5 73bc 61fd 0f3c
000000a0: e3ab b1bc 06a2 1b3d cfa2 c03c 0b17 4fbd
000000b0: 4deb e4bc b097 e1bc d26f 80bd 8da8 1a3c
000000c0: f665 09bc 12e0 e63b 737e a7bc 72b3 32bc
000000d0: a607 603c 5ad9 333c 638c 05bd 095a 253c
000000e0: d6e8 173c 303a 9b3c 11b3 02bd a2a0 0d3c
000000f0: ff6f 763c a3c8 47bc f2f3 94bc d337 82bc
00000100: f6f9 00bc cd1c 583c 6b1d 6f3c 5656 1abc
00000110: 7cbd f5bc 0d27 f73c 05b8 d1bd d1a1 343c
00000120: 9c8b 8dbc 3e96 1abd f3e1 7a3c 64f4 2c3c
00000130: ea33 e23c ff79 a2bd cfc1 08bd 0279 713c
00000140: 640c 38bc ef5b 22bc 8d0a 5e3d fd13 7dbc
00000150: c6a6 57bc b5b5 f0bb 0c34 37bc 6b7c 1abc
00000160: 1668 1cbc e19b 0c3c f959 90bc 2f26 78bc
00000170: e34a 673c bedb cdbd 9db4 99bc ceff 0c3e
00000180: 0038 6cbc 5718 adbc 57f2 353c 4dbc 06bc
00000190: 11f4 7c3d fc99 ee3b 5656 7b3d f5c4 863c
000001a0: c069 b13c e9c6 ee3c c781 593c ed5f 623c
000001b0: 5fec 3a3c 0d0b 2dbd 7bba 0b3c 858c 8abc
000001c0: 4a44 703c 08c4 033d 7fce 9abc 3b2b 6dbc
000001d0: 2bab b0bc 6976 98bc bec1 a1bb 06dc 1e3c
000001e0: 05be 62bc 5d1a 0bbd ecfe 123d 73b5 64bd
000001f0: c45c 0abc 4e31 2a3c b868 ad3c 6fda 10be
0.007873486 0.007638898 -0.048660617 -0.011789415 -0.020502511 0.009040582 0.014841718 -0.01492477
0.10132178 0.010959026 0.0108254105 0.011352833 -0.016419433 -0.03461619 0.010988394 -0.018345626
-0.023625212 -0.020297984 0.0097431 0.008579505 -0.016097143 -0.014060771 -0.01661049 -0.036886204
-0.04040387 -0.027094135 0.010924878 -0.028892333 0.011615345 -0.020860018 -0.013560931 0.028618526
0.014678584 -0.023831328 0.026259119 0.024009174 0.008617285 -0.009994352 -0.0148747675 0.008788438
-0.021688407 0.037996314 0.023515133 -0.050559085 -0.027944231 -0.02753815 -0.06271328 0.0094396
-0.008386126 0.007045754 -0.020446038 -0.010907041 0.0136736985 0.010977114 -0.032604586 0.010092267
0.009271821 0.018948644 -0.031909052 0.008644255 0.01504135 -0.012193832 -0.018182728 -0.01589576
-0.007872095 0.01319046 0.014594416 -0.009419998 -0.02999758 0.030169988 -0.10240177 0.011024908
-0.017278485 -0.03774094 0.01531266 0.010556314 0.027612645 -0.07933425 -0.033387955 0.014738323
-0.011233423 -0.009909614 0.05420928 -0.01544666 -0.0131623205 -0.00734588 -0.011181843 -0.009429078
-0.0095463 0.008582086 -0.017621027 -0.015145822 0.0141169755 -0.10051678 -0.018762881 0.13769457
-0.014417648 -0.02112977 0.011105142 -0.008223605 0.061756197 0.00728154 0.061361633 0.016451338
0.02165687 0.029147582 0.01327557 0.013816816 0.011408894 -0.042246867 0.008528347 -0.016912708
0.014664719 0.03216937 -0.018897293 -0.014475639 -0.021565994 -0.01861115 -0.004936426 0.009696012
-0.0138392495 -0.03396069 0.035887644 -0.055837106 -0.008444969 0.010387732 0.021168098 -0.14145826
