checkpoint_actor_0.pth (torch, 165316 bytes, 10 tensors)

bn1.weight f4 [256]
000000 19 6b 95 3f df a3 b2 3f b4 1f 9c 3f 01 a7 a3 3f
       1.1673309 1.395626 1.2197175 1.278534
000010 c9 a3 92 3f c9 b0 8e 3f 94 74 9d 3f 2e cb 82 3f
       1.1456233 1.11477 1.2301202 1.0218256
000020 f5 1b 8e 3f 72 18 8c 3f 80 16 9f 3f 31 73 8e 3f
       1.1102282 1.094496 1.2428741 1.1128904
000030 43 af 84 3f 76 29 91 3f 7e 63 99 3f 93 57 7b 3f
       1.0365986 1.1340778 1.1983488 0.981805
000040 36 cc 8e 3f 85 4b 89 3f dd 68 96 3f cc 9e 94 3f
       1.115607 1.0726172 1.1750752 1.1610961
000050 fa 22 a9 3f b2 36 8e 3f a9 4d 98 3f 90 3c 9b 3f
       1.3213799 1.1110442 1.18987 1.2127857
000060 86 39 88 3f eb ff 85 3f ad 22 95 3f cb fa 92 3f
       1.0642555 1.0468725 1.1651207 1.1482786
000070 e2 4b 90 3f 48 08 87 3f 8f f2 9f 3f ae 30 9e 3f
       1.1273158 1.0549402 1.2495898 1.2358606
000080 75 53 8a 3f a8 64 86 3f 29 7e 93 3f 6c 46 a6 3f
       1.0806719 1.0499468 1.1522876 1.2990241
000090 50 4e 96 3f 20 93 80 3f ba ed 86 3f 30 af 9e 3f
       1.1742649 1.0044899 1.0541298 1.2397213
0000a0 a1 a6 80 3f 3e 95 9b 3f 8a 84 84 3f 7a 06 82 3f
       1.0050851 1.215492 1.0352948 1.0158226
0000b0 5a 8a 88 3f f7 c0 a5 3f 01 07 92 3f 47 65 93 3f
       1.0667222 1.2949513 1.1408387 1.1515282
0000c0 bb 87 88 3f 78 59 8b 3f db 09 8d 3f 9a 85 bd 3f
       1.0666422 1.0886679 1.1018633 1.4806397
0000d0 05 38 8e 3f 9d a9 9d 3f 92 b7 8a 3f 84 09 88 3f
       1.1110846 1.2317387 1.0837271 1.0627904
0000e0 b9 da 9a 3f 26 73 87 3f 11 51 8d 3f 44 11 8c 3f
       1.2097999 1.0582016 1.1040365 1.0942769
0000f0 4e 4f 99 3f 30 12 82 3f 8e 09 89 3f 01 22 99 3f
       1.1977327 1.01618 1.0706041 1.1963502
000100 f3 71 90 3f d1 38 93 3f e4 c2 8f 3f 6d a2 98 3f
       1.1284775 1.1501714 1.1231351 1.1924568
000110 a3 b0 81 3f 9c 2e 8f 3f 17 af 9b 3f 04 f2 90 3f
       1.013203 1.1186099 1.2162808 1.1323857
000120 2f 0d 9c 3f cc 3d 95 3f a5 f5 b2 3f c4 e9 aa 3f
       1.2191523 1.1659484 1.3981215 1.335259
000130 12 f8 89 3f 53 0b 8b 3f a5 a5 8c 3f a3 ca 90 3f
       1.077883 1.0862831 1.0988051 1.131184
000140 bf 90 90 3f 9b 15 77 3f 7c 05 87 3f 36 db af 3f
       1.1294173 0.9651734 1.0548549 1.3738773
000150 12 d2 a4 3f a5 d8 a1 3f 0d 06 96 3f 8c 9d b5 3f
       1.2876608 1.264424 1.1720597 1.4188704
000160 82 79 85 3f de fb 8a 3f 31 df 9e 3f 63 bd 8e 3f
       1.0427706 1.0858114 1.2411863 1.1151546
000170 5f 37 92 3f 94 05 93 3f e9 bd 8f 3f 48 9f 8a 3f
       1.1423148 1.1486077 1.1229831 1.0829859
000180 df e5 96 3f f6 57 97 3f 11 f7 8f 3f ba 6a 9e 3f
       1.1788901 1.1823719 1.1247274 1.237632
000190 cc b1 83 3f 71 7a 98 3f da 47 90 3f 9d 84 94 3f
       1.0288634 1.1912366 1.1271927 1.160297
0001a0 7a 83 8a 3f f1 d6 a0 3f 1a dc 91 3f a0 95 7d 3f
       1.0821373 1.2565595 1.1395295 0.99056435
0001b0 5e 2c a4 3f 2e c4 87 3f ca a3 91 3f 59 11 a8 3f
       1.282604 1.0606744 1.137811 1.3130294
0001c0 a1 84 95 3f f7 9f 89 3f 81 e9 95 3f 37 76 8d 3f
       1.16811 1.0751942 1.1711885 1.1051701
0001d0 56 14 89 3f a9 9e 97 3f 5f 82 a1 3f fa e2 96 3f
       1.0709331 1.1845294 1.2617911 1.1788018
0001e0 cc 65 9f 3f 1d 32 91 3f 89 14 86 3f d5 09 8e 3f
       1.2452941 1.1343418 1.0475017 1.109675
0001f0 8b e4 96 3f 99 c0 95 3f c8 e4 88 3f 60 06 83 3f
       1.1788496 1.1699401 1.0694818 1.023632
000200 bc 59 99 3f f1 96 90 3f f7 4f 8c 3f fa 56 98 3f
       1.198051 1.1296064 1.0961903 1.1901543
000210 86 f4 a4 3f b0 1b 90 3f c8 e5 88 3f 9e 46 94 3f
       1.2887123 1.125845 1.0695124 1.1584051
000220 7d ac 90 3f ec ac 8f 3f 5c ff 9b 3f 01 9f 9d 3f
       1.1302639 1.1224647 1.2187304 1.2314149
000230 20 d4 c2 3f 4a 50 aa 3f 56 35 a6 3f 06 96 a5 3f
       1.5220985 1.3305752 1.2985027 1.2936409
000240 65 31 be 3f d9 b4 8a 3f 99 63 9b 3f e4 a5 89 3f
       1.4858824 1.083644 1.213977 1.0753751
000250 e6 d2 8d 3f 9a ee 97 3f d8 5b 8d 3f 43 fe 89 3f
       1.1079986 1.186969 1.1043653 1.078072
000260 db c4 a0 3f eb b7 8f 3f 86 81 83 3f e5 34 a5 3f
       1.2560076 1.1228002 1.0273902 1.2906767
000270 16 95 9b 3f 1c 08 82 3f 60 8d 93 3f c7 27 9b 3f
       1.2154872 1.0158725 1.1527519 1.2121514
000280 25 bc 83 3f d9 e6 a8 3f 25 47 a6 3f 7b 89 96 3f
       1.0291792 1.3195449 1.2990462 1.1760706
000290 36 7a 93 3f 2b 54 8e 3f b4 d3 8a 3f 6a 1d 91 3f
       1.1521671 1.1119436 1.0845857 1.1337101
0002a0 49 8c 93 3f b2 8a 9b 3f 63 84 8c 3f 75 1a 93 3f
       1.1527187 1.2151701 1.0977901 1.1492449
0002b0 e9 6c 89 3f 77 7d 88 3f 99 4d 98 3f e6 71 a1 3f
       1.0736362 1.0663289 1.1898681 1.2612884
0002c0 b5 3f 99 3f 81 e5 84 3f 31 2a 92 3f 28 cb a7 3f
       1.1972567 1.0382539 1.1419126 1.3108873
0002d0 0c f5 8d 3f 62 eb a4 3f 37 17 90 3f 13 c8 99 3f
       1.1090407 1.2884333 1.1257085 1.2014183
0002e0 c3 8d 86 3f 87 e9 90 3f 8c aa 98 3f 1c eb 82 3f
       1.0512012 1.1321267 1.1927047 1.0228
0002f0 c2 7e 88 3f 82 d2 8e 3f e1 2a 99 3f 41 95 9c 3f
       1.0663683 1.1157992 1.1966211 1.2233049
000300 00 5c 93 3f db d0 9d 3f 63 e9 9a 3f 1f 94 a5 3f
       1.1512451 1.2329363 1.2102474 1.2935828
000310 40 8d 8c 3f 03 f4 b6 3f bc 43 87 3f 56 e4 9c 3f
       1.0980606 1.4293216 1.0567546 1.2257183
000320 7b a3 8c 3f 04 84 9e 3f fb 46 dd 3f dc a0 9e 3f
       1.098739 1.2384038 1.7287287 1.239284
000330 5b 1f 96 3f 60 1f 93 3f ec 67 97 3f 6e b3 8d 3f
       1.1728319 1.149395 1.182859 1.1070383
000340 36 9a 9b 3f e0 9c 99 3f 64 59 89 3f eb f3 8f 3f
       1.2156436 1.2001 1.0730405 1.1246313
000350 0d 92 9f 3f d5 43 93 3f c5 7f a9 3f 0d 51 ae 3f
       1.2466446 1.1505076 1.3242117 1.3618485
000360 02 20 87 3f ae 5d 96 3f 86 d4 8a 3f 5e cf 9a 3f
       1.0556643 1.1747339 1.0846107 1.2094533
000370 b4 14 ab 3f c8 7f 94 3f f0 c0 8d 3f 8a a3 96 3f
       1.3365693 1.1601496 1.1074505 1.1768658
000380 d5 48 8a 3f bb b2 9a 3f 9e 39 88 3f 98 20 88 3f
       1.0803477 1.2085794 1.0642583 1.0634947
000390 90 be 9d 3f 72 a2 94 3f 6d 6f a2 3f 33 19 84 3f
       1.232378 1.1612074 1.2690254 1.032019
0003a0 68 35 8e 3f 0c 68 92 3f db df 8c 3f 92 bf 96 3f
       1.1110048 1.1438003 1.1005815 1.1777213
0003b0 b6 5a 95 3f 10 c1 92 3f 08 4a a0 3f 7b 9a b6 3f
       1.1668308 1.1465168 1.2522593 1.4265894
0003c0 be 01 8e 3f 54 d4 9f 3f 05 a3 92 3f fc 05 9a 3f
       1.1094282 1.2486672 1.1456 1.2033076
0003d0 e4 73 8f 3f 2e e6 89 3f ab dd 88 3f 89 fd 9c 3f
       1.1207242 1.077337 1.0692648 1.2264873
0003e0 ec bf 86 3f 2c 15 88 3f a3 e8 95 3f 62 3b 87 3f
       1.052732 1.0631461 1.171162 1.0564997
0003f0 03 67 a2 3f 1a 96 99 3f 7a 71 96 3f 00 b0 a4 3f
       1.2687687 1.1998932 1.175338 1.2866211

bn1.bias f4 [256]
000000 c1 b3 d7 3c ac 3e db 38 27 64 f4 bd b8 96 bb 3c
       0.02633083 0.00010454407 -0.11933165 0.022899017
000010 af 18 2a bd c8 11 31 be 96 92 1b 3e 57 06 dd bd
       -0.041527446 -0.1729194 0.15192637 -0.10792225
000020 b7 31 57 3d 4b 89 b6 bd 6e ae d8 3d b9 17 13 be
       0.052537646 -0.08912905 0.10580145 -0.14364518
000030 e3 03 fe 3b d0 7d 8d 3c c1 75 84 3d 45 10 4a bd
       0.007751928 0.017271906 0.06467772 -0.049331922
000040 7a 55 03 3e 89 35 f4 bd c4 ac f8 3d 0f 09 4b be
       0.12825575 -0.119242735 0.121423274 -0.19827674
000050 6f ec 2f 3e 3f f7 57 3d 49 fb 20 3d 32 cc cc bc
       0.17180036 0.052726027 0.039302144 -0.024999712
000060 32 43 3c be 28 b5 d1 3d 1d 7d 83 bc 09 79 c7 3b
       -0.18385008 0.10239631 -0.01605087 0.0060874266
000070 e4 c4 c9 3c a9 bd 74 3c 75 52 7a 3d e8 a1 02 3d
       0.024630018 0.014937797 0.061113793 0.031892687
000080 fd 32 7b 3c 5f b0 48 be 36 55 2e be 55 c3 ea 3d
       0.015331981 -0.1959853 -0.17024693 0.11463038
000090 1e 48 01 be 8c 2a 49 be a6 b5 05 be 5d af ac 3d
       -0.12625167 -0.19645137 -0.13057575 0.084318854
0000a0 91 18 71 be 57 c9 95 bd f4 94 28 be 6d 3c 7a bd
       -0.23544528 -0.07313793 -0.16463071 -0.061092783
0000b0 c7 ef 22 be c6 b8 54 3e 7b fc c6 3d dd 85 1f be
       -0.1591178 0.2077361 0.097161256 -0.15578409
0000c0 e7 65 e6 bd ca 8f c5 3d 72 61 ae bd 1f 60 1f 3d
       -0.11249905 0.09646566 -0.0851468 0.038910028
0000d0 40 68 89 3d dd 1a ab 3c 2f fe 8f bd 43 49 7e be
       0.06709337 0.020886833 -0.070309035 -0.24832635
0000e0 a1 73 6d bc 6b 9f 7a 3d 03 31 b3 bd 7b 88 ee bd
       -0.0144929 0.06118719 -0.087495826 -0.11647125
0000f0 39 12 8b bd 21 3f 51 be 66 4d cd 3c 2c 4f 4f bc
       -0.06790585 -0.20434238 0.02506132 -0.012653153
000100 19 ea d3 3d 61 34 94 bd b2 0c 71 be 73 a3 0d bc
       0.10347385 -0.07236553 -0.23539999 -0.008644926
000110 31 a7 f8 3b 88 46 1d bd 00 0b 4b 3d 5e 14 16 3e
       0.00758829 -0.038397342 0.049571037 0.14656207
000120 91 e7 0a be e0 a0 80 3d 72 ac 47 3d 8e b6 53 bd
       -0.13564898 0.062806845 0.04874844 -0.05168777
000130 d9 5b 09 be 84 16 4c be ee 45 14 3e f6 71 13 3d
       -0.13413943 -0.19930464 0.14479801 0.035997353
000140 52 b4 3a 3c da 2b 76 3e e2 94 e1 3c 99 c9 2a 3c
       0.011395531 0.24040166 0.027536813 0.010424041
000150 ec 30 77 3c 9f 89 32 be e1 8b a4 3c 42 ae fa bd
       0.0150873475 -0.17435311 0.02008623 -0.12240268
000160 48 16 6f be bf 08 a7 3b 72 23 0b 3d 93 62 85 3d
       -0.23348343 0.005097478 0.03396935 0.06512942
000170 80 74 e1 bd 12 4d 93 3d 9a de 2d be 61 fd f7 3c
       -0.11008549 0.07192434 -0.16979447 0.030272188
000180 3f 3b 69 3c 69 61 ea 3c 25 a0 e6 bd b4 a7 89 3d
       0.014235317 0.028610902 -0.11261014 0.0672144
000190 4b c4 0d be 02 47 d0 bd 77 33 2f bd df 06 88 bd
       -0.13844411 -0.10169794 -0.04277369 -0.066419356
0001a0 67 16 49 bd bd 9b 0a be 72 ef 97 bd 97 e6 ca bd
       -0.04909363 -0.13535972 -0.074187174 -0.09907263
0001b0 d9 8d 97 bc 85 99 da bb ea 54 27 3d 02 fa e0 3c
       -0.018500255 -0.006671133 0.040852465 0.027462963
0001c0 83 e1 99 bc 53 87 44 3d fd b2 a0 3d dc 79 67 3d
       -0.01878429 0.047980618 0.07846639 0.0565127
0001d0 76 95 56 3e 30 b1 3e be f7 75 d4 3c 65 f3 8f 3d
       0.20955452 -0.18622279 0.025935156 0.07028846
0001e0 c6 89 fc bb f8 ef 9b 3c 97 1f 25 be 22 c2 2d 3e
       -0.0077068536 0.019035324 -0.16125332 0.16968587
0001f0 9e a3 11 bd b1 99 21 3c 46 ce 30 bd b8 4b df bd
       -0.035556428 0.009863303 -0.043165468 -0.10903114
000200 ad 99 e0 bd 40 84 cf bd 6e 13 37 3e 63 af 18 3e
       -0.10966811 -0.101326466 0.17878506 0.14910655
000210 55 1c 53 3d 2e e3 12 be 37 8e de bd 16 d0 fb 3c
       0.05154069 -0.14344475 -0.10866969 0.030738872
000220 28 90 9e bd 24 a2 80 3e ac 1c 83 3e 52 ed 47 3e
       -0.077423394 0.25123703 0.25607812 0.19524124
000230 0d fb 42 3e 30 b3 61 bd aa 8a 3b 3e f1 33 1c bd
       0.19041081 -0.055102527 0.18314615 -0.038135473
000240 52 09 47 bd 46 d3 43 bd 68 20 1e 3d 82 56 aa bc
       -0.048592873 -0.047808908 0.038605124 -0.020793203
000250 ff 99 12 be 2b 1c af 3c 27 af 7d bd 7b 53 83 be
       -0.14316557 0.021375736 -0.061934616 -0.25649628
000260 a7 82 8d bd 0c 05 34 bd 55 ce 1d be 20 0b 33 bd
       -0.069096856 -0.043950126 -0.1541074 -0.04371178
000270 f4 8b 18 b8 07 ee 57 be bd 27 5a be 47 8a 2b bd
       -3.6369966e-05 -0.21086894 -0.21304221 -0.04187992
000280 cb 00 e0 be 8a cb c9 3c 95 d3 ab bb 63 46 ee 3d
       -0.43750605 0.024633188 -0.0052437284 0.11634519
000290 9c 56 05 3e 97 6c 4e bc 0e a6 f2 bc 6f 84 82 3d
       0.1302132 -0.012599132 -0.029620197 0.06372916
0002a0 f5 f5 c0 bd d2 21 d1 bd 8e dd aa bc 9e 41 9f bc
       -0.094219126 -0.10211529 -0.020857599 -0.019440468
0002b0 36 1e c5 3c cd c6 d1 bd ae 12 ba 3d 54 5d e4 3d
       0.024062257 -0.10242996 0.09085594 0.111506134
0002c0 21 67 87 bd 32 96 05 3e c0 71 f3 3c 98 33 d3 bc
       -0.06611467 0.13045576 0.029717326 -0.025781438
0002d0 6c 87 fd bb 78 a8 0a 3e 54 6f f0 3d 3b ca 4f 3e
       -0.007737091 0.13540828 0.11739984 0.20291989
0002e0 ef 87 58 be 9d c5 19 3e 22 9a dc bd aa 2e 27 3d
       -0.21145605 0.1501679 -0.10771586 0.040815987
0002f0 cd bc 05 3e 0f 46 a0 bc b4 54 03 3d 13 30 8f 3d
       0.13060303 -0.019564657 0.0320632 0.06991591
000300 5d a2 81 bd a5 c8 8b 3e e6 02 68 bd 9c 86 71 3c
       -0.063297965 0.27301517 -0.05664339 0.014741566
000310 37 49 fd 3d 9b b0 93 3c 18 a5 d5 3d 18 54 1f 3e
       0.1236748 0.018028548 0.1043188 0.15559423
000320 ae 5f 27 3d f4 3a 3a 3d 35 a4 73 3d ff 8f f5 bc
       0.04086273 0.04546638 0.059482772 -0.02997589
000330 53 6c c1 bd 7a 30 ff bd 4d 51 2a 3e 30 9c 47 be
       -0.09444489 -0.12460418 0.16632576 -0.19493175
000340 ac 40 2a 3d 90 76 0b 3d d1 e9 7d be 13 37 4d bd
       0.041565582 0.034048617 -0.24796225 -0.05010135
000350 9f f5 24 3e 24 c7 e6 3d fd 77 1e bd 17 f2 95 3d
       0.16109322 0.11268452 -0.03868865 0.073215656
000360 01 13 fe bd 79 aa b9 3b b3 09 65 bd 38 01 a4 bd
       -0.124059685 0.005666074 -0.055917453 -0.08008045
000370 bd ae 84 3c ac ce 50 3b ee 11 6f be 85 b4 0b be
       0.016196603 0.0031861467 -0.23346683 -0.13643081
000380 3b d3 82 be 47 e8 6b 3e b9 3f 4d be 52 4d 9b 3d
       -0.2555178 0.23037826 -0.2004384 0.07583107
000390 1e d6 d2 3b 38 2a ec 3c 81 eb 49 be d2 41 ff bc
       0.006434216 0.028828725 -0.19718744 -0.031159315
0003a0 8a 80 bb 3d 31 47 b0 3a ac 9a 23 3e 32 63 ad bd
       0.09155376 0.0013448951 0.15976971 -0.08466186
0003b0 19 9f 34 3d 33 09 cc bd 7c e0 2f bc 15 81 18 bd
       0.04409704 -0.09962692 -0.010734674 -0.037232477
0003c0 f4 e5 06 be ed ed 10 be 57 74 05 be 36 6d b4 3d
       -0.13173658 -0.14153261 -0.13032661 0.08809893
0003d0 a0 56 b8 3d 32 14 9f bc 43 7e bb bd ec 51 86 3d
       0.090008974 -0.01941881 -0.09154942 0.06558594
0003e0 5b f8 01 be 57 5b 71 bd f3 2d 26 3e 53 44 05 be
       -0.12692396 -0.058925 0.16228466 -0.13014345
0003f0 e4 39 ca 3c 48 49 6d 3d ab 2e 14 bd cd 2c fd bd
       0.024685808 0.057931215 -0.03617732 -0.12362061

bn1.running_mean f4 [256]
000000 b4 ee a5 3f 10 64 bb 3e 10 68 d2 3e 1a c6 55 3e
       1.2963471 0.3659978 0.41095018 0.20876351
000010 7e 15 aa 3e ea 07 f7 3e ce b4 60 3f a6 bf d3 3e
       0.33219522 0.48248225 0.87775886 0.41357154
000020 86 58 bf 3f f2 70 29 3e 6e 07 21 3e 2d eb 77 3e
       1.494889 0.16546991 0.1572549 0.24210806
000030 e1 dc 11 3d de 49 42 3d ba 48 8f 3f 07 a3 a6 3f
       0.035611037 0.047433726 1.1194069 1.3018502
000040 13 d8 80 3e 29 a5 0d 3f 60 e8 c7 3c a2 2a 95 3e
       0.25164852 0.5533014 0.024402797 0.2913409
000050 b0 a4 14 3e b2 84 ea 3e 66 6a be 3d 35 bb 6a 3f
       0.14515948 0.45804363 0.09297638 0.91691905
000060 0c 0d 95 3f ea a8 04 3d 8f 43 30 3d e4 46 af 3f
       1.1644607 0.03238765 0.04303318 1.3693509
000070 f1 7e 10 40 8f 7d 16 3d 97 39 1b 3d 26 1b 48 3e
       2.257748 0.036740836 0.03789672 0.19541606
000080 a8 2d 39 3f 9a e6 92 3e 6c 02 60 3e 1c 12 78 3d
       0.7233529 0.2869156 0.21875924 0.060564145
000090 6c 9e 31 3e 3b b3 0f 40 7c 66 12 3e 41 5c 28 3e
       0.1734559 2.2453144 0.14296907 0.16441442
0000a0 73 6d b9 3c 6d 54 c5 3c 41 cc 00 40 9f 9b 48 40
       0.022635197 0.024088109 2.0124667 3.1344984
0000b0 3e 93 04 3e 55 ef 43 3e 56 a5 dc 3c 04 00 00 00
       0.12946793 0.19134267 0.026934307 6e-45
0000c0 25 1d 59 3f 6e 11 00 40 e5 38 77 3f d4 80 9b 3e
       0.84810096 2.0010638 0.9657119 0.30371726
0000d0 fc 49 ab 3f ec a2 21 3f ad 6d c0 3f 33 06 21 40
       1.3381953 0.63139224 1.503347 2.5160034
0000e0 03 0c ff 3d da 20 41 3d 49 37 94 3f f2 1a d5 3c
       0.12453463 0.04715047 1.1579372 0.026013825
0000f0 68 20 9c 3e 3d 0a d6 3f 13 8e 4d 3d 89 ef 31 3f
       0.30493474 1.6721874 0.05018432 0.69506127
000100 76 c6 30 3f de de b4 3f 45 2a 58 3f 5c 1b 28 3f
       0.6905283 1.4130514 0.844395 0.6566675
000110 20 df 0f 40 c0 bc a9 3d dc e3 c6 3c 04 00 00 00
       2.2479935 0.08287954 0.024278574 6e-45
000120 6b 36 5e 3e cb 6d 33 3d 9c b7 e4 3d 9e 71 9f 3e
       0.21700446 0.04380588 0.11167833 0.3114137
000130 f0 60 94 3f 97 f6 8b 3d 2c f6 82 3f 41 fa 2b 3f
       1.1592083 0.06834143 1.0231376 0.6717873
000140 de 83 08 3f c6 57 e0 3c 9e 66 db 3a 47 54 e8 3e
       0.53326213 0.027385604 0.0016738956 0.453768
000150 18 78 d2 3e f6 95 a4 3e 65 a4 44 3f f1 62 9b 3d
       0.4110725 0.3214566 0.76813346 0.07587231
000160 a6 54 cc 3f 3e 51 8f 3f 76 c9 4f 3e 15 74 c2 3d
       1.5963333 1.1196668 0.20291695 0.09494797
000170 60 75 49 3f 86 2f 59 3f 08 ed b9 3d 06 33 35 3e
       0.78694725 0.8483814 0.09078413 0.17695245
000180 2c fe 28 3f 9f c7 99 3c 2c a6 4b 3f 3c 0e 69 3e
       0.66012836 0.018771945 0.79550433 0.22759336
000190 54 52 b2 3f 2f c4 cf 3e 8e 87 e9 3e cd 96 02 3e
       1.3931375 0.40579364 0.45611233 0.12752838
0001a0 84 21 b5 3f 86 06 4c 3f 8c 19 a8 3e 65 ca 29 40
       1.4150853 0.79697454 0.3283199 2.6529782
0001b0 61 fb aa 3d a3 8a 1b 3e 0f e5 a6 3e a7 29 23 3e
       0.08348728 0.15189604 0.32596633 0.15933858
0001c0 22 7e fe 3e d9 47 5a 3e 3e eb d7 3e f0 ed db 3e
       0.49705607 0.2131647 0.42171663 0.4295497
0001d0 6a 20 38 3e 8d 61 c5 3d cb 3d d4 3d fd 26 42 3f
       0.17981115 0.09637747 0.103633486 0.7584074
0001e0 b4 e4 f5 3d 92 80 ca 3e b4 f2 ac 3e 4b 41 70 3d
       0.12006512 0.39551216 0.33778918 0.05865602
0001f0 6a 8d 87 3f a3 8b e9 3e 4e ac dc 3e 62 81 be 3f
       1.0590031 0.45614347 0.43100208 1.4883235
000200 78 4d 8c 3d 61 b2 70 40 65 cb 04 3f ec 0f 67 39
       0.068507135 3.7608874 0.51872855 0.00022035808
000210 68 bb 2c 3e fe 87 88 3e 94 32 89 3d 27 1b 82 3f
       0.16868365 0.26666254 0.066991 1.0164536
000220 13 a0 78 3d fc 08 bf 3e 40 db 8a 3d 3c 58 85 3f
       0.060699534 0.37311542 0.067801 1.0417552
000230 53 1e 4a 3c 35 0a 0a 3c 42 6b 35 3e a4 de d2 3e
       0.012336331 0.008425285 0.17716697 0.41185486
000240 e2 d2 99 3e 70 48 c9 3f c7 f4 e8 3e 64 ab 99 3e
       0.30043703 1.5725231 0.4549925 0.30013573
000250 ce ab 4a 3f ee b7 2a 40 4e b7 b3 3d ac b6 6c 40
       0.79168403 2.6674762 0.08775197 3.6986494
000260 2b 15 5c 3d d4 53 3a 3d f9 3d bf 3f ef e4 30 3f
       0.053731125 0.0454901 1.4940788 0.69099325
000270 d5 f4 f3 3e be 83 dd 3f c0 b7 61 3f f7 4e a6 3e
       0.4764773 1.730583 0.88171005 0.3248212
000280 d7 0c 08 40 37 90 55 3d 9a be 25 3e e6 73 b1 3d
       2.1257837 0.052139487 0.1618599 0.08664684
000290 a8 0c 5d 3b 30 cf 96 3e 4e 87 91 3a 6f 25 f9 3d
       0.0033729468 0.29454947 0.0011102946 0.12165343
0002a0 94 9c f7 3c 8a fc cd 3e 5e 44 b4 3e 99 f2 3c 3f
       0.03022603 0.40231735 0.3520841 0.73807675
0002b0 7d 3f 7a 3f 23 8e 03 40 14 97 a7 3d 08 f7 04 3f
       0.97753125 2.0555503 0.08183113 0.5193944
0002c0 11 ea 2b 3f 62 7d 04 3f 1e 8d e9 3f 75 48 8c 3f
       0.6715403 0.5175382 1.824619 1.0959612
0002d0 73 c3 12 3f a0 2a 1a 3e 7d 35 02 3d 58 17 92 3d
       0.5732948 0.15055323 0.03178929 0.07133359
0002e0 04 00 00 00 63 fa b9 3e 54 71 a0 3c 20 f1 f2 3d
       6e-45 0.36323842 0.019585289 0.11862397
0002f0 c3 11 df 3e 93 e1 b3 3f 98 6d 97 3f d5 11 cb 3e
       0.4356824 1.4053215 1.183032 0.39662042
000300 6b 26 b1 3f 04 00 00 00 b3 fd 39 3e 27 d1 b5 3d
       1.3839849 6e-45 0.18163185 0.08877783
000310 23 d4 ff 3e 8e b0 20 3e 5e af e2 3f fc 8c 63 3d
       0.49966535 0.1569235 1.7709768 0.055554375
000320 69 ce 85 3e 64 ea 7b 3f a4 8e 6e 3d b2 d2 40 3e
       0.2613404 0.98404527 0.0582415 0.18830374
000330 8f c0 90 3d 1e eb 9d 3f af 84 25 3f 0b 81 fc 3e
       0.07067978 1.2337377 0.64655584 0.49317202
000340 5b ec 04 3f 74 b9 9a 3d 07 a9 0a 40 3c ff 6f 3e
       0.5192315 0.075549036 2.1665666 0.23437208
000350 16 89 70 3b a2 ce 8a 3e e2 64 3f 3d fd c4 e8 3e
       0.0036702803 0.27110773 0.04672707 0.4546279
000360 4f 26 24 3e c1 9f 81 39 34 d6 52 3e 6e aa bb 3e
       0.16030239 0.00024723823 0.20589525 0.36653465
000370 ce 87 73 3d 82 62 22 3f 37 43 19 40 5d 44 06 3c
       0.059455685 0.6343156 2.3947275 0.00819501
000380 9c ec 13 40 d3 ac b3 3e 79 8f cb 3d 32 92 0e 40
       2.3113165 0.35092792 0.099394746 2.227673
000390 0a 8f 1f 3d 7a 46 78 3e 74 55 60 3d a5 6a 21 3f
       0.038954772 0.24245635 0.054768994 0.6305335
0003a0 da e3 84 3f 0b c5 47 3e 69 b7 ec 3c d3 a2 a3 3f
       1.0382035 0.1950876 0.02889605 1.2784065
0003b0 f0 d6 9b 3e 72 ff 1f 3e 0b f6 30 3d fb 48 66 3e
       0.30437422 0.15624788 0.043203395 0.22488777
0003c0 6f f7 63 3f ff c9 3f 3e b9 9b b6 3d d4 f7 34 40
       0.8904943 0.18729399 0.089164205 2.8276262
0003d0 dc 85 06 3f 84 98 88 3e 70 ce a2 3e 24 18 00 3d
       0.52548003 0.2667886 0.31798124 0.031273022
0003e0 fa 3f 49 3e df d4 01 40 43 79 74 3c 70 41 b0 3e
       0.19653311 2.0286176 0.014921489 0.34424925
0003f0 ce 91 33 3f 97 0e df 3f 76 14 58 3d 8e 2f 42 3d
       0.70144355 1.7426327 0.052753888 0.047408633

bn1.running_var f4 [256]
000000 7f 6a f3 3f 9d cf b1 3e ad 73 37 3f ee ac 33 3e
       1.9016875 0.3472871 0.7166088 0.17546436
000010 3d 01 54 3f 72 56 5d 3f 03 8a e1 3e 02 fe be 3f
       0.8281439 0.8646003 0.44050607 1.4921267
000020 54 7b 1b 40 eb 31 57 3e 1b 00 a5 3e 64 1a 00 3f
       2.4294024 0.21015136 0.32226643 0.5004027
000030 f8 49 58 3d f6 24 58 3d b4 83 c7 3f 38 08 22 40
       0.052804917 0.052769624 1.5587068 2.5317516
000040 70 ca 15 3f f7 59 f1 3f dd 08 dd 3c 4b 95 a6 3e
       0.5851202 1.885558 0.026981765 0.32535776
000050 8e 97 8a 3e f5 0d 3f 3f 9d 98 03 3e 7c 1c aa 3f
       0.27068752 0.7463067 0.12851186 1.3289943
000060 30 f5 fd 3f 85 5d 22 3d 5e ee 81 3d 8c 89 15 40
       1.984045 0.03963997 0.06344293 2.3365202
000070 7d de e9 3f b4 06 4f 3d bc e4 bf 3c 01 7a 06 3e
       1.8271023 0.050543502 0.023424499 0.13132478
000080 ab 38 52 3f 1b 0c 89 3e 67 c3 d1 3e 1d c3 a6 3d
       0.8211772 0.26767048 0.40969393 0.08142684
000090 b1 32 bd 3e a0 b2 6e 40 ae 05 41 3e 1c 95 85 3e
       0.36952737 3.7296524 0.18849823 0.26090324
0000a0 6e e2 bd 3c d0 33 02 3d 80 f5 82 40 de 36 b3 40
       0.02317926 0.031787694 4.0924683 5.6004477
0000b0 7d 71 01 3e 7e 70 82 3e 27 73 b0 3c 04 00 00 00
       0.12640949 0.2547645 0.021539284 6e-45
0000c0 36 b1 c8 3f 3b ac 76 40 62 47 fc 3f 43 5f b6 3d
       1.567908 3.854262 1.9709284 0.089048885
0000d0 8c 8b 20 40 6f fd c6 3e cc f1 d7 3f e6 7c 0a 40
       2.5085173 0.3886523 1.6870666 2.1638732
0000e0 51 21 f7 3d 6e 0c ae 3d c3 63 92 3f 0a 44 f8 3c
       0.120669015 0.084984645 1.1436695 0.030305881
0000f0 8a 62 a3 3e 61 49 f8 40 bb 3b 61 3d 98 b0 91 3f
       0.31911117 7.7589574 0.054988604 1.1382017
000100 1e 95 35 40 45 11 45 40 e0 de 8f 3f 3e 7e 89 3f
       2.8372264 3.079179 1.1239891 1.0741651
000110 8e f8 74 40 e7 dc 17 3e cf 0a be 3c 04 00 00 00
       3.8276706 0.14830361 0.023198513 6e-45
000120 05 df 59 3e 1b 3c 83 3d da 60 aa 3d cc f9 2c 3e
       0.21276481 0.064079486 0.08319254 0.16892165
000130 ae 01 91 3f c8 6f 97 3d 46 e9 70 3f 51 3e 47 3f
       1.1328638 0.073943675 0.94105947 0.7782946
000140 72 b4 2d 3f b6 11 25 3d 79 10 7b 3a 55 41 65 3e
       0.6785346 0.040300094 0.0009577345 0.22388203
000150 53 5f 3e 3f d3 7b c5 3e f2 28 65 3f b1 3d 6c 3d
       0.74364203 0.38571033 0.895156 0.05767602
000160 32 e9 58 40 3d 7c 69 3f b3 50 2e 3e 33 48 66 3e
       3.389233 0.912052 0.17022972 0.2248848
000170 d1 bd bb 3f 20 fe 4e 3f d7 e4 da 3d 92 bc 81 3e
       1.4667302 0.80856514 0.10688179 0.2533918
000180 31 8a 9d 3f 21 7e 8f 3c 72 9a 40 40 7a e4 9a 3e
       1.2307798 0.017516198 3.0094266 0.3025244
000190 0b f7 09 40 13 e0 41 3f 25 03 8e 3f e2 29 6d 3e
       2.1557033 0.75732535 1.109471 0.23160508
0001a0 1e 1f 7a 40 b6 7f b4 3f 00 41 f1 3e 5c 98 df 40
       3.9081492 1.4101474 0.47119904 6.9873486
0001b0 32 81 db 3d 22 97 be 3e 58 95 8d 3f a7 01 d8 3d
       0.107180014 0.3722468 1.1061201 0.1054719
0001c0 62 46 52 3f 9a eb 9e 3e 24 e3 3b 3f 64 24 c7 3f
       0.82138646 0.31039125 0.73393464 1.555798
0001d0 79 55 34 3e ca df 80 3d 4f 33 cf 3d c2 51 ed 3e
       0.1761073 0.062926844 0.10117208 0.4635144
0001e0 6b bf 58 3e 52 a8 0e 3f a2 89 98 3f 99 0e 81 3d
       0.2116677 0.55725586 1.1917002 0.063016124
0001f0 27 f5 07 40 8b 8c 52 3f a7 ae 8c 3f e2 9e b7 3f
       2.124338 0.822457 1.09908 1.4345362
000200 7e 19 da 3d 23 cf d6 3f 38 28 95 3f 43 e0 30 39
       0.106493935 1.6781963 1.1652899 0.00016868212
000210 50 00 5a 3e e6 34 da 3e bf 1c 75 3d 24 4c c2 3f
       0.21289182 0.42618483 0.059841868 1.5179486
000220 9d ff 8a 3d 9a 2b c7 3e 7b 57 a2 3d 70 5b ab 3f
       0.067870356 0.38900453 0.07926842 1.338728
000230 70 1f 8b 3c ef b2 df 3b a4 6d 3b 3e fd c1 22 3f
       0.016982764 0.0068267505 0.18303543 0.6357725
000240 cf 6e 4c 3d 5b c6 30 40 4c 86 c2 3f e8 4c 1f 3f
       0.049910363 2.7621067 1.5197234 0.62226725
000250 82 66 9e 3f 08 20 03 40 02 bb 17 3e 88 8f 12 40
       1.2375033 2.04883 0.14817432 2.2900105
000260 4b 7e 4e 3d 24 8a 37 3d 00 eb e3 40 13 1f 1a 3f
       0.05041341 0.044809476 7.1224365 0.60203665
000270 42 ca eb 3e 2d f1 5e 40 75 d3 ae 3f 80 ed 8d 3e
       0.46052748 3.4834702 1.3658282 0.2772026
000280 56 fd 10 40 02 21 28 3d ff 0f 7b 3e e5 e9 25 3e
       2.2654624 0.041047104 0.24517821 0.16202505
000290 47 b5 82 3b cd 8c b5 3e e7 72 8c 3a d6 2d 62 3e
       0.003988895 0.35458985 0.0010715396 0.22087798
0002a0 07 9f 16 3d 0b f3 e8 3e c6 c2 86 3f b8 83 0b 40
       0.036772754 0.45497927 1.052819 2.1799145
0002b0 ca 98 f4 3f 47 b6 b3 3f 76 7c c7 3d 11 bc 2a 3f
       1.9109128 1.4040002 0.09740536 0.66693217
0002c0 f4 8f 77 3f 33 b6 26 3f a1 5f 42 40 6e 1a ee 3e
       0.9670403 0.65121764 3.0370867 0.4650454
0002d0 85 d0 7a 3f 95 50 af 3e b4 66 25 3d ad 9c 88 3d
       0.97974426 0.34241167 0.04038115 0.066705085
0002e0 04 00 00 00 ac 6a c5 3e df 89 b4 3c d3 08 5c 3e
       6e-45 0.38557947 0.022038398 0.21487741
0002f0 a1 84 f0 3f 9c 99 25 40 dd b8 11 40 42 50 1c 3f
       1.8790475 2.5875006 2.2769082 0.61059964
000300 28 eb fc 3f 04 00 00 00 f9 2b 69 3e 79 c7 c6 3d
       1.9759264 6e-45 0.2277068 0.09706015
000310 43 2b 06 40 12 f4 77 3d cc b9 60 40 a3 1f 72 3d
       2.0963905 0.060535498 3.5113401 0.059112202
000320 e7 65 18 3f 09 12 85 3f 0e 57 7b 3c de 42 d6 3d
       0.5953049 1.0396129 0.01534058 0.10461973
000330 cd 57 e8 3d e4 3c 05 40 42 ac cf 3f 86 ba 51 3f
       0.11344872 2.0818415 1.6224444 0.8192524
000340 17 83 fe 3e 32 5c 62 3d 12 62 ba 3f 58 4b e4 3e
       0.4970939 0.055263706 1.4561179 0.44588733
000350 b5 f9 99 3b 74 d0 d3 3e d3 3c 4b 3d 0b ea 1d 3f
       0.004698957 0.41369975 0.049618553 0.61685246
000360 d4 14 c9 3e 4d 1b 80 38 30 b2 a8 3e 0a ee df 3e
       0.39273703 6.108601e-05 0.32948446 0.43736297
000370 37 71 2c 3d 23 38 c9 3f 38 9e 36 3f f0 99 f3 3b
       0.042100158 1.5720257 0.7133517 0.0074341223
000380 11 3d 09 40 5e 26 fa 3e 69 f1 38 3e 78 1d bf 40
       2.1443522 0.48857397 0.1806084 5.9723473
000390 4f 88 d8 3c 24 5f f1 3e fd e6 1d 3d fa 30 d5 3f
       0.026432185 0.471429 0.038550366 1.6655571
0003a0 0a c8 bc 40 09 6b eb 3e 12 2f 27 3d 53 08 0f 3f
       5.899419 0.459801 0.040816374 0.55872077
0003b0 e3 2b de 3e cd b6 45 3e 5a 33 4a 3d 1d 1a 68 3e
       0.43392858 0.19308014 0.04936538 0.22666211
0003c0 ef 34 8d 40 be a8 84 3e a9 fd 11 3e de 42 6b 3f
       4.4127116 0.2590999 0.1425692 0.91898906
0003d0 1d 10 e2 3f d9 e9 1c 3f 5a 2e 5b 3f 52 9b 04 3d
       1.7661167 0.61294323 0.856176 0.032374687
0003e0 7e f3 f4 3e f9 0c 30 40 2d a3 90 3c e8 79 a5 3f
       0.4784202 2.7507918 0.017655933 1.2927828
0003f0 7d 23 d5 3e 8d 73 88 40 9c df 98 3d 76 48 6c 3d
       0.41628638 4.2641053 0.07464525 0.05768629

fc1.weight f4 [256, 24]
000000 d4 87 dd bd 2f 2f 0b bc dc 0e 83 3c 7e 4d 3c 3d
       -0.10816923 -0.008495136 0.015998296 0.04597234
000010 20 9c d0 3d fe cb 0e be 18 be ec 3b d8 ea b3 3d
       0.101860285 -0.13945004 0.0072248094 0.08785027
000020 bc 77 48 bd d9 e6 48 3c 8e 64 2e bd 0b e3 b3 bd
       -0.048942313 0.01226207 -0.042576365 -0.087835394
000030 fa 76 9c 3d 22 2d 85 bd d5 83 43 bc eb 4d 91 bd
       0.076398805 -0.06502749 -0.011933287 -0.0709494
000040 fe 2d 72 bd 6d b1 a3 bc b8 40 32 ba 95 3d 90 bc
       -0.059125893 -0.019982064 -0.0006799805 -0.01760749
000050 59 61 92 3d be 18 d7 bc 81 c1 99 bb e3 ef 13 bd
       0.07147474 -0.026256915 -0.004692257 -0.036117446
000060 16 26 3e bc 91 7a 03 be 4c 0e 16 3d 9f 3b f2 3a
       -0.01160576 -0.12839724 0.03663473 0.0018480903
000070 fb 73 36 be 56 e3 1b 3d 28 33 19 bd c9 0b 37 3d
       -0.1781768 0.0380586 -0.037402302 0.044688974
000080 50 a5 6e 3d 70 31 05 be 2a 40 1b 3d 6b b5 08 3d
       0.058263123 -0.1300714 0.03790299 0.03337614
000090 a9 13 8f 3d 9b 5d 4f bc 5e be 19 bd 46 36 e3 3b
       0.06986172 -0.012656595 -0.037535064 0.00693396
0000a0 0e 5c 04 bd 41 c3 ad bd 18 c8 d7 bc 2b 3b 27 bd
       -0.032314353 -0.08484507 -0.02634053 -0.04082791
0000b0 dc e5 92 3e 0f e1 a9 bd 2e 07 d0 3c e3 68 2b bd
       0.28690994 -0.0829488 0.025394049 -0.041848075
0000c0 ad 39 22 bd 60 26 84 bc 33 5f 7f bc 1d ec a9 bd
       -0.039605785 -0.01613158 -0.015586662 -0.08296988
0000d0 2d 6c 68 bd a3 78 e7 b9 c3 73 4b 3c 33 97 83 bd
       -0.05674379 -0.00044149635 0.012417736 -0.06425323
0000e0 d6 17 8d 3c 21 75 ff bc d7 99 92 3c 37 b4 ae bc
       0.01722328 -0.031183781 0.017895622 -0.021326168
0000f0 c0 48 87 bd 2c 20 7b bd 1f f9 2a bc d0 56 c3 bd
       -0.06605673 -0.06130998 -0.010435372 -0.095380425
000100 7e ab 5d bc 17 09 8f bd e6 52 11 bd e1 6e c2 bd
       -0.013529656 -0.069841556 -0.03547945 -0.09493805
000110 19 d0 4d bd c6 af 83 be 0e 6a 21 3d 0f fa 93 bd
       -0.050247286 -0.25720042 0.039407782 -0.07225429
000120 48 fe 70 3d 53 2c 17 3c e1 be ed 3c bb c3 5a bc
       0.05883625 0.009226876 0.029021682 -0.01335233
000130 4f 5b d2 3c 27 20 ba bc dd 7c ef bc f7 2d bf bb
       0.025678305 -0.02272041 -0.029234344 -0.005834337
000140 3f 56 25 3d 74 2b 56 3d 86 70 f8 ba 2f c5 c7 3c
       0.040365454 0.052287534 -0.0018954433 0.024386017
000150 19 e1 dd bd 90 db a7 3d ab eb 37 3c d9 66 0d bd
       -0.108339496 0.08196175 0.011225621 -0.03452191
000160 f3 85 e6 3d a4 25 f8 3c e7 a4 04 bd d5 00 6c 3d
       0.112560175 0.030291386 -0.032383826 0.05761798
000170 ed 66 12 be 3a ba 2d 3e 49 6a cd 3c 16 c2 8c 3d
       -0.14297076 0.16965571 0.025075095 0.068729565
000180 c1 37 4f 3d 57 74 06 be f5 0a 1b bd dd b4 95 3c
       0.05059028 -0.13130318 -0.037852246 0.018274719
000190 7b 2f ab bd 62 3b 65 bc c2 67 65 3c e4 f4 6e 3c
       -0.083586656 -0.013991209 0.014001789 0.014584754
0001a0 76 81 8e 3d af 4c 68 be 5e c2 fb 3c aa b6 4d bd
       0.069582865 -0.22685502 0.03073233 -0.05022303
0001b0 b4 3d ad bd 15 bf 97 bc f7 35 87 3d 14 38 b7 bd
       -0.084590346 -0.018523732 0.0660209 -0.08946243
0001c0 72 eb 11 bc 20 a0 0c be 51 8e 5a bd 0b 79 8e bc
       -0.008906232 -0.13732958 -0.05335838 -0.017391702
0001d0 02 3d 2d 3d 22 72 99 3c b2 f7 89 bd bb 5f 19 3d
       0.04229451 0.01873118 -0.06736697 0.03744481
0001e0 1a cd c3 b9 94 b9 3e 3e ab 16 d4 bc cd d3 5d 3e
       -0.0003734611 0.1862548 -0.025889715 0.21662827
0001f0 9f 1e b6 bd 62 b0 07 bc a4 fc ee 3c 3b 64 1c 3e
       -0.08892559 -0.008281799 0.029173203 0.1527261
000200 6b 10 88 3b 6e b5 5f 3e 62 76 2a bb 00 15 ac 3d
       0.004152348 0.21846554 -0.0026010503 0.08402443
000210 80 cf 71 bd 49 52 4c bd 6c c9 e8 3c eb 67 66 3c
       -0.059035778 -0.04988316 0.028416358 0.014062862
000220 30 bd 74 3d b0 08 21 3e 91 52 8e 3c 95 9a b2 3d
       0.059750736 0.1572597 0.017373355 0.087208904
000230 54 70 54 bc 64 c2 fc bd fd 78 f0 bc c3 f6 8e 3d
       -0.012966234 -0.123417646 -0.029354567 0.0698066
000240 4e 55 7b bd 95 3b 77 bd da 60 c2 bc d3 44 f2 3c
       -0.06136065 -0.060359556 -0.023727823 0.029573834
000250 82 1d 8e 3d 08 68 6d be 94 32 0c 3d bf 5e 86 3d
       0.06939222 -0.23184216 0.034227923 0.0656104
000260 ad bd b1 bc ef 8c 4f bd c8 64 69 bb 6e 01 ee 3a
       -0.02169689 -0.050671514 -0.0035613049 0.0018158385
000270 bf 42 7b 3d ec 88 7b bd 18 17 86 bc 5e 78 dc bc
       0.06134295 -0.061409876 -0.016368434 -0.026912864
000280 26 39 42 bc cc b4 34 bd 13 40 ac 3c b5 ae 1e bc
       -0.011854446 -0.044117734 0.021026647 -0.009685208
000290 34 af a8 bc 71 34 80 3e 44 34 f5 b9 6d 91 5e bd
       -0.020591356 0.2504001 -0.00046768982 -0.054337908
0002a0 de 9b d8 3d 78 09 d1 3d 2a 83 d2 ba 01 93 10 3d
       0.10576604 0.10206884 -0.0016060818 0.035296444
0002b0 9d 72 7a bd 57 e0 c5 bd 34 e3 bf 3d e1 35 42 bd
       -0.06114446 -0.0966193 0.093695074 -0.047414664
0002c0 97 8d 07 3e a6 d0 cd bc 26 f0 35 3c 86 d8 8f bd
       0.13237606 -0.025123905 0.011104619 -0.070237204
0002d0 80 57 c9 3d ea 9c 97 bc 77 fe 99 3c 0e 4e 0c be
       0.098311424 -0.01850744 0.018798096 -0.1370165
0002e0 a0 d3 50 3b 6b 7e d4 bc b4 b5 9c 3d 83 c5 08 bd
       0.003186442 -0.025939187 0.076518446 -0.033391487
0002f0 54 22 23 3e da 26 ca 3c 6f 0c ed bc aa 70 85 3d
       0.15931064 0.024676729 -0.028936593 0.065156296
000300 51 17 b1 bd 7f 11 8b bb 53 cc ef bc 19 d7 98 bd
       -0.086470254 -0.004244029 -0.029272234 -0.074629016
000310 94 61 51 bd 66 dd 9b 3d 3d 14 cc bd 58 ec 33 3b
       -0.05111845 0.07610588 -0.09964798 0.0027454104
000320 61 79 a3 bc 9d 8f 3d bd 1c 02 2c bd 3b 5f b2 bd
       -0.019955339 -0.04627954 -0.0419942 -0.0870957
000330 7f b0 9c 3d b0 e0 22 3c 9b 3a e9 3c 96 4c 0f bd
       0.076508515 0.009941265 0.028470328 -0.034985147
000340 aa 1c 26 bc 1f 58 d0 bc 86 15 67 bd 1c 26 b4 bd
       -0.01013867 -0.025432644 -0.05641701 -0.08796331
000350 c8 8d 0c 3e ca 66 2d bd 51 51 fc 3a 1e b8 44 bd
       0.1372596 -0.042334355 0.0019250308 -0.04802715
000360 41 13 9b 3d 33 5b ca bc 06 03 77 bc da f5 8d bd
       0.07572032 -0.02470169 -0.015076404 -0.06931658
000370 24 c7 84 bd 28 0d c5 3d be 8e 14 3c 3d e7 7c bd
       -0.064832956 0.0962165 0.0090672355 -0.061743964
000380 2f c9 a9 3d e5 39 7e bd e8 23 50 bd d6 b0 ca 3d
       0.08290326 -0.06206693 -0.050815493 0.0989701
000390 ce d8 ea bd 52 28 2e bd 8d d8 9e 3c 58 ca 07 bc
       -0.114671335 -0.04251892 0.019390369 -0.008287989
0003a0 7b 42 d8 bb b5 94 19 3b ce ec 98 bc 19 30 8a bc
       -0.006599722 0.0023434584 -0.018667605 -0.016868638
0003b0 1d 8e a6 bd 8b a2 2e be d5 df 66 bc 9f 01 76 bd
       -0.08132575 -0.17054193 -0.014091452 -0.06006014
0003c0 32 fd 16 3e b9 2a 2e be b5 f2 0b bd d6 16 2d 3d
       0.14745024 -0.17008485 -0.03416701 0.042258106
0003d0 bc 23 dc 3d 02 81 0e bb 21 8f b7 bc 6c 11 0e bc
       0.10749003 -0.0021744375 -0.022407116 -0.008671146
0003e0 92 2f 83 3d 32 28 be bd e9 44 d7 bc 19 13 0d 3e
       0.06405558 -0.092850104 -0.026277976 0.13776816
0003f0 c5 df 00 3e 74 95 17 bc d7 92 56 3c b9 53 a1 3d
       0.12585361 -0.009251941 0.013096533 0.07877297

fc1.bias f4 [256]
000000 ac 1e 6b 3e 0c 88 77 3d ea b7 21 bd 24 94 90 bd
       0.22960919 0.06043248 -0.039482035 -0.070595056
000010 42 a4 44 be 32 e9 01 3e 22 20 c5 3d c1 a8 ab 3d
       -0.19203284 0.12686613 0.096252695 0.08381797
000020 d1 c9 0e 3e 08 3c 4d 3d c5 31 1c 3e e9 09 77 be
       0.13944174 0.05010608 0.1525336 -0.24124874
000030 38 0e f2 bc db 71 28 be 1f ab ab bd e1 ea 20 be
       -0.029547796 -0.16449682 -0.08382248 -0.15714599
000040 df f6 0b be f9 5e 11 bd ff a2 26 bd 04 f1 6c be
       -0.13668393 -0.035490964 -0.04068279 -0.23138815
000050 f0 90 31 be 8f 81 06 3e 6a 64 aa 3c d8 b4 b5 3d
       -0.17340446 0.1313536 0.020799834 0.08872384
000060 4d af 76 3d 0a 40 b3 3c bb ea a3 be 86 c0 67 3d
       0.060225774 0.021881122 -0.32015023 0.05658009
000070 81 9f 59 3e 8b b2 49 be 3e ec 49 be b9 c2 2d 3b
       0.21252252 -0.19697015 -0.19719025 0.0026513769
000080 c2 7d 5d be 75 7c d3 bd b2 7d 99 be 69 e6 3f bc
       -0.21630004 -0.10326473 -0.2997871 -0.011712649
000090 fd 1a 41 be 31 71 66 3e 72 f2 8f be 64 35 51 be
       -0.18857951 0.22504117 -0.2811466 -0.20430523
0000a0 18 85 49 be 15 de 3c bc 36 c1 ed 3b bf 4d 96 bd
       -0.19679677 -0.011527558 0.0072556986 -0.07339048
0000b0 86 dd 39 be e0 7f e1 3d e4 43 a8 3d 85 bb 0b be
       -0.1815091 0.11010718 0.08216074 -0.13645752
0000c0 b1 df 2d bd d3 18 e1 3c f9 00 1b be af b8 c7 be
       -0.042449657 0.027477657 -0.1513709 -0.3900809
0000d0 ee 96 e7 3d 58 e7 38 be 63 9f ac 3b db 39 7b 3e
       0.113080844 -0.18057 0.005268024 0.24533789
0000e0 74 be 33 3e 5d 5c 17 3e f6 fe f7 3d c2 cd 07 be
       0.17553121 0.14781328 0.12109177 -0.13262084
0000f0 65 68 b9 3d df 5a c4 3d 58 8b 66 be b6 2b 3a bd
       0.09053115 0.09587645 -0.22514093 -0.045451842
000100 52 9a e6 bc f7 38 07 be ea 72 a3 be da 9e 85 3c
       -0.028149758 -0.13205324 -0.3192361 0.016311098
000110 e9 1a 3f bd d0 75 43 bc 01 e2 4e bd d5 86 37 bd
       -0.046656523 -0.011929944 -0.050508503 -0.04480632
000120 12 dd 6e be 6b bb 5f 3d d6 da 90 be 10 0f b6 bd
       -0.23326519 0.054622095 -0.2829196 -0.08889592
000130 89 66 7b 3d a8 bd 15 be 8d 8d 54 3e 73 66 26 3e
       0.061377082 -0.1462313 0.20757122 0.16250019
000140 4a ea 59 be 69 7d 63 be 36 89 01 3d 91 66 83 be
       -0.2128078 -0.22215809 0.031624995 -0.2566419
000150 cc 19 55 bd 42 75 d0 be 28 49 bb bd eb fa ce bd
       -0.052026555 -0.4071446 -0.09144813 -0.101064526
000160 b3 d3 63 be 17 ed ee bd 1d 9e 98 be 1c 0d fb bd
       -0.22248726 -0.11666315 -0.2980813 -0.1225836
000170 64 25 78 be 96 18 89 3e b6 33 88 be 91 8f b7 3d
       -0.24233013 0.2677657 -0.26601952 0.0896293
000180 3c 7d 06 3e f4 1a cc bd a6 15 47 3d ca 4e d0 bd
       0.1313371 -0.099660784 0.04860463 -0.10171278
000190 2b 1a 80 3d 07 d1 4f 3d cc bb 6e be a0 c9 3f 3e
       0.06254991 0.050736453 -0.23313826 0.18729258
0001a0 fa 11 6d bd 7e b5 65 bc c4 55 57 3e 74 40 18 3c
       -0.057878472 -0.014020322 0.2102881 0.009292711
0001b0 fc 6f 32 bd ce 05 b5 bd 50 f8 9d bd 0a b9 e5 be
       -0.043563828 -0.08838998 -0.077133775 -0.44867736
0001c0 c1 01 6d be b5 00 4c be d2 ef 16 3d 51 17 71 be
       -0.231452 -0.19922145 0.036849804 -0.23544051
0001d0 54 7c f9 bd d1 db fd 3c 97 de 88 bc a4 34 c1 3d
       -0.12181917 0.030988606 -0.016707702 0.094338685
0001e0 9b 1a 7c bd e9 ca d8 3d 18 da f0 bd 52 0a 8e 3c
       -0.06154881 0.10585577 -0.11760348 0.017338905
0001f0 f4 63 ca 3b 4f b6 08 be 62 a8 df 3d 95 6c d9 3c
       0.006176466 -0.13350795 0.10920788 0.026541034
000200 72 bf 76 3a c2 86 83 bd f4 00 03 3d 3a 73 5c bd
       0.0009412683 -0.064221874 0.03198333 -0.053820826
000210 6c f7 ea 3d 49 53 fc bc ff 97 1f be 54 36 90 bc
       0.11472973 -0.030801432 -0.15585326 -0.01760403
000220 36 5e 77 be b6 a1 c3 3d 99 5f 99 3c 20 b4 75 3e
       -0.24157032 0.09552328 0.018722342 0.23994493
000230 81 63 88 bd 03 22 b2 3c 02 48 76 3c fe d8 7e 3a
       -0.06659604 0.021744734 0.015031816 0.00097216654
000240 ce d0 72 bb 3a 0d 65 3e 1a 91 b8 bd 75 32 a3 bd
       -0.0037050727 0.22368327 -0.09012051 -0.07968608
000250 33 f2 74 bd 3e 34 22 3d 4b 04 11 3c b2 aa f9 bc
       -0.05980129 0.039600603 0.008851121 -0.030476902
000260 26 da 6b bd f9 5b 75 3e e5 63 f2 3d da d6 ec 3c
       -0.05758109 0.23960866 0.118354596 0.028911043
000270 42 9a 05 be 3f e6 6b 3e 5c e4 df 3d 1d 33 0c be
       -0.13047126 0.2303705 0.10932228 -0.13691373
000280 89 84 ad 3b 7a dd 1c be 6f 02 85 be cd 5d ec bb
       0.0052953404 -0.15318862 -0.2597842 -0.0072133304
000290 a5 48 0c 3d d2 02 9b be a3 09 ff bd 50 1c a3 bd
       0.034248967 -0.3027559 -0.1245301 -0.079643846
0002a0 16 20 b4 bd 4a a6 15 be 52 9b ac bc 07 3b 05 3d
       -0.087951824 -0.14614215 -0.021070156 0.032526996
0002b0 64 08 9c bd 53 64 a5 be 9e 94 04 3e 90 4c ac be
       -0.07618788 -0.32303104 0.12947318 -0.33652163
0002c0 cf 36 2e 3d b8 24 4b be 74 4f 1e be 1d d5 b7 bd
       0.04253274 -0.19838226 -0.15459996 -0.08976195
0002d0 db 56 23 3d 4e 77 06 be 01 e1 cf 3d 2a 84 24 be
       0.039877754 -0.13131449 0.10150338 -0.16066042
0002e0 87 69 8a be fb ec dc bd a6 37 18 be 00 6a 7b bd
       -0.27033636 -0.10787388 -0.14864978 -0.061380386
0002f0 c8 98 98 3d cb a5 59 be 39 fd 1f bd f7 3b 8d 3d
       0.07451016 -0.21254651 -0.03905985 0.06896203
000300 7b 6a 0e 3b 5a 0d 5f bd bc ff 38 be 89 4d 82 be
       0.0021730948 -0.054456092 -0.18066305 -0.2544978
000310 63 9d a6 38 05 ea 8b be 5a 1f 5e be 58 26 5d 3e
       7.9448124e-05 -0.2732698 -0.21691647 0.21596658
000320 a2 eb 7c be ec 31 5a be 56 bb ca bd ff 5d 9d be
       -0.24699262 -0.21308106 -0.09899013 -0.30735776
000330 b3 53 c9 bd b5 4e 13 3e 4b d3 64 3d 8f aa 34 3d
       -0.098304175 0.14385493 0.055865567 0.04410797
000340 6e 32 3e bd 0f ea 41 bd 6e 95 3a 3d 89 ff 9f 3d
       -0.046434812 -0.047342356 0.045552664 0.07812411
000350 42 ac 05 bd 85 fb ed bd 53 35 a5 be b1 fc 12 be
       -0.03263498 -0.11620239 -0.32267246 -0.14354207
000360 6c b0 88 be e5 10 97 be c8 dd bf be 8d d6 90 bd
       -0.266971 -0.29505077 -0.37473893 -0.07072172
000370 21 54 d7 3c 8e 80 20 3d 40 a7 79 ba a3 04 a0 be
       0.026285233 0.0391851 -0.00095235184 -0.31253538
000380 22 ff a7 bd 93 d2 a8 bd ed 3d da bd 0b 21 41 3e
       -0.082029596 -0.08243289 -0.10656343 0.18860261
000390 89 52 67 be f7 39 81 3d fe b7 b0 be 1f 2d b9 bc
       -0.22590078 0.06309884 -0.34515375 -0.022604523
0003a0 07 9f 1d bd 0c 73 38 be 0a 24 56 3d d5 c8 6f 3d
       -0.03848174 -0.18012637 0.052280463 0.058541138
0003b0 2b e5 0a be 63 23 4c 3e b9 40 55 be c9 68 ef bd
       -0.13563983 0.19935374 -0.20825471 -0.11689908
0003c0 da f8 24 be a4 c9 8d bc 6b 52 3d be 83 29 92 be
       -0.16110554 -0.017308064 -0.18488471 -0.28547296
0003d0 2c 55 17 3e 86 fd 18 bd f6 67 80 bd 28 7a 81 3d
       0.14778584 -0.037351154 -0.06269829 0.063221276
0003e0 11 a8 8f bd 7a d2 8d 3d 74 d4 a4 bd 82 6e 06 3e
       -0.07014478 0.06924911 -0.08048335 0.13128093
0003f0 73 b2 32 3d 14 d9 6b 3d 35 01 d4 3c 4b e8 87 bd
       0.043627214 0.05758007 0.025879482 -0.06636103

fc2.weight f4 [128, 256]
000000 18 14 5b 3c f0 62 48 be 00 3c 37 bd 26 ae 32 3e
       0.01337149 -0.19568992 -0.044734955 0.17449245
000010 8a a5 84 3d f8 48 21 bb 67 5b 72 3c 4e 63 ed bd
       0.064768866 -0.0024610143 0.0147923 -0.115912065
000020 f6 a7 f8 bd 0e 52 7c 3c c2 db 3c bd 92 0d 89 3d
       -0.12141411 0.015400423 -0.046108015 0.066920415
000030 d4 7a 95 be 7e 10 33 bd a3 17 63 bc 8f d5 c2 3c
       -0.29195273 -0.0437169 -0.013860616 0.023783473
000040 0e 51 52 3c e6 31 59 3e 44 b2 39 3d 01 46 28 bb
       0.012836708 0.21210441 0.045336023 -0.0025676491
000050 c6 5c e0 3d d7 61 60 be d6 14 0c 3d 2c 2f 59 be
       0.10955195 -0.21912323 0.03419956 -0.21209401
000060 d1 6a c1 bd 63 54 7e bd 98 0a 1a be d0 c9 93 bd
       -0.09444202 -0.062092196 -0.15043104 -0.07216227
000070 50 d3 cd 3d 6e 9d 5b 3d 97 af ab bd ca 49 d5 bd
       0.1005007 0.053616934 -0.083831005 -0.10414465
000080 2b 9d 87 3c 82 9b 43 3d 44 d8 43 3e 30 ec 6b 3d
       0.016554436 0.047755726 0.19125468 0.057598293
000090 6c 4d 45 be 74 c4 09 3e 9c ae 24 be ca 3b 6c be
       -0.19267815 0.13453847 -0.16082233 -0.23069683
0000a0 11 30 83 bc cb a5 a9 bd 96 b4 d8 3d dc 03 e7 bc
       -0.01601413 -0.082835756 0.10581319 -0.028200082
0000b0 0b a6 af bd 0f 78 aa 3e 99 d4 41 be b5 63 14 bd
       -0.08576592 0.33294722 -0.18928756 -0.0362279
0000c0 b1 0f 96 bb d2 b1 26 be 7f bf 45 3e 7b f2 3c 3e
       -0.0045795073 -0.1627877 0.19311331 0.18451874
0000d0 89 4c 42 bd 35 3a c5 3c 41 96 d3 ba 46 a0 92 bd
       -0.04743627 0.024075607 -0.0016142802 -0.07159476
0000e0 4c bb c6 3d 62 19 44 3d 32 3a 10 3d 1b 67 98 bd
       0.09703693 0.04787577 0.03521175 -0.07441541
0000f0 dd 38 73 be d3 b7 e8 3c 87 c6 1f be eb ae 3b 3c
       -0.2375216 0.028407967 -0.15603076 0.011455278
000100 61 85 13 3b 62 c5 2b be bb 16 24 bd 26 d9 60 bd
       0.002250992 -0.16774514 -0.04006074 -0.05489459
000110 85 b4 e6 bc 0d 71 75 be 79 d5 e5 bd 1c 28 cc bd
       -0.02816225 -0.23968907 -0.11222357 -0.09968588
000120 6e fb 52 3d 68 ff 34 3e 6d c2 9d 3d 6a 11 9d 3b
       0.051509313 0.17675555 0.077030994 0.0047933357
000130 59 f5 41 be 9e 4e 9f be 22 ce 0b 3e 6c 94 64 bd
       -0.18941249 -0.31114668 0.13652852 -0.05580561
000140 0c 2f d8 bd 1d c9 98 bd 31 76 96 bd 9f 80 19 3e
       -0.105558485 -0.07460234 -0.07346762 0.14990471
000150 03 70 98 bb ad e3 cc bd 9e 89 0e be ea 57 ec be
       -0.0046520247 -0.10004363 -0.13919684 -0.46160823
000160 53 05 8c bb 58 4a f5 3d 53 ca 31 bd 17 0a 16 be
       -0.0042730956 0.119770706 -0.043405842 -0.14652286
000170 1d 7d 4d 3d 26 ee 83 3d 80 78 e4 3c 66 b6 10 bd
       0.050168145 0.064419076 0.02788949 -0.0353302
000180 92 96 06 3e 57 9c ba 3d 07 1e 0f 3e 65 70 7c be
       0.13143376 0.09111851 0.13976298 -0.2465225
000190 28 12 e5 3c 0a 14 4c bd 7b 14 b6 bd 0f c9 9a 3b
       0.02796276 -0.0498238 -0.08890625 0.004723675
0001a0 18 56 cb 3c 01 b9 1f be fc 3d c3 3d ac 8a f3 bc
       0.024821326 -0.15597917 0.09533307 -0.02972921
0001b0 b0 27 8b bb db 5a ca bd c9 51 8a 3c 56 42 0b bc
       -0.0042466745 -0.098806106 0.016884701 -0.008499702
0001c0 38 26 d1 bd 31 3a 81 be 7a 02 ca 3d 03 f3 f1 3d
       -0.10212368 -0.2523971 0.098637536 0.11813929
0001d0 74 9e 8f 3c c8 de 80 3d 19 02 9e bd fc cc 07 3d
       0.017531611 0.06292492 -0.07715244 0.033154473
0001e0 26 83 ce 3d f0 bc e1 bd c8 79 52 bd 81 20 5b 3d
       0.10083608 -0.11022365 -0.05138567 0.053497795
0001f0 36 06 0b be 62 58 6f 3d 13 fd ed 3d b3 5d 77 3c
       -0.13576588 0.058433898 0.11620536 0.015098023
000200 2f 68 55 3c 7b 13 6f 3d 31 f0 36 3d 2e f1 e2 3d
       0.013025328 0.058368187 0.044662658 0.110811576
000210 11 09 65 bd a6 28 86 bc 36 dd 89 3d f1 0e 11 3e
       -0.05591685 -0.016376805 0.06731646 0.14165856
000220 3a ae 00 3d 88 6a 24 bc 24 4b 1f be ab a5 18 3d
       0.031416155 -0.010035165 -0.15556008 0.03726737
000230 53 5f b7 bd d1 00 8c bd e2 93 86 3d ef 67 e3 3d
       -0.089537285 -0.06836093 0.06571175 0.11103808
000240 e4 c4 3a be 44 45 97 bd 32 a8 3f bd 77 08 b3 bb
       -0.1823917 -0.07386258 -0.046791263 -0.0054636556
000250 94 e6 76 bd 9a 21 d0 3c 74 66 5f 3c 0b ea a4 3d
       -0.06027849 0.025406647 0.013635267 0.08052453
000260 eb 95 5b 3e 5a 7c 19 be bb 45 c7 3c bd f5 2b 3e
       0.21443908 -0.14988843 0.024325242 0.1679296
000270 4f 6b 03 3e e2 69 dc 3d f3 cc 68 be 7e 67 1e bc
       0.12833904 0.10762383 -0.22734432 -0.009668229
000280 ea 0c c6 3d 80 c8 c3 3b 38 5e 13 be db 78 d3 3d
       0.09670432 0.005974829 -0.1439141 0.10325786
000290 f4 93 31 3e 68 de 16 3d 22 81 b0 be e0 07 7c bc
       0.17341596 0.036833197 -0.3447352 -0.015382737
0002a0 c2 d3 ae bc 03 b0 ce 3d b7 4a 0d bd 1a 11 93 3d
       -0.021341208 0.10092165 -0.03449508 0.07180996
0002b0 2a c3 b0 bd 6d 46 81 3d 13 b1 3c be c6 36 cd bd
       -0.086309746 0.06312261 -0.18426923 -0.10020213
0002c0 c4 47 6e be c7 d6 47 3d f3 d9 b9 3d f7 0a 0c 3e
       -0.23269564 0.048788812 0.09074774 0.13676058
0002d0 d7 46 91 bd 61 50 9c 3d 8e 6d 39 be 16 25 04 3e
       -0.0709359 0.076325186 -0.18108198 0.12904772
0002e0 29 8b 79 bd ed 03 90 bc 6a 69 04 3d 78 2f 4d 3c
       -0.06092373 -0.017579997 0.032327093 0.012523524
0002f0 f9 fd 2b be f5 fe 46 3e 3b b2 f2 bc 17 4b a3 3d
       -0.16796102 0.19433196 -0.029626003 0.079733066
000300 b4 e5 80 be 06 54 2b be e1 74 2f be ba 84 62 3d
       -0.2517525 -0.16731271 -0.1713443 0.05530236
000310 ac a1 80 bc f5 2f 72 bd 78 0c 47 bd df 3b bb 3d
       -0.015702091 -0.059127767 -0.048595876 0.09142279
000320 7a db 16 3c 58 0d d1 3d 41 45 9a 3d 4e c4 1b be
       0.009207601 0.10207623 0.075327404 -0.15211603
000330 74 1a 6a 3d 88 f0 57 bd 1b 55 52 be b1 41 c6 3d
       0.057154134 -0.052719623 -0.20540278 0.096804984
000340 a4 8a 89 bd d9 47 27 be bb 88 44 3d a7 87 d0 3d
       -0.06715897 -0.16336001 0.04798196 0.10182124
000350 6e bc be 3d 06 06 25 bd eb 95 f1 bc 29 1f 4e 3e
       0.09313284 -0.040288948 -0.029490432 0.20129074
000360 a3 e3 c1 3c c6 9c 1e be 0f 65 9c bd 7e 03 3a 3e
       0.023668116 -0.15489492 -0.07636463 0.18165395
000370 b5 de 2f b9 96 45 6c be fc 8e a9 3d b9 39 85 be
       -0.00016772265 -0.2307342 0.08279225 -0.260206
000380 fd 1e 63 3d 9b 95 d8 3c 8c a4 fd 3c 91 cd 1d 3e
       0.055449475 0.026438525 0.030962251 0.15410449
000390 ec b3 c0 be 71 3c da bb 6a 4b 6a bd 30 03 d9 ba
       -0.3763727 -0.006660037 -0.057200827 -0.0016556736
0003a0 66 c5 cd 3d 97 26 dc 3d 62 4c 47 3d 58 b2 6f 3d
       0.100474164 0.10749548 0.04865683 0.05851969
0003b0 6f 03 83 3d ab 7e ed bd e1 11 79 3e 52 65 96 be
       0.06397139 -0.115964256 0.24323227 -0.29374176
0003c0 ed c9 1c 3e 44 d7 28 be 38 de 46 bd 50 0e a3 bd
       0.15311404 -0.16488367 -0.048551768 -0.07961714
0003d0 7f 13 37 3e 73 f9 09 3e 04 c9 8d 3d 55 4e 2e be
       0.17878531 0.13474064 0.06923106 -0.17022069
0003e0 52 c3 9b bd 16 83 b6 bd bc 23 f3 3d 13 cf 8f 3d
       -0.07605614 -0.089117214 0.1187205 0.07021918
0003f0 af fd 0a 3d 5d 98 14 3e 06 5e 0a be 24 f5 c8 3d
       0.033933338 0.14511247 -0.1351243 0.09812382
