checkpoint_critic_1.pth (torch, 191428 bytes, 9 tensors)

bn1.weight f4 [256]
00000000: 40b5 4d3f 6cda 263f 1008 4f3f 37a1 663f
00000010: 2bc0 4f3f 5b96 433f b22a 543f 0996 753f
00000020: 697c 473f 6e37 4f3f ee06 593f 0d2c 4c3f
00000030: 680b 553f bb43 543f 5263 353f 26ac 7b3f
00000040: ab4b 4f3f d063 753f 16f2 4a3f 914a 513f
00000050: 2d5e 6e3f f8fc 593f fda7 673f 6fab 693f
00000060: 6aa0 523f bb32 593f 8f2a 313f fc78 583f
00000070: 7f42 4f3f bdfd 483f e039 783f abcb 773f
00000080: 7ad1 4b3f d92d 473f 5746 333f c578 4d3f
00000090: 61b6 503f cf92 603f da07 363f 3862 353f
000000a0: 440b 533f dc0f 993f 551d 3c3f ae82 4b3f
000000b0: 797c 563f 3c2c 453f 178d 5c3f 7f57 393f
000000c0: 7326 2d3f 6ace 2b3f faf7 6e3f aa44 523f
000000d0: dfa8 643f 8516 6d3f 3049 473f c1f7 543f
000000e0: c1c6 3f3f 7be6 753f 431e 533f 7ebb 643f
000000f0: 0224 4f3f b0c5 443f 736d 603f 0d2d 983f
00000100: f494 923f 10e6 8e3f bcc0 8e3f 6eac 803f
00000110: 57d4 6c3f f160 693f 200f 633f 7035 663f
00000120: 6e93 473f 63ad 223f b4e3 9e3f 4aef 573f
00000130: f4bf 7d3f 9b05 543f fae9 3b3f e4e7 8b3f
00000140: 3bd5 4c3f 2139 7d3f 63e6 513f a6a3 5a3f
00000150: 0a9d 503f da73 7b3f ab12 443f f331 633f
00000160: 59af 543f e241 8f3f 455d 2e3f 11fd 833f
00000170: fbc4 573f d004 423f 1649 503f 5271 3f3f
00000180: cd7e 483f 308a 403f e953 523f 046e 7c3f
00000190: 0b9b 7a3f f088 413f 9171 683f 7281 683f
000001a0: 303d 563f ccfd 453f f01b 573f c64a 8b3f
000001b0: e1b6 453f 16f6 263f 3a89 613f d270 933f
000001c0: f743 553f 6898 453f 731a 3f3f 5ffa 943f
000001d0: c06f 343f 1a60 633f 986c 593f 4559 4d3f
000001e0: a2f0 3e3f 6aa5 463f 405a 553f a0da 503f
000001f0: 7784 593f e5ea 763f 281b 453f 0d79 323f
00000200: 3308 693f 22ff 503f 553b 863f 901a 5b3f
00000210: b701 7c3f b65e 553f 6078 503f f06c 423f
00000220: 7cd7 343f 9932 4a3f 5e51 4b3f a877 4a3f
00000230: fe0a 693f e644 423f 9689 753f 659c 473f
00000240: 60b6 653f 9884 653f a1fe 5b3f 2c16 5c3f
00000250: ea49 9c3f 4f73 903f a000 423f 2bb6 8d3f
00000260: 4040 823f 15a3 223f 242d 3d3f 4ee7 833f
00000270: 9e63 483f 7bff 413f 2b25 3b3f d435 5d3f
00000280: 2373 283f 3607 943f c765 4f3f 707c 5a3f
00000290: 7bf7 553f ac69 3b3f 3b68 813f 21aa 373f
000002a0: d77d 4e3f 7334 453f d352 4c3f fdc0 573f
000002b0: b131 4c3f b336 513f 34ab 473f 538c 333f
000002c0: c29a 643f bf28 843f c129 163f f7f1 443f
000002d0: f868 3f3f b7ce 593f 9dcd 443f eda7 393f
000002e0: 8665 6c3f 15ef 343f d8db 4b3f e1d9 553f
000002f0: 3c77 3c3f a838 323f e6b6 503f 4348 6f3f
00000300: 9095 313f 6382 423f a4b5 443f 8370 4f3f
00000310: 87e3 473f 7b2c 423f b66f 293f 628d 563f
00000320: a5b5 9d3f 5bdf 493f 0335 4f3f 07b4 463f
00000330: 8e7f 483f 9b3c 163f 6cf6 453f 8063 143f
00000340: aff3 383f 68ec 393f 89c8 7c3f d7c6 523f
00000350: fd82 703f 46ca 3c3f aeda 453f ebac 3a3f
00000360: f911 913f 5876 903f abf2 323f 7e82 463f
00000370: 7bdf 523f 0bb7 613f 80a1 5f3f 8fa9 5b3f
00000380: 2e21 443f c742 5c3f b9fd 7c3f 687a 5d3f
00000390: 19eb 623f e0d6 5f3f 5ea6 593f 6ef2 753f
000003a0: 0549 863f 9cec 5c3f bd8b 683f 08ea 653f
000003b0: 6223 863f ef11 473f e2ce 783f b414 533f
000003c0: 8d82 3e3f 175e 2b3f 73e4 453f 9a29 393f
000003d0: e866 403f 346f 833f 5e2e 673f 6c3b 4b3f
000003e0: 6e5a 483f 9538 3f3f 0af4 463f d94a 4f3f
000003f0: 8f0e 473f 22ca 2a3f 9250 663f 7f57 5a3f
0.8035469 0.65177035 0.8087168 0.90089744 0.811526 0.764013 0.8287765 0.9593206
0.7792421 0.80943954 0.847762 0.79754716 0.8322053 0.8291585 0.70854676 0.9830955
0.80974835 0.95855427 0.79275644 0.81754404 0.9311245 0.85151625 0.90490705 0.9127721
0.8227602 0.84843034 0.69205564 0.8455961 0.8096084 0.78512174 0.9696331 0.9679515
0.7961651 0.7780433 0.70029205 0.80262405 0.8152829 0.8772401 0.7110573 0.70852995
0.82439065 1.1957965 0.7348226 0.79496276 0.8378368 0.7702062 0.86152786 0.72399133
0.67636794 0.6711184 0.9334713 0.82136023 0.89320177 0.9261249 0.7784605 0.8319054
0.7491265 0.9605481 0.8246805 0.8934859 0.8091432 0.7686415 0.87667006 1.1888748
1.1451707 1.116396 1.1152568 1.0052621 0.92511505 0.91163546 0.88694954 0.8992529
0.77959335 0.6354582 1.241324 0.843495 0.9912102 0.82821053 0.73403895 1.0930142
0.80012864 0.98915297 0.8199217 0.8540596 0.8148962 0.9822365 0.76590985 0.8874809
0.8308006 1.1191981 0.6811107 1.0311605 0.84284943 0.75788593 0.8136152 0.7478229
0.7831848 0.7521086 0.82159287 0.9860537 0.97892827 0.75599575 0.9079829 0.9082252
0.83687115 0.7734039 0.84027004 1.0882194 0.77232176 0.6521925 0.88100016 1.1518805
0.8330683 0.7718568 0.74649733 1.1638907 0.70483017 0.88818514 0.84931326 0.8021434
0.74585927 0.7759615 0.83340836 0.81583595 0.8496775 0.9645217 0.7699456 0.6971596
0.91028136 0.816393 1.0486857 0.85587406 0.98440117 0.8334764 0.8143368 0.75947475
0.70641303 0.78983456 0.7942103 0.7908883 0.910324 0.7588638 0.95913064 0.77973014
0.8973141 0.89655447 0.8593541 0.8597133 1.2210057 1.1285189 0.75782204 1.1071218
1.0175858 0.63530093 0.73897004 1.0304964 0.78277004 0.7578046 0.7310359 0.8641026
0.65800685 1.1564701 0.81014675 0.85346127 0.8358075 0.7320812 1.0109934 0.7174397
0.80660766 0.77033156 0.7981388 0.8427885 0.79763323 0.8172409 0.7799561 0.7013599
0.8929864 1.0324935 0.5865746 0.7693171 0.74769545 0.85081047 0.7687624 0.7252186
0.9234241 0.7067731 0.7963233 0.8353558 0.7361944 0.696177 0.8152908 0.9346964
0.6936884 0.75980204 0.7683966 0.81031054 0.78081554 0.7584912 0.6618608 0.83809483
1.2321059 0.7885644 0.80940264 0.7761845 0.78319633 0.58686227 0.77329135 0.57964325
0.7224683 0.7262635 0.9874349 0.82334656 0.9394987 0.73746145 0.77286804 0.729201
1.133361 1.1286116 0.6990153 0.77542865 0.82372254 0.88169926 0.87355804 0.858056
0.7661313 0.86039394 0.9882465 0.865149 0.8863998 0.8743725 0.8501948 0.96073043
1.0491034 0.8629854 0.90838224 0.8981023 1.0479548 0.7776174 0.9719068 0.82453465
0.74417955 0.66940445 0.7730171 0.72329104 0.7515702 1.0268312 0.90305126 0.79387546
0.78262985 0.7469571 0.77716124 0.80973583 0.7775659 0.6671468 0.8996669 0.8528976

bn1.bias f4 [256]
00000000: b9c1 9b3e 852a 51bd 23f8 253e 01fd b1bb
00000010: 3bf2 36bc 2f7e 173e 6957 773e 85cc 393e
00000020: fe26 0ebd 0537 25bd f5f5 353e 244e 713e
00000030: bfa9 383e c0a4 663e dc32 82bd 995a a03e
00000040: 3c51 213d b43b 0e3d 56d6 97be 8841 85be
00000050: f2c0 513e bceb 24bd 16b0 b1bd 3071 b4bc
00000060: 438b 043e 7e5b 913d 5f95 96bd 344b 2d3e
00000070: 8982 3c3e cc08 b7bb 8725 ecbd b79c 16bd
00000080: ca42 763d 3706 8d3e 177d 43be 1718 ab3d
00000090: f645 633d e1b2 48be fc59 293b e174 7bbe
000000a0: a24d 913d 1567 763d 009d 033e 78de 983d
000000b0: 18f2 963d d988 b6bc 0c71 743e ba90 ba3e
000000c0: 2fd9 1bbe 6182 acbd 824e 453d 2ddb b4be
000000d0: d94e 833e 7479 8fbe 79ee 6b3e 230e e93d
000000e0: 5360 833e e9b0 773e f8c2 853d 9cf3 ad3d
000000f0: 790a aabd 4533 7dbd f0a8 03bd ed94 523e
00000100: 6f31 3dbc a657 65be 08c8 a53c 2abb 11bd
00000110: 0ac2 b1bb 05d8 9e3e 28bd 153e 5470 f33d
00000120: 9713 a53e 94e2 49be eb54 073d ca76 2c3e
00000130: ad88 db3c 946b acbb bad3 143e b93d 063e
00000140: f30e b33d 83be 0a3e 54a3 863d 4277 1cbc
00000150: 495a 3c3e cab3 373e a2e1 a53e 62f9 abbd
00000160: 02cb 2c3d fd23 143e da6b 76bd 5307 923d
00000170: fb63 cebd 367a 343e c434 e3bd 7990 44be
00000180: 540f c3bb 4fbd 7c3d 53ea b33c 9c0c 343e
00000190: 7cc8 903e 5b65 acbd 9fdc a33d 5423 3d3e
000001a0: f410 9a3e 8216 d93d 2682 b3bb 4dcf f53d
000001b0: 529a 31be 229f f6bc a857 1fbe 2fb1 ed3d
000001c0: 49fd 323d 330f 813d 5c2d 6f3e 8513 193e
000001d0: c09b 7dbe 4874 803d aa20 4d3d 03da 4d3d
000001e0: 0b1b be3d 4603 873d 2e94 2bbd efda 113d
000001f0: a2a2 9abd c874 363e 0af2 9fbd ff17 1d3e
00000200: 347c b0bc f675 90bd 9377 8d3d 344a 04be
00000210: 20a7 623e 16fe 053e 033e 213c e722 073d
00000220: bd3f 23be 91bf ccbc e8b0 073e ee6e aabd
00000230: dd3f cebe 2615 a83d 8be7 b83e 5138 8e3e
00000240: 14fc 3d3e 93a2 743e 72d2 553e d679 f1bd
00000250: 3445 e23c 12db 563e 12c0 e53d fd55 c13d
00000260: ee80 d43d 1d09 39be 9d11 28bc 32d0 87bc
00000270: fb27 3a3e edfb 683d 806b db3c b84c bc3e
00000280: 113f 2e3e 989e 373c e4dc 993c 85a8 5dbe
00000290: 4d64 84bc 3997 da3c 4cb2 d13d 499d ac3b
000002a0: ae94 ce3d 644b 9cbc 9416 433e 682a 36be
000002b0: 5a2e 043e ed12 373e d5a1 633d 31ee 89bd
000002c0: 3bc3 b4bd 1bcf 383e c060 94bc 1191 1abc
000002d0: 9c28 88bd 5e3c 423d 7e65 823e 27cb cd3d
000002e0: 3489 3c3e 9529 573d 4321 3abd e4a4 263b
000002f0: 0a4c 383c 4068 943c b2ef 4cbd f01f 023e
00000300: b2bb f83c 04bd 9d3d 5f29 993d ae9b 4dbe
00000310: 7666 0e3c c4c9 d4bb ef4e eb3d 031b 693d
00000320: 4621 2a3e 4c5f 0b3e 48ee 753d 219c 783d
00000330: 4ac4 e93c 6ba0 2abe bf24 ac3d b363 d03d
00000340: 4fc0 a6bd 48e0 1abe 25d9 a73c dd6a b8bd
00000350: 50f8 593d cd9e 753c a111 febd 8fc3 edbd
00000360: b5e5 f13d fec2 6e3d 8f81 763e 1844 6f3d
00000370: bac2 82bd 7318 f5bd 57f0 813d 6539 c3bd
00000380: 28ac 673e 3cf1 4e3d 739b 40bd 15dd 413e
00000390: 97df 0b3e fa23 1bbe 0ea2 e5bd cc5f 8b3e
000003a0: 2732 0f3d a6cc 9fbd 3f37 1d3c 7418 633e
000003b0: 8dce 4c3e 16db 473d d5e9 0ebd 5faa c93d
000003c0: 2adb eebd 52cb a93d be00 7b3e a638 3abe
000003d0: 2a67 b73d 80b9 663c 29ca 78bd 1a23 0f3e
000003e0: bdde 6cbd 881c 2c3e f75d 6c3e 56c2 edbd
000003f0: 7cb9 a1bd 0684 4dbe 9327 93bd 4c06 f53b
0.30421236 -0.05106594 0.16207938 -0.0054317717 -0.011166151 0.14794229 0.24154438 0.18144424
-0.034705155 -0.040335674 0.17769606 0.23564965 0.18033503 0.22523785 -0.06357357 0.3131912
0.03938411 0.034724906 -0.29655713 -0.2602656 0.20483759 -0.040263876 -0.08676164 -0.022026628
0.12943749 0.07097529 -0.07352709 0.16923219 0.1840917 -0.0055857655 -0.11530595 -0.03677055
0.06012229 0.27543804 -0.19090687 0.08354204 0.05548664 -0.19599487 0.0025840988 -0.24556305
0.070948854 0.0601569 0.1285286 0.074643075 0.073703945 -0.02228205 0.23871249 0.36438543
-0.15219568 -0.08423305 0.048170574 -0.35323468 0.25646093 -0.2802235 0.23040189 0.113796495
0.25659427 0.2418858 0.06531328 0.084937304 -0.08302779 -0.061816473 -0.032143533 0.20564623
-0.01154743 -0.22396716 0.020236984 -0.035578884 -0.0054247426 0.31024185 0.14622939 0.11886659
0.32241508 -0.19715339 0.03303997 0.1684219 0.02679857 -0.0052618477 0.14533892 0.13109483
0.08743086 0.13549237 0.06574121 -0.009549918 0.18393816 0.17939678 0.32398707 -0.08397175
0.04218579 0.14466853 -0.06016145 0.07130303 -0.100776635 0.17624745 -0.110940486 -0.19195737
-0.005952755 0.061703976 0.02196232 0.17582935 0.28277957 -0.084177695 0.080010645 0.18470508
0.3009106 0.10599996 -0.0054781614 0.1200243 -0.17344025 -0.030105177 -0.15560782 0.11606061
0.043698583 0.06301727 0.23357147 0.14948852 -0.24766445 0.06272179 0.05007998 0.05025674
0.09282502 0.06592421 -0.041889362 0.035609182 -0.07550551 0.17817986 -0.07809837 0.15341185
-0.0215436 -0.07053749 0.069075726 -0.12918931 0.22134066 0.13085207 0.009841445 0.03299227
-0.15942283 -0.02499369 0.13251078 -0.083219394 -0.402831 0.08207159 0.36114153 0.2777734
0.18553191 0.23890142 0.2088106 -0.117908165 0.02762089 0.20982006 0.11218275 0.09440229
0.10376154 -0.18069883 -0.010258106 -0.016578767 0.18179314 0.05688088 0.026784658 0.36777282
0.17016245 0.011207245 0.018782087 -0.21646316 -0.016161108 0.026683437 0.102390856 0.0052677733
0.10086952 -0.019078918 0.19051582 -0.17789614 0.12908307 0.17878313 0.055574257 -0.067348845
-0.088263 0.18047754 -0.01811254 -0.009434001 -0.066483706 0.047420852 0.25468057 0.10048514
0.18411714 0.05252989 -0.045441877 0.0025427872 0.011248598 0.018116117 -0.05003328 0.12707496
0.030362938 0.077020675 0.07478594 -0.20078918 0.008691421 -0.006493779 0.11489665 0.056910526
0.16614255 0.13610572 0.060041696 0.06069577 0.02853598 -0.16662757 0.08405446 0.10175266
-0.08142149 -0.15124619 0.020489285 -0.090047576 0.053215325 0.014991474 -0.12405706 -0.116095655
0.11811391 0.058291428 0.2407286 0.05841455 -0.063847974 -0.11967554 0.06344669 -0.095324315
0.22624266 0.050523028 -0.047023248 0.18931992 0.13659512 -0.15150443 -0.1121255 0.27221525
0.03495994 -0.078027055 0.009595691 0.22177297 0.20000668 0.04879292 -0.03489097 0.09846949
-0.11662896 0.082907334 0.24512002 -0.18185672 0.08955224 0.014082313 -0.06073967 0.13978234
-0.057829607 0.16807759 0.2308272 -0.11609332 -0.078967065 -0.20069894 -0.071852826 0.0074775573

bn1.running_mean f4 [256]
00000000: d6af 973f 05c0 ff3e 3e6b 233f ace0 c23d
00000010: 5650 443f e455 9c3e 2ebc fe3e aa23 e53f
00000020: c53b c63f cd18 503f dcc4 9f3f 0a06 6740
00000030: 45c6 833f c744 3e40 b364 613e 2e79 a43f
00000040: 2957 f93f 6434 aa3f 17dc 723f b4a7 033f
00000050: 040d 453e cac4 8040 3013 993e fa08 a43e
00000060: 7dcc 3c3f 880a e53f 7de6 053f fc30 e33f
00000070: d8f1 2940 9ef2 df3f 6f96 523f a7af 703f
00000080: 49a4 163f 934e 023f 3677 4740 b7ff e03f
00000090: efaf 0040 3682 1c3f 1380 ab3f b52f 003f
000000a0: 00af 823f 9e57 103f 8ed2 6f3e dcb8 3540
000000b0: 465f 7040 abc2 813f 8f6a 923e da38 1940
000000c0: 3d14 4b3e cfa1 903e e70a b73f 2abd 2b3f
000000d0: 6128 b23f 855c d23e bc78 3240 7471 bb3f
000000e0: b4b1 2e3f c812 d43d 5658 403e ba76 3540
000000f0: b053 b43e bcdb 8c3f 6d8f b43f db81 143e
00000100: c41f 8940 17cb 623f 98d3 0a3f b2fe 7f3e
00000110: db18 953f 2e8a 7e3f 64e5 813f c273 8f40
00000120: f15e 833f c842 523e 84b0 8340 8fe8 4540
00000130: 8e7d 123f 5a87 b73f 0449 ac3f e759 0840
00000140: 3d86 a33e 39da 0e40 b7d7 883f 7c7c 8c3e
00000150: 646d d93e 0d5e 933f 64ef a43e 3ee2 2c40
00000160: dc37 153f 9668 843e b888 9a3d 2c05 fa3e
00000170: 664c 4a3e 7d30 bd3f 5161 143e dbd1 2340
00000180: cc21 8f3f 2a29 b03f 049b 933f 3266 e93f
00000190: 003d a33e 3997 e13e 269e 603f ee53 6540
000001a0: 9a89 283e 4cca 883f e077 9e3e 5302 f03e
000001b0: e300 e93e 8688 fd3e 4d47 c23e 6e34 af3d
000001c0: 6b76 3d3d c5d0 143f 415c 743f ef9b a840
000001d0: 9b29 2040 9373 783f d494 7f40 a054 1040
000001e0: 54a0 1740 ae1f 0340 6c39 1340 4fdb cd3f
000001f0: c9f1 c03e f6cc 3a3e 2f87 f63f 0aec c53e
00000200: 21f5 b03e cbc0 213f 08db 513e 188e 653f
00000210: f358 233f d97e 2c40 1c5e a73f cf0c 9940
00000220: 67d9 5b3f 20d5 de3f f994 1c40 8067 ee3e
00000230: 6e16 0740 104a 853e 4c44 493f 989f 383f
00000240: 1424 f53d 3267 bf3f da3a 233f 9b49 5a3f
00000250: 0b24 c73c 4e54 693f 3536 553f bc31 6340
00000260: c96d a33e ecca 783f baa3 5e3f f8bf 6540
00000270: b822 cd3e 8bb8 5a3f 7134 5240 a6e3 913f
00000280: 8720 433e 4af1 933e 7e02 3a40 e822 403f
00000290: acf2 6b3f 90f5 8a3f d422 bb3f 6800 bc3d
000002a0: 1702 7240 3303 303f 4a42 ce3f ccb2 2f40
000002b0: 0195 4f3f 40ca 1c40 7e1c a940 89e7 243f
000002c0: f548 be3e 04df 863d 43bf 093e 45c0 d23e
000002d0: 4d9f 923f 942c ee3e 073c f73e 6c6b 6f3f
000002e0: 005f 903f 6a2c eb3f 19df 9e3f 930f 293f
000002f0: 6fcd 533f 3beb 0f3d 1364 cf3f aa59 a53f
00000300: 24a2 723e 1c65 a03f 67d5 3e3f 6b93 993f
00000310: 592f 903f 1bde 9c3f 3ab9 dc3e de25 f83e
00000320: d1d3 0e3d aa08 323f 392f dc3e 50b9 c43f
00000330: af66 de3e e6a8 803e a57d 0f40 863e de3d
00000340: 6a72 db3e dd4f 813f 17b9 6640 506b 443f
00000350: 5676 bd3e 2ea7 903f e621 463f e042 e33f
00000360: e836 a440 a410 7440 ede0 023f d0c3 213f
00000370: a150 0040 b610 5440 0894 2d3e b4c0 0040
00000380: 6d43 1b3f 467d 9840 619f dc3f 5d41 113f
00000390: 5bbe 913f 0099 9f3e c965 0740 1013 0540
000003a0: bdab 1440 37c0 c63d 61e8 673f 519b 433f
000003b0: 7bd3 de3f 0e6f 9a3f c7b7 7540 20ec c83e
000003c0: 9ac3 1840 b4e1 363f fe47 1540 ec53 fb3f
000003d0: a551 423e c884 3f3f 751d bd3e 2423 573e
000003e0: 24fe 833f f99b 823f 0260 0f40 6b37 8b40
000003f0: c64d c03f b3c3 483e 504d 003f 2c6c 8d40
1.1850536 0.49951187 0.63835514 0.09515509 0.7668508 0.3053428 0.49752945 1.7901509
1.548699 0.81287843 1.2481952 3.6097436 1.0294882 2.9729478 0.2201107 1.2849481
1.9479724 1.3297238 0.9486708 0.5142777 0.19243246 4.024022 0.2989745 0.320381
0.73749524 1.7893839 0.5230482 1.7749324 2.655386 1.7495916 0.82260793 0.94018024
0.5884443 0.50901145 3.116651 1.7578038 2.0107381 0.61136186 1.339846 0.50072795
1.0209656 0.56383693 0.23420164 2.839408 3.755815 1.0137533 0.28596923 2.394095
0.19831939 0.2824845 1.4300202 0.67085516 1.3918573 0.41086212 2.788619 1.4643998
0.68239903 0.10355145 0.18783697 2.8353715 0.35220098 1.1004558 1.410627 0.14502661
4.2851276 0.8859114 0.54229116 0.24999502 1.164821 0.99429595 1.014813 4.4828806
1.0263349 0.20533288 4.1152973 3.0923193 0.5722283 1.4338181 1.3459783 2.1304872
0.31938353 2.2320693 1.0690831 0.27438724 0.4246627 1.1513077 0.3221389 2.7013087
0.5828836 0.25861043 0.07545608 0.4883207 0.19755706 1.4780422 0.14490248 2.5596836
1.1182189 1.3762562 1.1531682 1.8234313 0.31882477 0.44060686 0.87741315 3.5832477
0.16458741 1.0686736 0.30950832 0.46876773 0.4550849 0.49518222 0.37945023 0.08554922
0.04625551 0.5813106 0.9545327 5.269035 2.5025394 0.9705135 3.9934587 2.255165
2.3691607 2.0488086 2.3003798 1.6082553 0.37684467 0.18242249 1.9260005 0.38656646
0.3456202 0.63184804 0.2049371 0.8966994 0.638076 2.6952422 1.3075595 4.7828135
0.85878605 1.740879 2.4465926 0.4656334 2.110744 0.26033068 0.7861984 0.7211852
0.11969772 1.4953368 0.63761675 0.85268563 0.024309179 0.91144264 0.8328584 3.5499105
0.31919697 0.97184634 0.86968577 3.5898418 0.4006555 0.8543784 3.2844508 1.1397598
0.19055377 0.28895026 2.906402 0.7505326 0.9216716 1.085619 1.4620004 0.09179765
3.7813776 0.6875488 1.611398 2.745288 0.81086737 2.4498444 5.284728 0.64415795
0.37165037 0.065855056 0.13451867 0.41162315 1.1454865 0.46518385 0.48287985 0.9352329
1.1278992 1.8372929 1.2411834 0.6603939 0.8273534 0.035136443 1.6202415 1.2917988
0.23694664 1.2530856 0.74544376 1.1998113 1.1264449 1.2255281 0.43110067 0.4846639
0.034869973 0.6954447 0.43004778 1.5369053 0.43437716 0.2512886 2.2420437 0.10851769
0.42860729 1.0102497 3.605047 0.76726246 0.37004346 1.1301019 0.77395475 1.7754784
5.1317024 3.8135157 0.5112446 0.6318941 2.0049212 3.31352 0.16951 2.0117617
0.6064976 4.765292 1.7236139 0.5674036 1.1386217 0.31171417 2.1155875 2.0792885
2.322982 0.09704631 0.9058896 0.7640887 1.7408289 1.2065141 3.8393419 0.3924265
2.3869386 0.71438146 2.332519 1.9634986 0.18976457 0.74811983 0.36936536 0.21009499
1.0311933 1.0203849 2.2402349 4.350515 1.5023735 0.19605903 0.5011797 4.4194546

bn1.running_var f4 [256]
00000000: 2119 5e40 6ed2 fb3f c3fd df3f defb 253e
00000010: c7a3 1d40 c395 453f c685 b43f 37ff b140
00000020: 7811 4a40 e845 1040 4abb e53f 4465 d940
00000030: f180 1540 e623 b640 2982 0d3f acfe b53f
00000040: 2112 db40 6991 5540 e2a2 3340 a092 943f
00000050: f355 c93e 5398 a740 cc1f 3e3e a5b1 603f
00000060: 1589 a03f 98a8 8f40 4dff aa3f 4367 9d40
00000070: 6a5e 9040 66d4 cb40 e8ca 423f 76cb 1c40
00000080: c466 a73f 448d 843f 89a4 c240 c0e1 7240
00000090: 298d 5840 4430 8a3f 3ee4 0740 180e ac3f
000000a0: 8d13 ae40 de42 4d3f 5817 b83e 73b5 7c40
000000b0: c5c3 c540 f49e 0240 8779 1c3f f34b 9840
000000c0: b7c8 d93e 16db 1a3f a745 8e3f e635 d13f
000000d0: 6538 6840 ea92 7e3f 592e b240 11d7 5640
000000e0: de8c b23f e78a 493e 6129 903e 1bd7 a440
000000f0: dbc6 883f 9818 4a40 acc9 9940 f696 683e
00000100: b200 1242 96de 923e 2aea c23e 8aea 093f
00000110: be04 f53e 2480 7c3f 1ada 4040 6c96 0541
00000120: 9e5c 8640 1bfa 153f f2ed 0542 d590 df40
00000130: 8eea 5b3f 3c8c 8d40 0f70 0240 7276 ed40
00000140: e524 233f d2e9 a340 cf94 e53f 32ea 833e
00000150: 07aa 833f 79ab 9b3f fc16 083f ebc3 9640
00000160: b63f 2340 7e4c 8f3e bd71 253e 2655 1a3f
00000170: 322f 513e 80ef 3b40 db9e 663e 165e 3440
00000180: b16c 5d40 8675 3e40 bf4f 0e40 f5f1 0041
00000190: e874 433f 74f7 433f 1bfc 6b3f 86ae 7940
000001a0: 0cf2 c03e 6657 1d40 c5d6 fa3e d497 0e3f
000001b0: 8f11 2f3f fb48 ec3f 94e6 b43e a0ab aa3d
000001c0: ab9c b43d 908d bf3f 46c4 1c40 53af 2942
000001d0: b1ee 8040 b396 1640 4232 1841 b13e df40
000001e0: 33ce 9340 3b0a 8c40 7efa 7240 ec99 8840
000001f0: 8d2e 8f3f 2aba 363e 5799 0140 4953 a63f
00000200: 802f 2b3f b21f b63f 4049 d63e f148 0540
00000210: 9d0c 763f b3ab eb40 74d9 4d40 b6dd 1041
00000220: 3a50 8140 1cbd 1940 a155 9840 ad94 003f
00000230: ea9a e340 47f5 373f aa31 df3e 8057 1540
00000240: b61c 253e 6544 6840 df2a 423f 7976 e03f
00000250: 0754 763d e320 0b40 23dd 6e40 3f05 bd41
00000260: f747 dc3e c860 2840 a2c9 1740 61ff 1c41
00000270: 98a9 eb3e cc9f 0640 f230 0441 86c5 0540
00000280: cb48 613e 2e2d 533e 4166 c540 3e5f ed3f
00000290: 657f 8140 18af 3940 7bf0 9f40 265f 4e3e
000002a0: f875 9f40 caa0 f23f 079f 9740 d8ee e040
000002b0: 2c2f 0340 e5d1 0641 64ea 1b41 a696 af3f
000002c0: 2e46 743f cf2c 123e 0414 8b3e bf16 bf3f
000002d0: 50df c140 4386 983f 3d3d b63f f684 d13f
000002e0: d263 ab3f 8305 a640 7e52 8440 9f3c 1740
000002f0: c40e 2d40 5706 983d cab3 bf40 2b39 1040
00000300: 4a57 fe3e 1b8c 8040 a72a e13f f945 5540
00000310: bdf2 8840 9de4 1740 621c 5f3f c51d fe3f
00000320: 4ad7 723d bdc3 aa3f 1832 933f 1015 5340
00000330: 777f 6c3f fbb6 503f ba4a bf40 093d ad3e
00000340: 1a31 363f f6ac 9740 661b 1641 8173 943f
00000350: 3894 c53e 9184 1240 0e5d be3f a366 6340
00000360: 5c54 0d42 473b b541 bad6 9f3f deac 7a3f
00000370: 4d07 c740 6b4e 7f40 54c9 a03e 998d b140
00000380: ca08 0c40 9484 0941 803b cb40 0f90 0f40
00000390: 409e 1d40 980b 2b3f 639d 2240 b79e 533f
000003a0: 1c35 4741 e979 643e 6e6d 0640 89bb a73f
000003b0: cd0f e13f c337 cf40 5a4f 0a41 9a7a 0c3f
000003c0: 768b 3b40 4fb7 1640 2b21 0d40 787d 9f40
000003d0: d417 d83e 1155 5c3f 720e c63e aa40 1c3f
000003e0: 0d77 5240 eb04 1440 7a53 8e40 8595 0441
000003f0: 48d0 0041 3c34 ca3e d228 ec3f 4ffe ed40
3.4702837 1.9673593 1.7499317 0.16209361 2.4631212 0.77181643 1.4103324 5.562404
3.1573162 2.2542667 1.7947781 6.7936115 2.335995 5.691882 0.55276734 1.4218345
6.845963 3.3370001 2.8068166 1.1607246 0.39323387 5.2373443 0.18566817 0.87771064
1.2541834 4.4893303 1.3359162 4.918855 4.511525 6.3696775 0.7609086 2.4499183
1.3078237 1.0355611 6.082585 3.7950287 3.3836157 1.079598 2.1233058 1.3441801
5.4398866 0.80180156 0.3595531 3.9485748 6.1801476 2.0409517 0.61122936 4.759271
0.42535946 0.6049055 1.1115006 1.6344573 3.628442 0.99442923 5.5681577 3.3568766
1.3949239 0.19681893 0.2815657 5.151258 1.0685686 3.157751 4.805868 0.22713837
36.50068 0.28685445 0.38069278 0.53873503 0.4785518 0.9863303 3.0133119 8.349224
4.198806 0.58584756 33.48237 6.9864297 0.8590478 4.4233685 2.0380895 7.4207087
0.6372817 5.1222925 1.7936038 0.25764614 1.0286263 1.2161704 0.5316007 4.711416
2.5507636 0.27988046 0.16156669 0.60286176 0.2042816 2.936493 0.22521536 2.8182425
3.459759 2.975923 2.2236173 8.059072 0.7635026 0.7654946 0.9218156 3.901277
0.37684667 2.4584594 0.4899198 0.5570042 0.6838617 1.8459772 0.35332167 0.08333516
0.088189445 1.4965076 2.4494796 42.421215 4.029137 2.352948 9.51227 6.9764028
4.618921 4.376249 3.7965388 4.2687893 1.1186081 0.17844453 2.0249841 1.2994167
0.66869354 1.4228423 0.4185276 2.082577 0.96112996 7.3647094 3.2163973 9.054129
4.0410433 2.4021673 4.7604527 0.5022686 7.1126604 0.7185864 0.43592578 2.3334656
0.16124234 3.6291745 0.75846666 1.7536155 0.06013873 2.1738822 3.732247 23.627562
0.43023655 2.630907 2.3716817 9.812348 0.46027827 2.1035032 8.26195 2.0901809
0.22000425 0.20622703 6.168732 1.8544691 4.046801 2.9013119 4.9981055 0.20153484
4.9831505 1.8955319 4.7381625 7.0291557 2.0497541 8.426244 9.744724 1.3717849
0.95419586 0.14274906 0.27163708 1.4928817 6.05851 1.1915973 1.4237438 1.6368701
1.3389838 5.188173 4.13507 2.363075 2.7040262 0.07423084 5.990697 2.2534893
0.4967597 4.0171027 1.7591141 3.3323958 4.279631 2.3733284 0.87152684 1.9852835
0.059287347 1.3340985 1.1499662 3.2981606 0.92381996 0.81529206 5.977872 0.3383563
0.71168673 4.7398634 9.381689 1.1597749 0.38589644 2.2893412 1.4872148 3.5531394
35.332382 22.653944 1.2487404 0.97920024 6.219641 3.9891613 0.314036 5.548535
2.1880364 8.594868 6.351013 2.2431676 2.4627838 0.66814566 2.5408561 0.82664055
12.450466 0.2231213 2.100429 1.3104106 1.7582947 6.475557 8.644373 0.54874575
2.930387 2.3549383 2.2051494 4.984066 0.4220568 0.860673 0.38682896 0.6103617
3.2885163 2.3128002 4.44769 8.286504 8.05085 0.39492977 1.8449957 7.4372935

fcs1.weight f4 [256, 48]
00000000: f67c 1ebd 890f 2b3e 5f58 ad3a e232 533d
00000010: df04 48bd 0c29 093d 0ceb abbc c807 533d
00000020: 786f e8bc 2519 113e 353e 3dbd 9368 64bb
00000030: ede4 a8bd d7e0 d2bc 07c5 763a cd42 57bd
00000040: 8048 d4bd 0772 473e 6ee0 17bd 90a5 3bbd
00000050: cef7 6f3d 5308 d8bd 1244 853d ab9d 863d
00000060: 71ce 453e ad1a 6b3c 73ac 183d e266 11be
00000070: d160 1bbd 2c8c a2bc 3143 503d 0753 afbd
00000080: e3c3 f7bc 1d73 24bd 7727 683d 88c0 0d3c
00000090: 9db8 ad3d 1638 09bd b980 5b3d 6138 29bd
000000a0: 2f28 91bd bd8d 06be 17b4 5b3c 4943 8ebb
000000b0: f605 47bd df99 15bd bc5c 00bd 0bde 8e3d
000000c0: 4ec5 973d 8a26 e4bd bc13 90bc 9a27 fbbb
000000d0: 4e52 9ebb f944 e5bc e73a a43b 0625 76bd
000000e0: 126e 113d 78cb 58be 7713 06bd 0486 13bd
000000f0: d82a d6bc d037 d7bc 924f 41bd 5562 f03c
00000100: a6ca fd3c 70a9 25be 01de b5bd 978e a63c
00000110: 4888 663c 389b 50bd 7f9b d4bd 1772 b53d
00000120: e68d 1c3d e9fa 7fbe 33ec 29bc 3a04 d43c
00000130: b455 23bd 93ac 8a3d dd26 1dbd fa71 a9bc
00000140: 4342 8e3a ca4d 9cbe 9fb6 d2bc 9282 123d
00000150: 81ec 68bd 3f73 ff3c 95b6 943d 8201 3abd
00000160: a9fe 753c 0fcf 99be 39a4 863c dfd1 373d
00000170: 18c9 e63a 6754 03be 9207 a03c 2523 0b3e
00000180: b84f 91bd 11e4 77bd 1523 6cbc 612b 32bd
00000190: 99a7 043d 00d0 5dbd 66cf debc 1d96 903d
000001a0: 71bb 823a c0c1 153d 18cd 0a3a 873f c03c
000001b0: 8f78 bebc 9bbf eabd fa98 7c3b 0970 a83d
000001c0: d2ef 47bd 3fc5 993d 2af6 013d 51f8 3c3d
000001d0: 2ed7 e3bd 527a 89bd 871d 16bb f12b 84bd
000001e0: 000b 8c3c 4a99 d7bc 023b 973c d37b 4c3d
000001f0: 14ab 99bc 054e bebd 0549 6abd 44df ef3d
00000200: 16f2 22bb 4c29 a23d d23b 9a3d 70b2 013c
00000210: 7935 13bc 72db 0ebe 1440 cfbb 8adb 633d
00000220: 71e6 363d 62bb 653e 44b4 a23c 0dee 06be
00000230: 98c2 9b3d 5746 293c d612 7f3d 47ce 1bbe
00000240: c1f1 713d 3f9d 723d 96e1 813b c63b 143e
00000250: 2c20 a63d f31e 7fbc 8183 7a3b 0a7d 183e
00000260: 743e 70bc cdd8 963d 2ed3 6f3d b875 a83d
00000270: 5f8b 9ebd 5a30 8abd 285b 49bd 083f ac3d
00000280: 0010 723c 245c 813d e8e3 943c b80c 62be
00000290: 0c6e b93c f92c a2ba 5886 e8bc 2a93 20be
000002a0: 755a 34bc 16f9 b3bd 7f1f 833c b390 3a3c
000002b0: 94d5 b7bd 9676 9cbc 88ae 8fbc 6ce4 e03c
000002c0: 8626 123d 7304 9abd cd6b 2cbb 8626 5b3c
000002d0: 6b6a d73d c194 f03b 47a9 33bc a50b 103a
000002e0: 453b c13d 92b3 3bbe 2777 78bb 0660 323c
000002f0: c085 a83c c42b 133d 8236 783b 075c 5c3d
00000300: 5d2f 65bb 519e 9abb 8c0c 523d fc1d b8bd
00000310: 2f6c 61bc 8f91 5bbd 5c86 1cbd ec9b 95bd
00000320: 51c0 6fbd ce2f 603d b0c3 55bb 2889 c0bd
00000330: 5e20 7dbd ee77 93bd 8588 0a3d 5ebe c0bd
00000340: c7b1 0e3d 63c9 c23b 2bcb 39bc ec23 afbd
00000350: 3a28 05be 011c c9bd a70b e73c 8147 1ebe
00000360: 3ba0 84bd 2341 023e 5acf 9cbb f8ff 1b3d
00000370: c249 98bc 0150 2cbc b0ca 2bbc 10ff 183c
00000380: b2cf 0cbd 1c46 003e 1f61 71bb 147f 05bd
00000390: 3e2a 113d 5671 97bd 8a67 edbc 207e b0bd
000003a0: 3c09 ba3d d8ec 863c 4bf2 1b3d d79f 013e
000003b0: 545f 053e ebf9 a7bd e198 bbbc 4f17 cf3d
000003c0: 3197 5bbd dba3 1e3e 0835 813c 809a d7bc
000003d0: f7d3 623c 0062 a1bd d1bf f3bb d1c5 763c
000003e0: 4610 00be 1801 0c3e f329 4f3d d890 8cbd
000003f0: d182 bb3c c37b 8cbc 7904 52bd 4a01 e6bc
-0.03869339 0.16705145 0.0013225189 0.051562198 -0.04883277 0.03348641 -0.020986103 0.051521093
-0.028373465 0.14169748 -0.046201903 -0.003485237 -0.08246789 -0.025741978 0.00094135146 -0.05255394
-0.10365391 0.19477092 -0.037079267 -0.04581219 0.058585934 -0.10548463 0.06507124 0.065730415
0.19317032 0.014349622 0.037273835 -0.14199403 -0.03793413 -0.01984223 0.05084533 -0.08560758
-0.030244773 -0.040148843 0.05667826 0.00865186 0.08482478 -0.033500753 0.053589556 -0.041313533
-0.070877425 -0.13140006 0.013409636 -0.004341517 -0.04858967 -0.036523696 -0.03133844 0.06975945
0.0741068 -0.11140163 -0.017587535 -0.007664633 -0.004831589 -0.02798699 0.0050119045 -0.060093902
0.03550536 -0.21171367 -0.032733407 -0.03601648 -0.026143476 -0.02627173 -0.047195025 0.029343763
0.03098042 -0.16177917 -0.088802345 0.020331664 0.014070578 -0.050929278 -0.10381221 0.088596515
0.038221262 -0.24998058 -0.010371256 0.025880922 -0.039876655 0.06771197 -0.03836714 -0.020684231
0.0010853488 -0.30528098 -0.025721846 0.035769053 -0.056866173 0.031182883 0.07261387 -0.045411594
0.015014329 -0.30040786 0.01643573 0.044877883 0.0017607538 -0.12825166 0.01953486 0.13587625
-0.07095283 -0.060520235 -0.014412661 -0.0434984 0.032386396 -0.054153442 -0.027198505 0.07059882
0.0009974075 0.036561728 0.00052948436 0.023467792 -0.023250846 -0.11462327 0.003854333 0.08224494
-0.048812695 0.07508325 0.0317289 0.04613525 -0.11125027 -0.06712784 -0.0022905783 -0.06453694
0.017095089 -0.026318211 0.018460754 0.049922775 -0.018758334 -0.09292225 -0.057198543 0.117125064
-0.0024863533 0.07918033 0.07530941 0.007916078 -0.008984917 -0.13950899 -0.0063247774 0.05562929
0.04465336 0.22434762 0.019861348 -0.13176747 0.07605475 0.010331712 0.062273823 -0.15215407
0.059068445 0.059231993 0.0039636595 0.14475927 0.08111605 -0.015571344 0.0038225355 0.14891449
-0.0146633275 0.0736557 0.058551006 0.08225578 -0.07741427 -0.067475036 -0.0491592 0.0841046
0.0147743225 0.063164026 0.01817508 -0.22075164 0.022635482 -0.0012373022 -0.028384373 -0.15681139
-0.011007895 -0.08787744 0.01600623 0.011387038 -0.08976284 -0.019099515 -0.017539278 0.02745267
0.03568127 -0.0752038 -0.0026309371 0.013375884 0.105183445 0.0073419516 -0.010965652 0.0005494899
0.09435133 -0.1833022 -0.0037912817 0.010887152 0.02057159 0.03593041 0.0037874286 0.0537987
-0.0034970858 -0.00471858 0.051281497 -0.08990094 -0.013758703 -0.053605612 -0.038214073 -0.0730513
-0.058533017 0.05473309 -0.003261786 -0.094011605 -0.061798446 -0.07200609 0.0338216 -0.0941131
0.03483751 0.0059444173 -0.011339943 -0.085517734 -0.13003626 -0.098197944 0.028203798 -0.15456964
-0.06475874 0.1272016 -0.0047854604 0.038085908 -0.018589858 -0.010517121 -0.010485336 0.009338155
-0.03437776 0.12526745 -0.003683157 -0.032591894 0.035440676 -0.07394664 -0.028980035 -0.086178064
0.090837926 0.016470358 0.038072865 0.1265863 0.13024646 -0.08201965 -0.022900047 0.10111868
-0.053610984 0.15492193 0.015772358 -0.026318789 0.013844482 -0.0788002 -0.007438638 0.015061812
-0.12506208 0.13672292 0.050577115 -0.06863564 0.022889527 -0.017148858 -0.051273797 -0.028076787

fcs1.bias f4 [256]
00000000: e5af 7d3c 8814 5a3d 247c 753d 5669 95bb
00000010: 857a 0dbd eca7 f43d 2a4b 533e 79ea cebc
00000020: 35dc 89be 0abe 8fbd d7b7 823d fc5a 4dbd
00000030: 07ce 18be 0cfa 1bbb 9ed8 413d 4ec4 e13d
00000040: 895b c33d 0b2e a93d 1533 a93b 07c6 cabd
00000050: 7988 fcbc 9981 0bbe 870a d9bd 5655 edbd
00000060: e27c bfbd c7a7 59be 16e2 74bd b217 2b3d
00000070: 8a4c ebbd fa47 24be 54c2 83be d385 c7bd
00000080: 3b6a 683c 9ee7 b0be 8ac1 1e3e 1e98 d0bd
00000090: 62e6 23be eda5 16be 4f48 263e e11c 89bd
000000a0: a947 17be a836 a0be 74cd efbd 1081 6f3d
000000b0: 7048 993d dcb1 41be eae0 f1bd b9d2 8ebd
000000c0: 3664 8b3b e257 863d 27c8 febd 9f53 34be
000000d0: 0608 013d acb7 9f3d e141 193d f804 713c
000000e0: 245d 843e 73f9 563c 83e4 bf3d d8ea a43d
000000f0: 282c e6bb 5024 5dbd d6d4 043e 6203 9fbd
00000100: a7ac adbd fad2 4fbd fef2 bfbe 870f 17be
00000110: ff2a 1bbe d6ac e93c 4b7b 44be cb98 ef3d
00000120: 919b fbbd ce56 38bd 3a84 e6bd 99fd 653d
00000130: 6cef 3b3e 49f5 05be ea2a 093d 84e8 a3bd
00000140: ed68 fdbd 5cdc 193e 435a 933a 2077 7bbd
00000150: faa5 0abd 297e f6bc 85ca 71bd fce8 c8bd
00000160: 8602 edbd 5521 8abe 892a 75be a06b f3bd
00000170: 46ad 78be c411 2a3e db34 1a3e aab2 b0bd
00000180: efc4 64be 6a55 9ebd bfff 5fbe 5e15 6f3d
00000190: cba7 b6bc e32e 90bd 73f9 d2bd 5562 6cbe
000001a0: 82d2 16be 2477 bdbd 84ab d6bd ee3f 6dbd
000001b0: 491b 8fbe 4e09 8f3c 7f33 02bd d172 debd
000001c0: 674d d13d ae7d 0abd a042 e63d 0fb3 00be
000001d0: 9b5c 723d c907 50bc 5f00 f23d bb75 d1bb
000001e0: ba21 5dbd 7938 44be 876d 0b3d 1ee7 b3bd
000001f0: 0a5e cf3c d2e2 3bbd e05b 94bd 7d7b 9e3c
00000200: bf37 0bbe 08e8 50be 7317 ac3d 66bd 0c3e
00000210: 4c6d 3fbe c3fc a03d 78c2 31be bf5d 6a3e
00000220: 8931 fbbd ff0a 76bb e7a3 113d 1d1f f2bd
00000230: 1a41 45bd 63ba 52be 651d 5cbd bc0c a13d
00000240: 6bbf 86bd 4319 51be a33e 31be 8310 8cbc
00000250: 8681 263e d5ae 84bd 4c66 f2bd c7a1 bdbd
00000260: 1061 a53d 3858 823d 5996 9bb9 4c68 803d
00000270: 92bf a5bc 5219 4e3d d6e6 c7bd 71fc d6bd
00000280: 614a d73d a1e0 08be bae6 3bbe f254 84bd
00000290: f77a 2dbc cf22 ea3d bf11 303d c008 81be
000002a0: 6d31 5d3e c580 ca3c bd98 e83d ec55 243d
000002b0: c92c 2abd 2924 2fbd 16f7 be3c 7b53 aabd
000002c0: 7c59 5e3b 9eb8 873e 94b9 c73d 893c 78be
000002d0: 7c65 223d 6fca 0f3d 62c3 393d c2e6 f23d
000002e0: b676 34bd 878c d23c 15a3 c63d 8d40 a13d
000002f0: 3beb 033d 0a6e 1d3e d69c 053e a810 84be
00000300: fa31 b0bd bd3d 443e a79d 00be 015e fabc
00000310: 5632 a93d eb7f 07bd 0867 9e3d 2adc d2bd
00000320: 2728 51be 7048 5ebc 599b 28be ba61 053e
00000330: 8812 a0bd 6114 9a3c c965 c03b d467 d2bd
00000340: a254 1f3e b132 533d 02b2 8ebd a27e 84bc
00000350: 7908 a6bc 9335 15be 524e 053d 75c8 14be
00000360: 3a9d f5bd 9f18 69be 03ac 9e3d bb0b 87be
00000370: 54cb 01bd 9b15 fabc b663 a23d c2a2 183e
00000380: 4819 5f3d 46b1 5e3d 6f33 14be f8d5 16be
00000390: 6e30 20be 1eab f9bd 8506 a7be 3d86 0abe
000003a0: adfc 923c 3381 c5bd 8bde e9bd 3dbe 4e3d
000003b0: fae3 60be 2bba 0c3e cf47 ac3d 878a 113c
000003c0: f7a9 b1bb acac 743d 3506 c53d a697 34bc
000003d0: 45b3 fc3d 003a 193e c852 65be 5e94 2bbd
000003e0: 0d3f 5abb 37d8 d2bc bde6 c7bc 15ab aa3d
000003f0: cd7c 3cbd 04d3 3b3e 4c56 533d 43db 1dbe
0.015483831 0.053242236 0.059932843 -0.004559676 -0.03454067 0.11946091 0.20634142 -0.02525829
-0.26925817 -0.07018669 0.06382721 -0.050135598 -0.14922343 -0.0023800163 0.047325723 0.1102377
0.09538943 0.08260735 0.00516356 -0.09901052 -0.030826794 -0.13623656 -0.10597711 -0.11588542
-0.093499914 -0.21255408 -0.059785925 0.041770644 -0.11489208 -0.16043082 -0.25734198 -0.09742322
0.014185484 -0.3455171 0.15503517 -0.10185264 -0.16005853 -0.14711733 0.16238521 -0.06694961
-0.1477343 -0.312917 -0.11709109 0.058472693 0.074845195 -0.18915504 -0.11810477 -0.06973786
0.0042538894 0.06559731 -0.1244052 -0.17610024 0.031501792 0.077987045 0.037416343 0.014710657
0.2585231 0.013120997 0.09369757 0.080526054 -0.007024307 -0.05398971 0.12971815 -0.07764317
-0.084801964 -0.050738312 -0.37490076 -0.14752017 -0.1515312 0.028524797 -0.19187658 0.11699065
-0.12285531 -0.04500466 -0.11255689 0.056150053 0.18353051 -0.1308185 0.03348819 -0.08003333
-0.12373529 0.15025467 0.001124211 -0.061392903 -0.033849694 -0.030089455 -0.05903103 -0.09810063
-0.11572747 -0.26978555 -0.23942007 -0.11885762 -0.24284849 0.1660834 0.15059225 -0.086278275
-0.22340749 -0.07731135 -0.21874903 0.058369987 -0.022296807 -0.07040193 -0.10301485 -0.23084386
-0.1472874 -0.0925124 -0.10481933 -0.057922296 -0.27950504 0.017460492 -0.03178739 -0.10861743
0.102198415 -0.033811264 0.112431765 -0.12568305 0.059170347 -0.012697169 0.11816477 -0.0063922084
-0.053987242 -0.19162168 0.03404 -0.087843165 0.025313396 -0.04587061 -0.07244086 0.019345993
-0.13595484 -0.20401013 0.0840291 0.13744125 -0.18694037 0.078607105 -0.1735934 0.22887324
-0.122653075 -0.0037543175 0.0355567 -0.11822341 -0.04815779 -0.20578913 -0.05373897 0.07863757
-0.06579479 -0.20419793 -0.1730905 -0.017097717 0.16260347 -0.06478659 -0.11835918 -0.09259372
0.08075154 0.06364483 -0.00029675922 0.06269893 -0.02023295 0.050317116 -0.09760825 -0.10497368
0.105122335 -0.13366939 -0.18349734 -0.064615145 -0.010588399 0.114324205 0.042985674 -0.25201988
0.21600886 0.024719605 0.113572575 0.040121004 -0.041546617 -0.042759094 0.02331118 -0.08316704
0.0033927849 0.2650804 0.09752193 -0.24241842 0.039647564 0.035105165 0.045352347 0.1186042
-0.044058524 0.025701774 0.09699074 0.0787364 0.032206755 0.15374008 0.1304811 -0.25793958
-0.08603282 0.19164176 -0.1256014 -0.030562403 0.08261554 -0.033080976 0.077344954 -0.10295899
-0.20425473 -0.013567075 -0.1646551 0.13025561 -0.078160346 0.018808546 0.0058715087 -0.1027371
0.15559629 0.051562015 -0.06967546 -0.016173664 -0.020267712 -0.14571218 0.032545395 -0.14529593
-0.11992879 -0.22763298 0.077476524 -0.26376137 -0.03168805 -0.03052788 0.079291746 0.14905837
0.05446747 0.05436828 -0.14472745 -0.1473006 -0.15643474 -0.12190841 -0.32622162 -0.1352777
0.01794275 -0.096437834 -0.114194 0.050474394 -0.21961966 0.13742892 0.08412134 0.008883125
-0.0054218727 0.059734985 0.096203245 -0.011022484 0.123388804 0.14963531 -0.2239486 -0.04188954
-0.0033301741 -0.025737865 -0.024402017 0.083334126 -0.046017457 0.18342215 0.05159597 -0.15415673

fc2.weight f4 [128, 260]
00000000: fee6 e83b 22d3 50bd 1d73 303d d18e 843d
00000010: 730d 82bb 79da 55bc a6c7 d63b cb34 3dbd
00000020: 5ed1 3e3d fb4b e6bc 998e ae3c 165c f73c
00000030: af61 65bc 6176 01bd 0aaf 083c b636 a33c
00000040: b458 57bd fea7 4d3d d051 43bd 6b96 163d
00000050: 97f4 21bd b5d6 f1bc 5a02 a73c 3c53 1b3d
00000060: e9d8 15ba 108c 5abd b778 293b da70 b3bc
00000070: 1ef8 ba3d b132 bebd eead 41bb fe4f e8bc
00000080: 4842 4c3d fd2c 25bc b07b ca3c 09bf c93c
00000090: 189d 39bc d8a9 f5bc ba1f 31bb 6fb1 693c
000000a0: d8aa a8bc d1d5 72be a6a5 033d 8e4f 84bc
000000b0: d786 c23c 2d53 1f3d eb69 92bb 3396 97bd
000000c0: 35de 90bd b259 4bbd 948d d43c e715 293d
000000d0: ccc9 47bd 460a 593d b2c1 c33c ba01 f73a
000000e0: 15aa 303d 5958 1cbd 2114 273d 56ad c23c
000000f0: 7e6f 9b3b dd09 923c 979d 693c b36d 053c
00000100: 0495 423e 8965 98bd e83a ce3b aa63 ee3d
00000110: 5cbc 5c3d 8e7c 4fbd 28c4 2ebd 80a0 ff3b
00000120: 6a64 1ebd 73a1 f33d db71 c6be ec01 adbc
00000130: 71b3 533d d939 09bd d44d 8bbd bbe4 97bd
00000140: 57db 9d3d cfc4 33bd f936 01bd 895b 063d
00000150: 4801 d63c fb14 de3c 4e08 343c 32db 15bd
00000160: f5b9 8bbd b640 b9bd 217c 623c 9832 febc
00000170: 59e6 c03c 0608 763c 2821 173d 601e 2c3c
00000180: 0613 18bd 1873 01be dc95 a7bb ffba 03be
00000190: f774 6b3d 2432 573a cab0 59bc 98f5 42bd
000001a0: 830b 8f3b 67ba 0dbd 6487 e9bb af3b 65be
000001b0: c9da 3abd 46c3 ad3d 5b54 4ebd beba bd3c
000001c0: b0a0 a9bd c814 943d 4f04 58bd 1128 50bd
000001d0: f663 5d3c ce45 143d d794 1d3d e062 853a
000001e0: f7e1 653c 61a4 ff3b bf90 03bd 9181 11bd
000001f0: a1c5 a73c 72c3 0fbd 2cb1 a03d 5647 76bd
00000200: 459b 46bd 7bab 783d 52aa 74bb ba61 82bd
00000210: 611f adbd 94b3 eb3c 7b7a b13d 5680 2ebc
00000220: 303f 463c 2991 ecba 2f46 dfbb c0f1 d0bb
00000230: ed4d a23d 64e5 0f3d c17c 32bd d221 0d3d
00000240: 356b 8f3d 486d b53c e47e 39bd a4f7 b53b
00000250: 5c81 dc39 7a5f 8c3c 7ac9 a8bb 7d6e 753e
00000260: c402 2bbc 7f22 563d 7195 69bc 096a 443c
00000270: 560e f03b bf09 82bd 2e45 0cbd 8745 9f3c
00000280: 26b2 fb3a 354f 3cbd 79db 72bd 9771 973d
00000290: 3662 453d c590 5bbc 24e7 ae3d b073 a4bd
000002a0: 1997 883d 5fff 883d dd36 1b3d d5e9 b23d
000002b0: 3ad1 843c 4312 3a3d 53fa 053d d3f9 4f3b
000002c0: 59ba 1bbd 0205 313d dd52 fe3b 7850 19bd
000002d0: a2d6 85bd f7cc fa3c 0f04 48bc cf5f 533c
000002e0: bc13 7fbd e91f 88bb 88b1 0cbd 2d3b 143d
000002f0: 3326 263d 0618 cebc b619 ba3d 2a26 283d
00000300: 0ff2 523d 8230 96bc 5aac 4fbd 1a45 3abd
00000310: 2a9b bb3c cb7a 52bd 1628 d63d 2973 09bd
00000320: ffb4 c23c 10d5 4d3b 79ed 0bbd b3f8 64bd
00000330: 9dbf 02bc 0187 03bd b160 7bb9 b9d0 11bb
00000340: c9d4 4b3d f104 96bd 971a c53d 8f6a 363d
00000350: d58c 69bd aa75 823c 5a8b 11bd a27c 293d
00000360: b94c 94bd 1a40 5c3e 65a8 21bd 5b95 4a3d
00000370: 7055 3fbd 4adf 16bd 1b2c 16bd 7170 47bd
00000380: 1bff 70bc 279b 22bd b05d cc3d 9368 5abd
00000390: 9448 ddbb ac86 adbd 5248 383d 67b0 da3c
000003a0: 8b96 58bd 7859 14bd 0ce8 7b3c 82c9 65bd
000003b0: f302 0ebe c5cb b8bd 6b86 7d3d ca96 88bd
000003c0: 6d29 cbbb a650 a03d 36e6 1bbb df50 043d
000003d0: 5c1a 633c e709 b53d 3f36 7ebd 97c5 0f3d
000003e0: 57d4 5c3d 775f be3d f624 15bc 1f25 4e3d
000003f0: 0b12 b13c d9cb 023d d682 dc3c 1e6e a1b8
0.0071076145 -0.050982602 0.04307853 0.064725526 -0.0039688884 -0.013052576 0.0065545617 -0.046192925
0.046586387 -0.028112402 0.02130823 0.030195277 -0.01400034 -0.031607036 0.008342514 0.01992355
-0.05257483 0.050209038 -0.047685444 0.036764544 -0.0395399 -0.029521326 0.020386863 0.037921175
-0.0005716221 -0.05335623 0.0025859305 -0.021904398 0.09129356 -0.09287012 -0.0029553133 -0.028358456
0.0498679 -0.010081527 0.024717182 0.024627225 -0.011328958 -0.029988214 -0.0027026967 0.014263495
-0.020589277 -0.23714377 0.032140397 -0.016151216 0.023745937 0.038897682 -0.004468193 -0.07401695
-0.07073633 -0.049646087 0.025946416 0.041280653 -0.048776433 0.052988313 0.023896072 0.0018845119
0.043130953 -0.038170192 0.04079068 0.023764294 0.0047435155 0.017826969 0.014258764 0.00814383
0.19002157 -0.07441241 0.0062936433 0.11640103 0.05389057 -0.050655894 -0.042667538 0.0078011155
-0.03866998 0.11896028 -0.3875874 -0.02111908 0.0516848 -0.033502433 -0.06801954 -0.07416674
0.077078514 -0.043888863 -0.031546567 0.03280214 0.026123658 0.027109614 0.010988308 -0.036585994
-0.06822578 -0.09045546 0.01382354 -0.031029984 0.023547338 0.015016561 0.036896855 0.010505289
-0.037127517 -0.12641561 -0.0051143 -0.12864302 0.057484593 0.00082090707 -0.013286779 -0.047597498
0.004365386 -0.034601595 -0.0071267355 -0.22386049 -0.045618806 0.08484511 -0.050373416 0.023160335
-0.08282602 0.07230526 -0.052738484 -0.05081946 0.013512602 0.036199383 0.038472023 0.0010176562
0.014030925 0.007801578 -0.032120463 -0.035523955 0.020479979 -0.0350985 0.07846293 -0.060126625
-0.04848792 0.06071041 -0.0037332964 -0.06366296 -0.08453251 0.028772153 0.086659394 -0.010650715
0.012100026 -0.0018048632 -0.0068137865 -0.006376475 0.079250194 0.035130873 -0.043576006 0.03445608
0.0700287 0.022146836 -0.045287028 0.0055532027 0.0004205805 0.01713537 -0.005150971 0.23967929
-0.010437671 0.05227899 -0.014256821 0.011988171 0.0073259277 -0.06349515 -0.034245662 0.019442333
0.0019202873 -0.045973975 -0.059291337 0.073947124 0.048189364 -0.013401215 0.0854018 -0.08029878
0.066694446 0.06689333 0.03789412 0.08736006 0.016213048 0.045427572 0.03270943 0.00317346
-0.03801951 0.043217666 0.007761343 -0.037430257 -0.065350786 0.030615313 -0.012207999 0.0129012605
-0.06227468 -0.0041541946 -0.034348994 0.036189247 0.040563773 -0.02515794 0.09086935 0.04105202
0.051500376 -0.018333677 -0.050701477 -0.045476057 0.022901136 -0.051386636 0.104568645 -0.03355709
0.023767946 0.0031407513 -0.03416202 -0.05590124 -0.0079802545 -0.03211117 -0.00023973246 -0.0022249653
0.049763475 -0.07325161 0.09624212 0.044535216 -0.057019074 0.015925247 -0.035533287 0.041378625
-0.07241196 0.21508828 -0.039467234 0.049458843 -0.04671234 -0.03683404 -0.036663156 -0.048691217
-0.014709259 -0.039698746 0.09978807 -0.053322386 -0.0067530368 -0.08472952 0.044990845 0.026695443
-0.052877944 -0.036218137 0.0153751485 -0.056100376 -0.13868313 -0.09023241 0.06189577 -0.06669386
-0.0062000067 0.078278825 -0.002378834 0.032303687 0.013861265 0.08839779 -0.06206345 0.035100546
0.05391344 0.09295552 -0.00910305 0.05032837 0.021615049 0.031932686 0.026917856 -7.697589e-05

fc2.bias f4 [128]
00000000: 9efd 7a3b 2fcb aabd ce08 7dbb e659 a0bd
00000010: 10f7 c3bd 058c 98bc bf4d 24be 8d7a c2bd
00000020: e014 053c 3ff0 93bc 3fe9 8d3c ea5e e6bd
00000030: 1549 ab3c afb4 1dbe a4d1 07bd 3dfa c4bd
00000040: 06c5 46be fbc6 e8bc 2dc7 a4bd db8b fdbd
00000050: 881e 76bd 7f73 fbbd aefc d5bd 3150 dfbc
00000060: 7e07 11be c19f fabc b32e 8d3c 3d0c 3cbe
00000070: b287 8dbd 5e80 3ebc e664 5fbc 1057 84bd
00000080: dc9c 43bd bfd1 823c c8dd a8bd 10ee a7bc
00000090: 77ca 20bd 95ae 07bd b23e 1cbd 5761 8ebd
000000a0: 307a d2bd 3098 36bd 4e98 82bd bd27 15bd
000000b0: 3a26 99bc e0ac 66bd 168f 42be 62d8 b3bd
000000c0: 2f9c 98bd c615 28bd ff43 e9bc 723f 85bd
000000d0: dac7 86bd 87b8 6e3d cb47 7fbd 6f87 b9bd
000000e0: 7391 cdbd 3bec ab3d f700 91bd 355b 42bd
000000f0: 7e30 2db9 4a47 dbbc 40da 32be 02c7 8abd
00000100: 3081 d6bd 7491 86bd 4cf6 c8bd 9c45 02be
00000110: bf5a d5bd 5ead 56bb e4a8 01be 86ca 1cbd
00000120: 8731 c6bd cc19 0b3b 2311 03bd 1790 0cbd
00000130: 8de9 dd3c a151 99bd c5ec 15bd 9976 dabd
00000140: c71c 39bd 8fe6 81bd 20b2 ffbd c516 82bd
00000150: 44a0 3b3c 75d6 85bd c9ec c6bd 7bf4 3dbd
00000160: 1a05 8dbd cc3f f63a 68aa 29be 7957 b8bd
00000170: e364 73bd d5ab babc eed7 98bd 2f4f b6bd
00000180: 1333 93bd 2e00 dcbd 6cee c2bd 2fda 89bd
00000190: 6cdb a0bd c42b a0bd 41ab ccbc 5054 30be
000001a0: be41 a1bd 5181 24be a382 b03b ed4c 83bd
000001b0: c3ba 9abc e88b bfbc 6d82 63bd 1635 f53c
000001c0: 29c7 083d 00d5 90bd b872 96bd 149c 2fbe
000001d0: 959c f1bd 9ed6 efbd 951b 1cbd f1d5 efbc
000001e0: af07 2d3d 4531 b8bd 27a7 1bbe abbb 8bbd
000001f0: 44b0 a6bd 3cc8 0d3d 5c10 63bd ed26 8abc
0.003829814 -0.083395354 -0.0038609984 -0.07829647 -0.09568608 -0.018621454 -0.16045283 -0.09496031
0.008122653 -0.018058894 0.017323134 -0.11248572 0.020908872 -0.15400957 -0.033158913 -0.09618042
-0.19411096 -0.028415194 -0.08045802 -0.12380191 -0.06008771 -0.122778885 -0.104485855 -0.027259918
-0.14163014 -0.030593755 0.017234182 -0.18364044 -0.069106475 -0.011627285 -0.013634896 -0.06461918
-0.047757015 0.015969155 -0.082454264 -0.02049926 -0.039255586 -0.03312548 -0.03814573 -0.0695216
-0.10277212 -0.04457873 -0.06376706 -0.03641485 -0.018694986 -0.05631721 -0.18999895 -0.08781506
-0.07451665 -0.04103639 -0.028474806 -0.06506242 -0.065810874 0.058281448 -0.062324326 -0.09059035
-0.10037508 0.08394667 -0.07080262 -0.047450263 -0.0001651663 -0.026767392 -0.17466068 -0.06776239
-0.10473859 -0.06570712 -0.098126024 -0.12721866 -0.10417699 -0.0032757143 -0.12662083 -0.03827908
-0.09677415 0.0021225093 -0.031998765 -0.034317102 0.027088905 -0.074862726 -0.036602754 -0.10667152
-0.04519346 -0.06342804 -0.124851465 -0.06351999 0.0114517845 -0.06535045 -0.09713132 -0.046375733
-0.06885739 0.0018787323 -0.16568911 -0.09001059 -0.059422385 -0.022787014 -0.0746306 -0.08901822
-0.07187476 -0.10742222 -0.095181316 -0.06731068 -0.078543514 -0.07820848 -0.024984004 -0.17219663
-0.078738675 -0.16064955 0.005386667 -0.06411157 -0.018887883 -0.023382142 -0.055544306 0.02993254
0.03339306 -0.070718765 -0.073460996 -0.17149383 -0.11797444 -0.11710857 -0.03811224 -0.02927682
0.042243656 -0.089937724 -0.15200482 -0.06822904 -0.08139089 0.034614787 -0.055435523 -0.016864264

fc3.weight f4 [1, 128]
00000000: 9ddb b33c 2047 cebb 068c 12bc 3994 4dbc
00000010: 2507 823c 9b2b 03bc 1e48 5cbc 2095 0ebc
00000020: a712 e33b f2bb 393c d16a af3c 1bb9 febb
00000030: 8bf0 ce3b 4562 9fbc 2e4d bc3b 2bd3 19bc
00000040: 5d05 2fbc ef4c 55bc 90e6 2e3c b6dc 9f3c
00000050: 465a 12bc 2e05 133c a45a 25bc 661a b8bb
00000060: e83d 3bbc 4056 5fbc b4fd 113c 699e ae3d
00000070: 2183 df3c 4e8e 273c 5ffa e13b fa44 d73b
00000080: 2d1a 833c 86c3 4ebc 0eeb 4b3c 836e 583c
00000090: 0a58 4fbc fbd8 64bc 15a8 a1bc fd32 adbc
000000a0: c1bf c13b c23a 0b3c 8f34 3e3c 909a 3dbc
000000b0: 8d7b a1bb 74e1 953c ef04 0a3c e0e0 c1bc
000000c0: f181 a2bc 1f5d 743c 7622 17bc 4878 92bc
000000d0: fc19 28bc 4503 413c 5111 1bbc d17f 6b3c
000000e0: d164 833d eea8 e03b afde 4ebc b761 1d3c
000000f0: 6a46 78bc d02a 793c 12d2 67bc ccf0 30bc
00000100: 8bd2 d53d 1b89 2f3c 5b16 5dbc 7261 40bc
00000110: 39ac 52bc 8c1c 053c 0e37 a9bd a020 593c
00000120: 928f 0abc cd29 14bc a457 293c d295 5c3c
00000130: 8839 2d3c 6454 28bc ffa9 24bc 54f2 773c
00000140: c4bd 68bc c0b7 2d3c a277 803c 4376 903c
00000150: d1e1 a1bc 55b5 d2bb d079 9fbc efb6 053c
00000160: 75bd bdbc 1e51 2d3c f397 6b3d d68e 243c
00000170: 292d 6a3c b1cd 363c 9fd6 1abc 1767 e43b
00000180: 8c48 0abc 5b0d 52bc 75c6 9c3c fd27 543c
00000190: d1ff 133c dccc e6bb 61b9 323c 8ba2 00bd
000001a0: 6527 803c e847 60bc ec00 e93b 0a97 263c
000001b0: 2d72 173c 3a4a 773c fbae ea3c a812 be3b
000001c0: f473 f43b 1b70 1ebc a872 68bc f6b4 2d3c
000001d0: 8876 82bc 10d7 bcbc 105b d1bc c665 613c
000001e0: 3380 283c afa7 143c 4d28 5abc dfa1 85bc
000001f0: 0632 c4bb d51e 413c aab3 2a3c 2a05 cdbb
0.021955306 -0.0062951 -0.008944517 -0.012547546 0.015872547 -0.008006002 -0.013444928 -0.008702546
0.0069297138 0.011336314 0.021413239 -0.007773531 0.006315296 -0.019456038 0.005746505 -0.009388725
-0.010682431 -0.013018831 0.010675088 0.019514423 -0.008932656 0.008973403 -0.010092411 -0.0056183813
-0.011428334 -0.013631403 0.008910585 0.08526308 0.027284207 0.010226799 0.0068963016 0.006569502
0.016003693 -0.012619859 0.012446178 0.013209942 -0.0126552675 -0.013967748 -0.019733468 -0.021142477
0.0059127514 0.008497896 0.011609211 -0.011572495 -0.0049280585 0.018295981 0.008424028 -0.023666799
-0.019837352 0.01491478 -0.009224525 -0.01787962 -0.010260101 0.011780565 -0.009464578 0.0143737355
0.064157136 0.0068560755 -0.012626334 0.009605817 -0.015153507 0.015207961 -0.014149206 -0.010799598
0.104405485 0.010713841 -0.0134940995 -0.011741983 -0.012858444 0.008124482 -0.08262454 0.013252407
-0.008457081 -0.009043169 0.010335837 0.013463454 0.010572799 -0.010274027 -0.010050296 0.015133459
-0.0142054 0.010602891 0.015682045 0.017634517 -0.019760998 -0.006430308 -0.019467264 0.008161291
-0.02316163 0.010578422 0.057517957 0.01004382 0.014292994 0.011157439 -0.009450584 0.006970297
-0.008440148 -0.012820567 0.0191376 0.012948987 0.009033159 -0.007043464 0.010908456 -0.031405013
0.015643785 -0.013689019 0.0071107056 0.010167846 0.00924353 0.015093381 0.02864789 0.005800564
0.0074601118 -0.009670283 -0.014187492 0.0106022265 -0.01592566 -0.023051769 -0.025556117 0.013757175
0.010284471 0.009073182 -0.0133152725 -0.016312538 -0.0059874086 0.011787136 0.010418812 -0.006256719
