checkpoint_actor_1.pth (torch, 165316 bytes, 10 tensors)

bn1.weight f4 [256]
0	0x3f84a290	1.036211
1	0x3f9c1b18	1.2195768
2	0x3f9b961b	1.2155184
3	0x3f82286e	1.0168588
4	0x3f974d93	1.1820549
5	0x3f8c68d2	1.0969489
6	0x3f98a730	1.1926022
7	0x3fc55322	1.5415995
8	0x3f891d5c	1.0712085
9	0x3fd0bdfb	1.6307977
10	0x3fb3402f	1.4003962
11	0x3fa0a062	1.2548945
12	0x3f710a7e	0.94156635
13	0x3f84e093	1.0381035
14	0x3fc09283	1.5044712
15	0x3f999c63	1.200085
16	0x3fa1c8da	1.263942
17	0x3f8598cb	1.0437254
18	0x3f91f5d7	1.1403149
19	0x3fad5dc7	1.3544244
20	0x3f966b12	1.1751425
21	0x3f84322a	1.0327809
22	0x3f8ab826	1.0837448
23	0x3fa55d9f	1.2919196
24	0x3f96acc6	1.1771476
25	0x3f9f7cf3	1.2460006
26	0x3f86b424	1.0523725
27	0x3f9974e3	1.1988796
28	0x3f93ec96	1.1556575
29	0x3f839ddb	1.0282549
30	0x3f83ac38	1.0286932
31	0x3f923cff	1.1424865
32	0x3f3a4aec	0.7277057
33	0x3f8dcd47	1.1078271
34	0x3f9ac33c	1.2090831
35	0x3f82179d	1.0163456
36	0x3f901be7	1.1258515
37	0x3f81d08c	1.0141768
38	0x3f8d987c	1.106216
39	0x3fa787a4	1.3088269
40	0x3f913508	1.1344309
41	0x3fa0993b	1.2546762
42	0x3f8c6bf4	1.0970445
43	0x3fa7579f	1.3073615
44	0x3fab698a	1.3391583
45	0x3f7b9638	0.9827609
46	0x3f8eb591	1.114916
47	0x3f979183	1.1841282
48	0x3f8f23c9	1.1182796
49	0x3f653f76	0.8954996
50	0x3f8d56da	1.104213
51	0x3f985133	1.189978
52	0x3f8daddf	1.1068686
53	0x3fc110d5	1.5083262
54	0x3f8d2840	1.1027908
55	0x3faf2515	1.3683192
56	0x3f9ab913	1.208773
57	0x3fc10889	1.508073
58	0x3f853950	1.0408115
59	0x3f880a15	1.0628077
60	0x3f85cd4f	1.045328
61	0x3f8ba09c	1.0908389
62	0x3f8011b9	1.0005409
63	0x3f87bc85	1.0604407
64	0x3f84eae3	1.0384182
65	0x3f821030	1.016119
66	0x3f940502	1.1564028
67	0x3f853755	1.0407511
68	0x3f8a98e8	1.0827913
69	0x3f8ce89b	1.1008486
70	0x3f93102e	1.1489313
71	0x3fc2dfd5	1.5224558
72	0x3fb2205b	1.3916124
73	0x3f789b61	0.9711209
74	0x3f7d2406	0.9888309
75	0x3f86fb95	1.0545527
76	0x3f9c1b17	1.2195767
77	0x3fa035ee	1.2516458
78	0x3fb666dd	1.4250141
79	0x3fafc979	1.373336
80	0x3f86ea65	1.0540282
81	0x3f84e2c1	1.03817
82	0x3fa5b3a4	1.2945447
83	0x3f8e176a	1.1100895
84	0x3f952b7a	1.1653893
85	0x3f845cff	1.034088
86	0x3f7df36c	0.9919956
87	0x3fbe6689	1.4875041
88	0x3fabd30c	1.3423781
89	0x3f89f6b2	1.077841
90	0x3f860ef8	1.0473318
91	0x3f92b3b5	1.1461092
92	0x3fa8493e	1.3147352
93	0x3f89ba95	1.0760065
94	0x3fa07a79	1.2537376
95	0x3fb4c98c	1.4124007
96	0x3f8b150b	1.0865797
97	0x3f8f9667	1.1217774
98	0x3f91b283	1.1382602
99	0x3f77e9a2	0.9684087
100	0x3f95f56a	1.171552
101	0x3f81e605	1.0148321
102	0x3f819714	1.012423
103	0x3f8ff1f5	1.1245714
104	0x3f9c014d	1.2187897
105	0x3f77bc04	0.96771264
106	0x3f97ef2f	1.1869868
107	0x3f752657	0.95761627
108	0x3f982902	1.1887515
109	0x3f868acb	1.0511106
110	0x3f85d1db	1.0454668
111	0x3f873784	1.0563817
112	0x3f9097cd	1.1296326
113	0x3f8a9788	1.0827494
114	0x3fa3797e	1.2771451
115	0x3fb185c0	1.3868942
116	0x3f6e1eac	0.9301555
117	0x3f8c767e	1.0973661
118	0x3f9607e6	1.172116
119	0x3fbe5764	1.487042
120	0x3fd0df09	1.6318065
121	0x3f9ceafe	1.2259214
122	0x3f8117a1	1.0085336
123	0x3fb6bcb1	1.4276334
124	0x3fa14f85	1.2602392
125	0x3fa2eda1	1.2728769
126	0x3f82b7ae	1.0212305
127	0x3f878b30	1.0589352
128	0x3f9177cd	1.1364685
129	0x3f6e3638	0.9305148
130	0x3f95ea7f	1.1712188
131	0x3fc0cc82	1.5062411
132	0x3fae8be7	1.3636445
133	0x3f7f63b9	0.9976154
134	0x3f85fd46	1.0467918
135	0x3f8e8afc	1.1136165
136	0x3f80bb11	1.0057088
137	0x3f83ae8e	1.0287645
138	0x3f8c0a7b	1.0940698
139	0x3f8966eb	1.0734533
140	0x3f9f77b6	1.2458408
141	0x3f8a8207	1.0820931
142	0x3fadaaae	1.3567712
143	0x3f89b6fc	1.0758967
144	0x3f96504b	1.1743253
145	0x3f86b84f	1.0524997
146	0x3f960cc7	1.1722649
147	0x3f902ddf	1.1263999
148	0x3f877331	1.0582029
149	0x3fba47a7	1.4553117
150	0x3fa494da	1.2857926
151	0x3f9cee81	1.2260286
152	0x3fa71359	1.305278
153	0x3f884275	1.0645281
154	0x3f8d167e	1.1022489
155	0x3f875eb2	1.0575774
156	0x3f90c6da	1.1310685
157	0x3f8d86eb	1.1056799
158	0x3fa284b5	1.2696749
159	0x3fa2f885	1.2732092
160	0x3f8c0311	1.0938436
161	0x3f932594	1.1495843
162	0x3fdd37f5	1.7282702
163	0x3f960df6	1.172301
164	0x3f86a839	1.0520087
165	0x3fb22c36	1.3919742
166	0x3fa2a6b2	1.2707121
167	0x3f9be18e	1.2178209
168	0x3f8f5dc8	1.1200495
169	0x3fa133f9	1.2593986
170	0x3f946bf9	1.1595451
171	0x3fa147c1	1.2600023
172	0x3fbd1605	1.4772345
173	0x3faed533	1.3658813
174	0x3f93ec15	1.1556422
175	0x3f91fa68	1.1404543
176	0x3fb1aff8	1.3881826
177	0x3fb3cadd	1.4046284
178	0x3f904962	1.1272395
179	0x3f94fa76	1.1638935
180	0x3f76c2dd	0.9639109
181	0x3f93094b	1.1487211
182	0x3f89eaf4	1.0774827
183	0x3f8d0336	1.1016605
184	0x3f8369d5	1.0266672
185	0x3f82ea57	1.0227765
186	0x3f9bd1e5	1.217343
187	0x3fa6c98a	1.3030255
188	0x3f9a5346	1.2056663
189	0x3f82b55e	1.0211599
190	0x3f8a0276	1.0782001
191	0x3f8a736c	1.0816474
192	0x3f8780b8	1.0586157
193	0x3f956e94	1.1674371
194	0x3f9c0018	1.2187529
195	0x3f94c2f4	1.1621995
196	0x3f850839	1.0393134
197	0x3f8d853c	1.1056285
198	0x3fa3b99a	1.2791016
199	0x3fb82f54	1.4389443
200	0x3f9fc8a7	1.2483109
201	0x3f83ac7f	1.0287017
202	0x3f805984	1.0027318
203	0x3f96b5f1	1.1774274
204	0x3f922ce6	1.1419952
205	0x3f842a0d	1.0325333
206	0x3f9e0f38	1.2348394
207	0x3f9f00ac	1.242208
208	0x3f9682e1	1.1758691
209	0x3fa3466d	1.2755867
210	0x3f8a761d	1.0817295
211	0x3f94f1ff	1.1636351
212	0x3f9e0071	1.2343885
213	0x3f61f5d9	0.8826576
214	0x3f967779	1.175521
215	0x3f939873	1.1530899
216	0x3f9fbde5	1.2479826
217	0x3fb565ae	1.4171655
218	0x3f8dc1c1	1.1074754
219	0x3f7308a4	0.9493506
220	0x3f81b8fe	1.013458
221	0x3fa13791	1.2595083
222	0x3f90f056	1.1323345
223	0x3fbda96e	1.4817331
224	0x3faaecd1	1.3353521
225	0x3f8dc239	1.1074897
226	0x3f924c92	1.1429617
227	0x3f95bf6f	1.1699046
228	0x3fa3f06b	1.2807745
229	0x3fab1c66	1.3368042
230	0x3fce9c69	1.6141483
231	0x3f961adf	1.172695
232	0x3f932be0	1.1497765
233	0x3fa29489	1.2701579
234	0x3f991154	1.1958413
235	0x3f813a3c	1.0095897
236	0x3fa480bd	1.2851788
237	0x3f8d70e4	1.1050076
238	0x3f94a0ed	1.1611611
239	0x3f8390d2	1.0278571
240	0x3fa4b7ef	1.2868632
241	0x3f82e82f	1.0227107
242	0x3f9a4c03	1.2054447
243	0x3f9d229f	1.227619
244	0x3f7cae02	0.98703015
245	0x3f99955d	1.1998707
246	0x3f914293	1.1348442
247	0x3f9673c1	1.1754075
248	0x3f9a6ce4	1.2064481
249	0x3f8d56b7	1.1042088
250	0x3f8934aa	1.0719197
251	0x3fa46b43	1.2845234
252	0x3fa2f563	1.2731136
253	0x3f87661a	1.0578034
254	0x3f961f97	1.172839
255	0x3f8e7ad0	1.1131229

bn1.bias f4 [256]
0	0x3e09c1c7	0.13452826
1	0x3d968d31	0.07351149
2	0x3e2ac5b7	0.16676985
3	0xbd215953	-0.039391827
4	0xbe68a931	-0.22720791
5	0x3e1d5dcc	0.15367812
6	0x3defa9b6	0.11702292
7	0x3e14d9e5	0.14536245
8	0xbe28ad23	-0.16472296
9	0x3e46c3b7	0.19410597
10	0x3d9efa48	0.07762581
11	0x3e285b37	0.16441046
12	0x3e7147a5	0.23562486
13	0xbe5a064c	-0.21291465
14	0x3ccbf3e2	0.024896566
15	0xbe4d5a9f	-0.200541
16	0x3e6c48d8	0.23074663
17	0x3d070907	0.032967594
18	0x3dcf53a6	0.101233765
19	0xbd8590b2	-0.06521739
20	0xbd54c8bd	-0.05194925
21	0x3da063b7	0.07831519
22	0x3e33adf8	0.17546833
23	0x3d938064	0.07202223
24	0x3d88b3c6	0.06674914
25	0xbd984116	-0.07434289
26	0x3dd30ab5	0.103047766
27	0x3c4ce4d2	0.012505727
28	0x3c74092c	0.014894765
29	0xbdc9e603	-0.098583244
30	0x3e03d3ec	0.1287381
31	0xbdbbf66b	-0.0917786
32	0xbe80f1a4	-0.25184357
33	0x3e375430	0.17903209
34	0xbdcc69a6	-0.09981088
35	0x3d96cf23	0.07363727
36	0xbcafdddc	-0.021468095
37	0xbde419ff	-0.11137771
38	0xbe326a8c	-0.17423457
39	0x3e0e2c64	0.13884121
40	0x3e9bc3b3	0.30422744
41	0x3c0ca789	0.008584865
42	0x3d52288b	0.051308196
43	0x3d8f1840	0.06987047
44	0x3de1dced	0.110284664
45	0xbec99d53	-0.3937784
46	0xbe408c4e	-0.18803522
47	0x3e10e069	0.14148106
48	0x3ea3d21f	0.31996247
49	0x3a5ceca6	0.00084275973
50	0xbe2d1092	-0.16900852
51	0x3deeddd0	0.11663401
52	0x3e0623aa	0.13099542
53	0xbe087e34	-0.13329393
54	0xbe4c7e3b	-0.19970028
55	0x3e1b8eaf	0.15191148
56	0xbe0f9be9	-0.14024319
57	0x3e23149b	0.15925829
58	0xbe30e815	-0.17276032
59	0xbdbc75af	-0.09202134
60	0x3e7205a4	0.23634964
61	0x3d55d624	0.052206174
62	0xbd948514	-0.07251945
63	0x3d8ab682	0.06773092
64	0xbe5ba555	-0.21449788
65	0xbdef4f69	-0.11685068
66	0x3c596c3d	0.013270435
67	0xbd69064b	-0.056890767
68	0xbe2b7369	-0.16743244
69	0x3d67894e	0.05652743
70	0x3d93ac97	0.07210653
71	0x3bb91e8b	0.005649393
72	0xbbcbda50	-0.0062210932
73	0xbb8b1210	-0.0042440966
74	0xbe55c98d	-0.20877667
75	0x3df58bee	0.1198958
76	0xbd3efb55	-0.046626408
77	0x3e16fc5e	0.14744708
78	0xbd85dce6	-0.06536274
79	0xbe0a1207	-0.1348344
80	0x3e00c205	0.12574013
81	0x3e6137eb	0.21993987
82	0x3e51f010	0.20501733
83	0xbc8e7387	-0.017389072
84	0xbe080477	-0.13282953
85	0xbe6a0d32	-0.22856596
86	0x3e232efe	0.15935895
87	0x3d992c5d	0.07479165
88	0x3e69d148	0.2283374
89	0x3e1fa125	0.15588816
90	0xbe165c3d	-0.14683624
91	0xbe3e9081	-0.18609811
92	0x3e497bf5	0.19676192
93	0x3e101992	0.14072254
94	0xbe713bc6	-0.23557958
95	0xbda0a932	-0.078447714
96	0x3e10f742	0.14156821
97	0xb9c8f34c	-0.00038328243
98	0xbda58c0a	-0.08083351
99	0x3e5b6932	0.21426848
100	0xbdc7e8e3	-0.097612165
101	0xbc80064d	-0.015628004
102	0xbd729c6c	-0.059231207
103	0xbda1d16e	-0.07901274
104	0x3db9b6c2	0.090680614
105	0xbd2a903f	-0.04164147
106	0x3e2ddd48	0.16978943
107	0xbdd81445	-0.10550741
108	0x3e01c578	0.12672985
109	0xbe043d05	-0.12913902
110	0x3da41c7f	0.08013248
111	0x3b524854	0.0032086568
112	0x3ce7f4d3	0.028314983
113	0x3de653ea	0.11246474
114	0x3daf949d	0.085732676
115	0x3daabda8	0.08336955
116	0xbaef6a27	-0.0018265889
117	0xbe43a528	-0.19105971
118	0x3a54019a	0.0008087397
119	0x3e7773bf	0.24165247
120	0xbde85437	-0.11344188
121	0xbda94de5	-0.0826681
122	0xbe765ec7	-0.24059592
123	0xbd949f42	-0.072569385
124	0x3d2619bd	0.04055189
125	0x3cb347f6	0.0218849
126	0xbe84fcbb	-0.25974068
127	0xbe6a27d2	-0.22866753
128	0x3de5c331	0.112188704
129	0xbe87fad5	-0.26558557
130	0x3e2025f7	0.15639482
131	0x3d8d9eb0	0.06915033
132	0x3e2b8976	0.16751656
133	0xbe83391f	-0.25629517
134	0x3dff7df2	0.12475194
135	0x3ce5568e	0.027995374
136	0xbd85effe	-0.065399155
137	0x3dfb2d08	0.122644484
138	0x3dd66a5f	0.104695074
139	0xbddda8fe	-0.10823248
140	0xbe089a0f	-0.13340019
141	0x3e2f9052	0.17144898
142	0x3c814cb1	0.01578364
143	0x3d557d50	0.05212146
144	0x3eaa7177	0.33289692
145	0x3de5ae59	0.11214895
146	0xbe6faf51	-0.23406722
147	0x3e0a63c5	0.13514622
148	0xbcbb94ea	-0.022898156
149	0x3e35e926	0.1776472
150	0xbc280de8	-0.010257222
151	0x3e25b5bd	0.16182609
152	0xbd6ba28e	-0.05752807
153	0x3e067f18	0.1313442
154	0xbd7d7beb	-0.061885756
155	0xbe44feaa	-0.19237772
156	0x3df6613b	0.12030264
157	0xbdf077ba	-0.11741586
158	0x3d8fdc18	0.070244014
159	0x3ab4f8eb	0.0013807093
160	0x3e397c20	0.18113756
161	0x3da3eb25	0.08003835
162	0xbe324017	-0.17407261
163	0xbb8eef1d	-0.0043620006
164	0x3de109f9	0.1098823
165	0xbdddd063	-0.10830762
166	0x3e40797b	0.18796341
167	0x3dfd3977	0.12364476
168	0x3bdaafc6	0.006673786
169	0xbc862365	-0.0163743
170	0x3e09c6ff	0.13454817
171	0xbd33c541	-0.043889288
172	0x3e5448e9	0.20730938
173	0x3e3a7e76	0.18212304
174	0x3e404e82	0.18779948
175	0x3d249ea7	0.040190365
176	0xbe0ffc8a	-0.1406118
177	0xbda9adf1	-0.0828513
178	0x3e2819e8	0.16416132
179	0xbe38eabf	-0.18058299
180	0x3daea3b3	0.08527317
181	0x3e42f826	0.19039974
182	0xbdc8051a	-0.09766598
183	0x3d9b2f1a	0.07577343
184	0x3d5bf6fd	0.053702343
185	0xbe19fd19	-0.15037955
186	0x3d9e9393	0.07742991
187	0x3e08c81b	0.13357584
188	0x3be3f407	0.0069565806
189	0xbe051b3e	-0.12998673
190	0xbe010061	-0.12597801
191	0x3e84f4a8	0.25967908
192	0xbe39298c	-0.18082255
193	0x3e3dc319	0.18531455
194	0x3ca2018e	0.019776132
195	0xbe91885f	-0.28424355
196	0x3e15689d	0.14590688
197	0xbe1c2cb3	-0.15251426
198	0x3d2e5531	0.042561714
199	0x3e4fc520	0.20290041
200	0x3e95e6ca	0.2927764
201	0xbdfc71b3	-0.12326374
202	0x3e882bd5	0.2659594
203	0x3d438456	0.047733627
204	0x3c274bec	0.010210972
205	0xbdf883be	-0.12134503
206	0x3d6fa361	0.05850542
207	0xbd38af00	-0.045088768
208	0x3e61975d	0.22030397
209	0x3dcd6648	0.10029274
210	0xbdebcbcf	-0.11513483
211	0xbe853618	-0.26017833
212	0xbd7dc17e	-0.061952107
213	0xbe1af34f	-0.15131877
214	0x3e2dbfe1	0.16967727
215	0x3d8b6604	0.06806567
216	0xbc934311	-0.017976316
217	0x3bfdf500	0.0077501535
218	0x3df30855	0.118668236
219	0x3e230622	0.15920308
220	0x3d422555	0.047398884
221	0x3e389497	0.18025433
222	0x3e59e56f	0.21278928
223	0x3d5a24f1	0.053257886
224	0x3d16dac3	0.03682972
225	0x3cece5f6	0.028918248
226	0xbe5c8db1	-0.21538426
227	0xbe2e4982	-0.17020229
228	0xbd6e6b3e	-0.058207743
229	0x3e08df08	0.1336633
230	0x3defd483	0.11710455
231	0x3dd5ed27	0.10445624
232	0x3dc4a731	0.09602202
233	0xbdea8540	-0.11451197
234	0x3cf70c0e	0.030157115
235	0x3e35f140	0.17767811
236	0x3e9cca04	0.30622876
237	0x3e49854d	0.19679756
238	0xbe2a6b09	-0.16642393
239	0x3cb06083	0.021530395
240	0x3e00033f	0.12501238
241	0xbd884856	-0.06654422
242	0x3e2f60cd	0.1712677
243	0x3d98af86	0.074553534
244	0xbe59ea0e	-0.21280691
245	0x3e14e543	0.14540581
246	0xbc0aaa05	-0.008463387
247	0xbde26fa4	-0.1105645
248	0xbdd5bf7e	-0.10436915
249	0xbdaba878	-0.08381742
250	0x3e1bf998	0.15231931
251	0xbdc30ade	-0.09523557
252	0xbd2c3f78	-0.042052716
253	0xbe38ce22	-0.18047383
254	0xbe543b80	-0.20725822
255	0x3de113e3	0.10990121

bn1.running_mean f4 [256]
0	0x40c00e51	6.0017476
1	0x3f0c9bc0	0.54925156
2	0x3f845867	1.0339478
3	0x3f2e0392	0.679742
4	0x3f380320	0.7187977
5	0x3ec7dbdc	0.39034927
6	0x3e94e955	0.29084268
7	0x3e8f29a0	0.27961445
8	0x400313c9	2.0480826
9	0x3c8e8e7a	0.017401922
10	0x3e0634a4	0.13106018
11	0x3f889f08	1.0673532
12	0x3c9b3364	0.018945403
13	0x40355da2	2.83384
14	0x3d44fb4f	0.04809123
15	0x40785794	3.8803453
16	0x3e8c9bb6	0.27462548
17	0x40a20f18	5.0643425
18	0x3e2b0ad4	0.1670335
19	0x3e8de944	0.2771703
20	0x3f627a4a	0.8846785
21	0x3f81a729	1.0129138
22	0x3f3fb362	0.7488309
23	0x3f9a90a2	1.2075388
24	0x3fbd7460	1.480114
25	0x3ea27b7a	0.3173483
26	0x3fbc2af2	1.4700606
27	0x3f871264	1.0552487
28	0x3de34051	0.11096252
29	0x3f23123a	0.63699687
30	0x3eb82e61	0.35972884
31	0x3e44bd1d	0.19212766
32	0x39d3d8d4	0.00040406606
33	0x3d6b7672	0.057486005
34	0x3f42214e	0.7583207
35	0x3ead32f9	0.33827952
36	0x3f002082	0.50049603
37	0x3fb29a15	1.3953272
38	0x3f3d4cab	0.7394511
39	0x3f3f46cd	0.7471741
40	0x3f7daac8	0.99088717
41	0x3f13def1	0.57762057
42	0x3f8a781a	1.0817902
43	0x400280cc	2.0391111
44	0x3d7302e2	0.05932892
45	0x4006dc4c	2.1071959
46	0x3ee38f23	0.44445142
47	0x3f9d0680	1.2267609
48	0x40155c96	2.333776
49	0x3f809d76	1.0048053
50	0x3e585475	0.21125968
51	0x3f3ab3c9	0.7293058
52	0x3ff11de1	1.8837243
53	0x3e4140a1	0.1887231
54	0x3f14c534	0.5811341
55	0x3edb4cb8	0.4283197
56	0x3efeb6f1	0.49748948
57	0x3dbb1280	0.09134388
58	0x3fd296e9	1.6452304
59	0x3fcab96f	1.583784
60	0x3ee1219e	0.4397096
61	0x3eb34a47	0.35017607
62	0x40720297	3.781408
63	0x3eada906	0.33918017
64	0x403ef4bc	2.9836874
65	0x3f03e23f	0.515171
66	0x3e155a3a	0.145852
67	0x3f3bcb8b	0.73357457
68	0x3f6dcc13	0.9288952
69	0x3f63885e	0.88879955
70	0x3f4a4735	0.79014903
71	0x3d2e4951	0.04255039
72	0x3e1cd8bd	0.15317054
73	0x3f8ab432	1.0836241
74	0x3ddb4429	0.1070636
75	0x3ebf68aa	0.3738454
76	0x3e129d1a	0.14317742
77	0x3f0f7b30	0.56047344
78	0x3d6d16d1	0.057883088
79	0x3e182674	0.14858419
80	0x3f1cc10a	0.61232054
81	0x3f17fb24	0.59367585
82	0x3f820fae	1.0161035
83	0x3d89ac00	0.067222595
84	0x3e0579c8	0.13034737
85	0x40229c8f	2.5408056
86	0x3e954cf9	0.29160288
87	0x3c574a78	0.013140313
88	0x3e8351b8	0.25648284
89	0x3f83d02b	1.0297903
90	0x3e90a543	0.28251085
91	0x3f297026	0.6618675
92	0x3d91baac	0.07115683
93	0x3f963615	1.1735255
94	0x3ed42ec4	0.4144193
95	0x3e4965c0	0.19667721
96	0x3db1f590	0.086894155
97	0x3e13a838	0.14419639
98	0x3e751971	0.23935486
99	0x3f3cb480	0.7371292
100	0x3f7333ff	0.95001215
101	0x3f25d438	0.64776945
102	0x40299c91	2.650181
103	0x3df942c1	0.121709354
104	0x3f8a43aa	1.08019
105	0x4028399d	2.6285164
106	0x3d482e14	0.04887207
107	0x40286345	2.631059
108	0x3f9920b9	1.1963111
109	0x40259f17	2.587835
110	0x3ff5f247	1.9214562
111	0x3e16df27	0.14733563
112	0x3ec9d4f4	0.39420283
113	0x3f624e10	0.88400364
114	0x3c307a56	0.010771355
115	0x3e93f9b3	0.28901443
116	0x3f095943	0.5365183
117	0x3ef52779	0.47881678
118	0x3ee281d5	0.4423968
119	0x3df4ff44	0.119627506
120	0x3dc6c3cf	0.09705316
121	0x40817cda	4.0464907
122	0x3f5d03ef	0.8633413
123	0x3e05a6be	0.13051888
124	0x3e3b84ca	0.18312374
125	0x3e985996	0.2975585
126	0x3f5667e0	0.8375225
127	0x3f514746	0.8174938
128	0x3fb6a340	1.426857
129	0x3d3f9cc4	0.046780363
130	0x402da937	2.713453
131	0x3d9e7102	0.07736398
132	0x3d77d197	0.060502615
133	0x3f55f83a	0.8358189
134	0x3fe5b40a	1.7945569
135	0x3f23de09	0.64010674
136	0x3ec7b87f	0.39007947
137	0x3e0a5e80	0.13512611
138	0x3f82b972	1.0212843
139	0x3f3b3dbc	0.73141074
140	0x3dc8afb9	0.097991414
141	0x3f6a2392	0.91460526
142	0x3d8dd8d8	0.06926125
143	0x3db86243	0.09003117
144	0x3e98fbc1	0.29879573
145	0x401621f3	2.345822
146	0x3f189ece	0.59617317
147	0x3f8fc6ac	1.1232505
148	0x3d7dff0f	0.06201082
149	0x3c2a0c8d	0.010378969
150	0x3caf7945	0.02142013
151	0x3daea1c1	0.08526946
152	0x3af07f11	0.0018348416
153	0x3f8e861e	1.1134679
154	0x3e81adeb	0.25328
155	0x3e1085b5	0.14113505
156	0x3f27f606	0.65609777
157	0x3f9f90d0	1.2466068
158	0x3e1ba5a2	0.15199903
159	0x3efbe5ae	0.4919867
160	0x3d15917a	0.03651569
161	0x3dbd5db6	0.092463896
162	0x3e8f68d4	0.28009665
163	0x3bd93cf6	0.0066295816
164	0x3f6ff005	0.93725616
165	0x3f750e70	0.95725155
166	0x3e0c807a	0.13720885
167	0x3da96878	0.08271879
168	0x3eb18f2e	0.3467955
169	0x3e662e86	0.22478685
170	0x3cd4160b	0.025889417
171	0x3f12a1f8	0.57278395
172	0x3db364fd	0.08759496
173	0x3e925ac6	0.2858488
174	0x3f015a7b	0.5052869
175	0x3ff36148	1.9014063
176	0x3e7eb82a	0.2487494
177	0x3d3a4c97	0.045483198
178	0x3db146e2	0.08656098
179	0x3ee4776b	0.4462236
180	0x408eb934	4.460108
181	0x3ea0cf1f	0.3140802
182	0x3f7e4386	0.9932178
183	0x3e28d4fa	0.16487494
184	0x3e627147	0.22113524
185	0x4017122a	2.3604836
186	0x3de14266	0.109989926
187	0x3e3870dc	0.18011802
188	0x3f5a6e06	0.8532413
189	0x3f6a4edc	0.9152658
190	0x40108675	2.2582066
191	0x3f500844	0.8126261
192	0x40121454	2.2824907
193	0x3db457d6	0.08805816
194	0x3f447b02	0.76750195
195	0x3e7399ef	0.2378919
196	0x3e3b2672	0.18276384
197	0x3f73f1ea	0.95291007
198	0x3db293d9	0.08719606
199	0x3dd8a222	0.105777994
200	0x3e1713fb	0.14753716
201	0x4034669f	2.8187635
202	0x3fe7fc12	1.8123801
203	0x3fc2f24d	1.5230194
204	0x3fce44e5	1.6114775
205	0x3fbe4bc5	1.4866873
206	0x3eaa5e79	0.33275202
207	0x3d8aaadf	0.06770872
208	0x3e59bc92	0.2126334
209	0x3f27a9aa	0.6549326
210	0x3f80e2bf	1.0069197
211	0x3e4afa27	0.19821988
212	0x3fe1a225	1.7627608
213	0x3fcc542b	1.5963186
214	0x3efaca65	0.4898254
215	0x3d94da0f	0.07268154
216	0x3edca8b2	0.43097454
217	0x3eccbe65	0.3998901
218	0x3ea240d8	0.31690097
219	0x3eb4a943	0.35285386
220	0x3fa7fc58	1.3123884
221	0x3e4c0ac1	0.19925977
222	0x3fb690de	1.426296
223	0x3d452f02	0.048140533
224	0x3c4483fb	0.011994357
225	0x3e1869e6	0.14884147
226	0x00000004	6e-45
227	0x3d996227	0.07489424
228	0x3e36cea2	0.17852262
229	0x3e5f0cdc	0.21782249
230	0x3dc32919	0.09529323
231	0x402d7298	2.7101192
232	0x3e5ca469	0.21547092
233	0x3e080fd4	0.13287288
234	0x3f56e49f	0.839426
235	0x3f9cd11f	1.2251319
236	0x3f1e9408	0.6194463
237	0x3fa05385	1.2525488
238	0x00000004	6e-45
239	0x40a7567d	5.2293077
240	0x3ec9bdd4	0.3940264
241	0x3ff59aea	1.9187901
242	0x3f9ba9a1	1.2161142
243	0x3eaa3f06	0.33251208
244	0x401ebc01	2.4802248
245	0x3f8214c4	1.0162587
246	0x3fdc52f1	1.7212812
247	0x3e20b910	0.15695596
248	0x3e81d85c	0.25360382
249	0x3e01dcac	0.12681836
250	0x400ccea8	2.2001133
251	0x3fbc6e44	1.472115
252	0x3ebe3437	0.37149212
253	0x400b99fe	2.181274
254	0x3f9a98d3	1.2077888
255	0x3f3b5f28	0.7319207

bn1.running_var f4 [256]
0	0x4214233a	37.0344
1	0x3f8c6424	1.096806
2	0x4009c0e7	2.1523988
3	0x3fc4a056	1.5361431
4	0x3fe8c49d	1.8185002
5	0x3f5bf75c	0.85924315
6	0x3ee98b51	0.45614102
7	0x3e814bd4	0.25253165
8	0x3f8e17e0	1.1101036
9	0x3ca737b8	0.020412311
10	0x3df7e261	0.12103725
11	0x3fefb61d	1.8727452
12	0x3cc00d3e	0.023443814
13	0x403498a0	2.8218155
14	0x3d1c55a3	0.038167607
15	0x3fb2d84a	1.3972256
16	0x3edf13da	0.43569833
17	0x41260388	10.375862
18	0x3e4030ec	0.18768662
19	0x3ec3f880	0.38275528
20	0x4007fbc4	2.1247416
21	0x3fafccba	1.3734353
22	0x3feb27e4	1.8371549
23	0x3ef46b83	0.47738275
24	0x40260934	2.5943117
25	0x3f297bae	0.66204345
26	0x408128c5	4.0362267
27	0x40198798	2.398901
28	0x3e13a02e	0.14416572
29	0x3fd08319	1.6290008
30	0x3ed15e19	0.40892103
31	0x3e0e5104	0.13898093
32	0x39026c8c	0.00012438203
33	0x3da9f0e2	0.08297898
34	0x3fc286f9	1.519744
35	0x3f0a36e5	0.5399001
36	0x3ee82677	0.45341846
37	0x404fd41d	3.2473214
38	0x3f4820b8	0.78174925
39	0x3ff6d857	1.9284772
40	0x3f8a154a	1.0787747
41	0x3eca9606	0.39567584
42	0x3fbce8a3	1.4758495
43	0x40cbe53d	6.371733
44	0x3ccbfafb	0.02489995
45	0x4031db1f	2.778999
46	0x3f6fc8ea	0.93665946
47	0x400c1f22	2.1894002
48	0x41219507	10.098884
49	0x40ab95d2	5.3620386
50	0x3e4515d8	0.19246614
51	0x3f7b4bd1	0.9816256
52	0x40503797	3.253393
53	0x3d7837e4	0.060600176
54	0x3f8fa931	1.1223508
55	0x3f29a7b3	0.66271514
56	0x3f6f367b	0.93442506
57	0x3d5cd255	0.053911526
58	0x4030512c	2.7549543
59	0x3fcd57b4	1.604239
60	0x3f61d10b	0.882096
61	0x3f0ccdbb	0.5500142
62	0x419f0a97	19.88017
63	0x3efd779e	0.49505323
64	0x41812ec6	16.147839
65	0x3f88e596	1.0695064
66	0x3dc6ef63	0.09713628
67	0x3fb600e4	1.4219022
68	0x40281b96	2.6266837
69	0x401b3c2b	2.4255474
70	0x3ff49f01	1.9111024
71	0x3ce0bc7f	0.027433632
72	0x3d5a2b74	0.053264096
73	0x4016e541	2.3577425
74	0x3e54baab	0.20774333
75	0x3f241425	0.6409324
76	0x3e201214	0.15631896
77	0x3f434a71	0.76285464
78	0x3d803e1b	0.06261846
79	0x3e2764fe	0.16347119
80	0x3f9aac2d	1.2083794
81	0x3fd05282	1.6275179
82	0x3fcffe40	1.6249466
83	0x3d57c0c3	0.052674066
84	0x3e04a087	0.12951861
85	0x411c7d82	9.780642
86	0x3f4cbb12	0.79972947
87	0x3c8fbbe9	0.017545657
88	0x3edd89c8	0.4326918
89	0x402782c2	2.6173558
90	0x3f02e97a	0.51137507
91	0x3f94a745	1.1613547
92	0x3d7e3f54	0.062072113
93	0x401555ba	2.3333573
94	0x3e795f8f	0.24352859
95	0x3e4cd3c9	0.20002665
96	0x3de9b50c	0.11411485
97	0x3e7deb22	0.24796727
98	0x3eea60e2	0.4577704
99	0x3f34a77b	0.70568055
100	0x3e8079be	0.25092882
101	0x3f83eecb	1.0307249
102	0x40d1cb8f	6.5560985
103	0x3e14f6fc	0.14547342
104	0x3fd8fecb	1.6952757
105	0x4055c8f1	3.3403895
106	0x3d5c10a1	0.053726796
107	0x40d693ec	6.705557
108	0x403ac4a4	2.918252
109	0x40abf995	5.3742166
110	0x40b41ae4	5.6282825
111	0x3eafbe2f	0.34324786
112	0x3f714ac9	0.9425474
113	0x4047c5c8	3.1214466
114	0x3c33e716	0.010980388
115	0x3e872c73	0.264011
116	0x3fbf9296	1.496661
117	0x3f6e8f58	0.93187475
118	0x3fa7f4b7	1.3121556
119	0x3e2bdac2	0.16782668
120	0x3d991595	0.074748196
121	0x400ffd02	2.2498174
122	0x40008cbc	2.0085897
123	0x3e35cbab	0.17753474
124	0x3d9a6fa7	0.07540827
125	0x3ed6591f	0.4186487
126	0x3fc6fa09	1.5545055
127	0x3f900384	1.1251073
128	0x4047ca57	3.1217248
129	0x3da77223	0.08176067
130	0x3f5821bc	0.84426475
131	0x3dd1145d	0.10208962
132	0x3dbac924	0.09120396
133	0x3ff252ea	1.8931553
134	0x40a67d49	5.2027936
135	0x3fb6f000	1.4291992
136	0x3f1f375c	0.62193847
137	0x3e92970c	0.28630865
138	0x40417d5f	3.023277
139	0x3ff2ea8e	1.897783
140	0x3d839edd	0.06426785
141	0x3fe971b0	1.823782
142	0x3d860024	0.065429956
143	0x3df9421e	0.12170814
144	0x3e784ab2	0.24247244
145	0x40f6e24c	7.715124
146	0x3f9aa5da	1.2081864
147	0x403bc24a	2.9337335
148	0x3d56e80d	0.052467395
149	0x3b81355a	0.0039431276
150	0x3c421611	0.011846081
151	0x3ddb917f	0.107211106
152	0x3a84462d	0.0010091715
153	0x3fe3d660	1.7799797
154	0x3efa50df	0.48889825
155	0x3e47e890	0.1952231
156	0x3f8fb746	1.1227806
157	0x4029089f	2.6411512
158	0x3df8a93e	0.121416554
159	0x3e919523	0.28434095
160	0x3d511fbb	0.05105565
161	0x3e35d273	0.17756061
162	0x3dcdc072	0.10046472
163	0x3c0c1ca1	0.008551748
164	0x3feb6a7c	1.8391871
165	0x3fc2c40c	1.5216079
166	0x3ddae162	0.106875196
167	0x3dbfdbf3	0.09368124
168	0x3f1e9561	0.61946684
169	0x3dcb23db	0.09918948
170	0x3ca796b3	0.020457601
171	0x3f0caa81	0.5494767
172	0x3dac08c5	0.0840011
173	0x3e8e251f	0.27762696
174	0x3f7eb51e	0.9949511
175	0x406633c4	3.5969095
176	0x3e9bb0cb	0.3040832
177	0x3d23ceb7	0.03999206
178	0x3e1c9a32	0.15293196
179	0x3ec8c837	0.39215252
180	0x41855e5b	16.671072
181	0x3f271395	0.65264255
182	0x3fea5151	1.8306066
183	0x3e4bba2c	0.19895238
184	0x3e68b609	0.22725691
185	0x403538ee	2.8315997
186	0x3dac7ea0	0.08422589
187	0x3e4b85c7	0.19875251
188	0x3f90a2d4	1.1299691
189	0x400d9b4b	2.2126033
190	0x411b1f73	9.695178
191	0x3fb70a24	1.429997
192	0x40cfc4ee	6.4927893
193	0x3db9e79a	0.090773776
194	0x3f6aff36	0.9179567
195	0x3e9012ee	0.28139442
196	0x3e8f40a0	0.27978992
197	0x4014f4c5	2.3274395
198	0x3dfaea70	0.12251747
199	0x3dd65e56	0.10467212
200	0x3e68683e	0.22696015
201	0x40b960e1	5.793076
202	0x407797b5	3.8686345
203	0x3fa8084e	1.3127534
204	0x4056b669	3.3548834
205	0x4094288a	4.6299486
206	0x3e853597	0.26017448
207	0x3d1f0431	0.038822357
208	0x3ebe1e71	0.371326
209	0x3f5f203f	0.8715858
210	0x3fcc44b0	1.5958462
211	0x3e1682bb	0.14698307
212	0x40abbd1f	5.366836
213	0x40638014	3.5546923
214	0x3f6ceb16	0.9254621
215	0x3dc888af	0.09791695
216	0x3f1e11a3	0.6174566
217	0x3f4e1550	0.8050127
218	0x3ecb7e38	0.39744735
219	0x3f87a1bb	1.0596231
220	0x401d888b	2.461459
221	0x3dd42643	0.1035886
222	0x4026f388	2.608614
223	0x3ccf3d71	0.025297852
224	0x3b8da385	0.0043224716
225	0x3e87539e	0.26430982
226	0x00000004	6e-45
227	0x3ddd34b3	0.10801067
228	0x3e11a032	0.14221266
229	0x3eab02ae	0.33400482
230	0x3d786e49	0.06065205
231	0x3fa6c5f2	1.3029158
232	0x3e877e31	0.26463464
233	0x3e263b6a	0.16233602
234	0x3fb1f741	1.3903581
235	0x4044d0af	3.075237
236	0x3fbc1638	1.4694281
237	0x403e3caa	2.9724526
238	0x00000004	6e-45
239	0x422b1cc3	42.778088
240	0x3f120097	0.5703215
241	0x40638f98	3.5556393
242	0x3fc0c749	1.5060817
243	0x3e895199	0.26820067
244	0x40ead4f3	7.338495
245	0x402c9066	2.6963134
246	0x408b27ca	4.348607
247	0x3e0c86cc	0.13723296
248	0x3e9c37c7	0.30511305
249	0x3e2fd5ff	0.17171477
250	0x40b2d8d0	5.5889664
251	0x40390e6e	2.8915057
252	0x3f38a566	0.7212738
253	0x411dc7ef	9.861312
254	0x40152111	2.3301432
255	0x3fc29c6a	1.5203984

fc1.weight f4 [256, 24]
0	0xbda0a2d5	-0.07843558
1	0xbc9e37d5	-0.019313732
2	0x3db38da7	0.087672524
3	0x3cfe28fe	0.031025406
4	0x3c67dfaa	0.014152447
5	0x3d2fe14b	0.042939465
6	0x3da19585	0.07889847
7	0x3d954d74	0.07290164
8	0x3d00bb07	0.031428363
9	0x3d3f7adf	0.04674804
10	0x3dda5e8f	0.10662567
11	0xbce6a159	-0.028153108
12	0x3b85358c	0.004065221
13	0x3def9a05	0.11699299
14	0x3e0c8fdd	0.13726754
15	0xbc389cb0	-0.011267826
16	0xbb7efac7	-0.00389068
17	0xbbc0af65	-0.0058802837
18	0x3d492f9c	0.04911767
19	0xbc940174	-0.0180671
20	0xbcb98138	-0.022644624
21	0x3e3c6e30	0.18401408
22	0x3d38c06a	0.045105375
23	0xbd15d093	-0.036575865
24	0xbd414749	-0.047187123
25	0xbe751944	-0.2393542
26	0x3cd983d0	0.02655211
27	0x3cb1e380	0.021714926
28	0xbd93d594	-0.07218471
29	0xbc87457c	-0.016512625
30	0xbd427f34	-0.04748459
31	0x3d843596	0.06455533
32	0x3d2fd671	0.042929117
33	0xbe38706f	-0.1801164
34	0x3d169139	0.03675959
35	0x3dc61f78	0.09673971
36	0x3dc8ccc9	0.09804685
37	0xbdac33bf	-0.08408307
38	0xbd1e6d9f	-0.03867876
39	0x3d8ff808	0.0702973
40	0x3b1d8978	0.0024038237
41	0xbcfe10d1	-0.031013878
42	0xbd1ace52	-0.03779442
43	0x3e040fb3	0.12896614
44	0x3e17553a	0.14778605
45	0xbdc3d728	-0.09562522
46	0x3c6462a7	0.013939536
47	0x3e030453	0.12794618
48	0x3cf15bf2	0.029462788
49	0x3e23aa09	0.15982832
50	0xbc8d2166	-0.01722784
51	0xbbb26574	-0.005444223
52	0x3e03e1c0	0.12879086
53	0xbd958cfc	-0.07302281
54	0x3c309173	0.010776865
55	0x3c597290	0.013271943
56	0x3d84fa79	0.06493086
57	0x3e0a456b	0.13503043
58	0x3c9b20e2	0.018936578
59	0x3d6b05c6	0.057378553
60	0x3e435604	0.19075781
61	0x3d8a1ddc	0.067439765
62	0xbc19e8d7	-0.009393892
63	0xbc88973d	-0.016673679
64	0x3d5a13b5	0.05324145
65	0x3e61d2ea	0.22053114
66	0xbc2012e5	-0.00977013
67	0xbbce04da	-0.0062871994
68	0x3e4700c0	0.1943388
69	0x3cf459e0	0.029828012
70	0x3d855b07	0.06511503
71	0x3c8651cd	0.016396428
72	0x3d657bd7	0.056026306
73	0xbdfbf082	-0.123017326
74	0x3caf367f	0.02138829
75	0x3e240626	0.1601797
76	0x3c9e913a	0.019356359
77	0x3db7fa2a	0.08983262
78	0xbd1701b2	-0.03686685
79	0x3e2bb912	0.16769817
80	0x3d48b8cf	0.049004372
81	0xbd45230b	-0.048129123
82	0xbcac5461	-0.021036329
83	0x3d927831	0.07151831
84	0xbd54aa6c	-0.05192034
85	0xbda4bec0	-0.08044195
86	0xbc01acee	-0.007914765
87	0x3c4ea04b	0.012611459
88	0x3db86f61	0.09005619
89	0xbd851dc0	-0.06499815
90	0x3d12a611	0.035802905
91	0x3d0d4325	0.034487862
92	0xbdab773f	-0.08372354
93	0xbe017871	-0.12643601
94	0x3dbeffe5	0.09326152
95	0x3d3ac7f7	0.045600858
96	0xba37e50d	-0.0007015027
97	0x3d7d4c67	0.06184044
98	0xbcf93baa	-0.030423958
99	0x3e05971b	0.13045923
100	0x3d760209	0.060060535
101	0xbbee7a5d	-0.0072777704
102	0x3caf9172	0.021431658
103	0x3e01cfb9	0.12676896
104	0x3d1787cb	0.036994737
105	0x3d53ee14	0.05174072
106	0xbc4edbba	-0.012625629
107	0x3e686e43	0.22698312
108	0xbbb060ef	-0.005382649
109	0xbd94c3c9	-0.072639056
110	0x3cb9a73b	0.02266275
111	0x3e404035	0.18774493
112	0xbd745317	-0.059649553
113	0x3e03e330	0.12879634
114	0xbd77ab01	-0.060465816
115	0xbd4cc3c0	-0.04999137
116	0xbce62a3d	-0.028096313
117	0xbd5a0290	-0.0532251
118	0xbd9885a4	-0.07447365
119	0x3b9eb3e3	0.0048432215
120	0xbba21200	-0.0049459934
121	0x3c08c123	0.008346829
122	0xbd182efd	-0.037154187
123	0x3dde5a6c	0.1085709
124	0xbdb63bac	-0.088981
125	0x3c297ccb	0.010344694
126	0x3c92b59d	0.017908866
127	0x3d36f7e3	0.044669997
128	0x3c3ec978	0.011644714
129	0x3cf3273b	0.029681792
130	0xbd48667d	-0.048925865
131	0x3d22777a	0.039664723
132	0xbdee1a3c	-0.116260976
133	0xbccfe5f0	-0.025378197
134	0xbc92b341	-0.01790774
135	0xbcf82fd5	-0.030296246
136	0x3dc85c6e	0.097832546
137	0xbda2685e	-0.07930063
138	0xbd1f658c	-0.038915202
139	0x3c71d997	0.01476135
140	0xbe303428	-0.17207396
141	0xbdb5d1f6	-0.088779375
142	0xbdaf6580	-0.085642815
143	0xbb2d1e1a	-0.0026415647
144	0xbd4ac356	-0.049502693
145	0xbe275909	-0.16342558
146	0xbd26a064	-0.040680304
147	0x3ce74c46	0.028234612
148	0x3e073dbb	0.13207142
149	0xbe4f7599	-0.20259704
150	0x3c8d841d	0.01727491
151	0x3d83a0e2	0.0642717
152	0xbcab7832	-0.020931337
153	0xbe4f35ba	-0.20235339
154	0x3c9dc1d7	0.01925747
155	0x3d8f1dfc	0.06988141
156	0x3dd9a01f	0.10626244
157	0xbe052b3d	-0.13004775
158	0x3bd35ddf	0.0064503993
159	0x3d288f6c	0.041152403
160	0x3c9f1db4	0.019423343
161	0xbe886920	-0.26642704
162	0x3c2ae6d4	0.01043101
163	0xbda8f3a9	-0.082495995
164	0x3cfac9ef	0.030613868
165	0xbde1470c	-0.10999879
166	0xbc3543fa	-0.01106357
167	0xbe023342	-0.12714866
168	0xbb80f9a6	-0.0039360104
169	0x3d4dbab4	0.050226882
170	0xbd4168c6	-0.04721906
171	0x3ccc592c	0.024944864
172	0xbe2acd0a	-0.16679779
173	0x3e08a4b9	0.13344087
174	0x3d44f0f2	0.048081346
175	0xbd6c9dc4	-0.057767645
176	0x3d1d52df	0.03840911
177	0x3d03b7aa	0.032157578
178	0xbc2bcb6e	-0.010485513
179	0x3d4af335	0.049548347
180	0x3db3f329	0.087866135
181	0xbd55b325	-0.0521728
182	0xbb370192	-0.002792452
183	0xbc8d2a60	-0.01723212
184	0xbd299bba	-0.041408278
185	0x3d097e5b	0.033567768
186	0x3d4af96b	0.04955427
187	0xbd56ea17	-0.05246934
188	0x3e799bdb	0.2437586
189	0xbe0ec032	-0.13940504
190	0xbd64f717	-0.055899706
191	0x3d3cbbe7	0.046077635
192	0xbdb7a166	-0.08966331
193	0x3db9196a	0.090380505
194	0x3cfc2dc1	0.030783536
195	0x3c8e104d	0.017341757
196	0xbe020613	-0.1269763
197	0xbdd87bc9	-0.10570485
198	0xbd222bff	-0.03959274
199	0x3dc1fada	0.09471674
200	0xbd9d09c6	-0.0766788
201	0x3c1be5ac	0.009515207
202	0xbc31f92f	-0.010862633
203	0xbd58a1b2	-0.05288858
204	0x3d122e86	0.0356889
205	0xbc115345	-0.008869951
206	0x3d74215a	0.05960212
207	0xba4c7e4d	-0.00078008027
208	0xbdcb7a1f	-0.09935402
209	0x3d99bdae	0.07506882
210	0xbd1eeb89	-0.038798843
211	0xbd0c59db	-0.03426538
212	0x3e1e42ff	0.15455244
213	0x3dd9e806	0.10639958
214	0x3ca017e8	0.01954265
215	0x3bb9d501	0.005671144
216	0x3ca78a95	0.020451823
217	0x3e099ddf	0.1343913
218	0xbc4ad42d	-0.012379688
219	0xbcb02704	-0.02150298
220	0xbbbe547f	-0.0058084126
221	0x3da8eb8f	0.08248054
222	0x3c40be83	0.0117641715
223	0xbc643c08	-0.013930328
224	0x3c58fad7	0.013243399
225	0x3e1ef571	0.15523316
226	0xbd123bf9	-0.035701726
227	0x3d417914	0.04723461
228	0x3c71c57f	0.014756559
229	0xbe0fdc17	-0.14048801
230	0x3d0d53a9	0.034503613
231	0xbd75dc1e	-0.060024373
232	0xbd11a156	-0.035554253
233	0x3e77a187	0.24182712
234	0xbb8102c6	-0.003937098
235	0x3d0afba8	0.033931404
236	0x3d7640f2	0.06012053
237	0xbf20480a	-0.6260992
238	0x3a2790f6	0.00063921453
239	0xbc17b966	-0.009260511
240	0x3e140747	0.14455901
241	0x3df20787	0.11817842
242	0xbc3b72c0	-0.011440933
243	0x3c8c145d	0.017099554
244	0x3a442f2d	0.00074838364
245	0xbe3ccf2a	-0.18438402
246	0x39a75031	0.0003191247
247	0xbd0a90ea	-0.033829607
248	0x3d8d5821	0.06901575
249	0x3d9a716d	0.075411655
250	0xbc8b9c01	-0.017042162
251	0x3d00ebdf	0.031474944
252	0xbde18dd9	-0.110133834
253	0x3da4c1fa	0.080448106
254	0x3cb6f2ab	0.02233251
255	0xbce1733a	-0.027520765

fc1.bias f4 [256]
0	0x3df211c2	0.11819793
1	0x3db330d0	0.087495446
2	0xbe367a96	-0.178202
3	0x3d2f37c0	0.042777777
4	0xbe7b507a	-0.24542418
5	0x3da30a9f	0.0796101
6	0x3d9768c4	0.07393029
7	0xbdeb3540	-0.11484766
8	0x3e07e76d	0.13271876
9	0xbd18716e	-0.03721755
10	0x3d008635	0.03137799
11	0xbe35c8d0	-0.17752385
12	0xbda2c049	-0.07946832
13	0x3c9ef19c	0.019402318
14	0x3d49d72c	0.04927747
15	0x3d975f99	0.07391281
16	0xbd96792e	-0.07347332
17	0x3dee477f	0.116347305
18	0xbdea7ef3	-0.11449995
19	0xbe9f4940	-0.31110573
20	0xbe733375	-0.23750098
21	0x3e64b36a	0.22334066
22	0x3da51be9	0.08061964
23	0xbd84f42f	-0.06491887
24	0xbca26dd3	-0.019827759
25	0x3cf39d52	0.029738102
26	0xbe6a104f	-0.22857784
27	0x3b9deef4	0.004819745
28	0x3dd19167	0.102328114
29	0xbd6a053c	-0.0571339
30	0xbe3fad73	-0.1871851
31	0xbcce15a5	-0.025156805
32	0xbea68980	-0.3252678
33	0xbc911637	-0.017710788
34	0xbe9d589d	-0.3073167
35	0xbd17477b	-0.036933403
36	0xbe853b31	-0.26021722
37	0x3d83ef4c	0.06442127
38	0xbdf94a52	-0.121723786
39	0xbe144337	-0.14478765
40	0xbe4e5662	-0.2015014
41	0xbd7d7a7f	-0.0618844
42	0xbc8e7a96	-0.017392438
43	0xbda59b4a	-0.0808626
44	0xbebe4d65	-0.37168422
45	0x3df3e132	0.11908187
46	0x3e31626b	0.173227
47	0xbe45c603	-0.19313817
48	0x3cb48204	0.022034653
49	0xbd4984da	-0.049198963
50	0xbe534e4f	-0.20635341
51	0xbe7f1274	-0.24909383
52	0xbcf45916	-0.029827636
53	0xbd2f273e	-0.042762034
54	0xbd0b1603	-0.03395654
55	0x3cbe0e36	0.023200136
56	0x3dc7b375	0.097510256
57	0xbe1f4c03	-0.1555634
58	0x3e2790cc	0.1636383
59	0xbe31fa94	-0.17380744
60	0xbd2e05e9	-0.042486105
61	0x3bb6cdc1	0.005578727
62	0xbe807759	-0.25091055
63	0xbd43456c	-0.047673628
64	0xbdb5f433	-0.08884468
65	0xbe7bedd8	-0.24602449
66	0xbeabd953	-0.33564243
67	0xbdc5e6e9	-0.09663183
68	0xbe25b071	-0.16180588
69	0x3dac2d92	0.08407129
70	0xbb1fa81c	-0.0024361676
71	0xbc4ded0a	-0.012568722
72	0xbeac2e1c	-0.3362893
73	0x3cc2cd2c	0.023779474
74	0xbe43a6d4	-0.19106609
75	0x3db90cac	0.0903562
76	0xbe314324	-0.17310768
77	0xbe96320e	-0.29335064
78	0x3c7234b4	0.014783073
79	0xbd1344b1	-0.03595418
80	0xbe53874e	-0.20657083
81	0xbe5ed5f9	-0.21761312
82	0xbe2d03ce	-0.16895983
83	0xbe1f8ba7	-0.15580617
84	0xbdc1ed80	-0.09469128
85	0xbe7676a7	-0.240687
86	0x3d71bf0b	0.059020083
87	0xbe4a3bc6	-0.19749364
88	0xbe8dd29c	-0.27699745
89	0xbc7dcb9b	-0.015490438
90	0xbd0466a6	-0.032324456
91	0xbd9e6409	-0.07733924
92	0xbeaf9f81	-0.3430138
93	0x3e72d69f	0.23714684
94	0xbe41d76a	-0.1892983
95	0x3d94105a	0.07229681
96	0x3e04c8a6	0.12967166
97	0xbdd38f17	-0.103300266
98	0x3b8c44af	0.0042806487
99	0xbd6d5ebe	-0.05795168
100	0xbe5cbc8a	-0.21556297
101	0x3df75192	0.12076105
102	0xbe32e9f5	-0.1747206
103	0x3af0f2c0	0.0018382892
104	0xbe57c9d0	-0.21073079
105	0x3da8ddbf	0.0824542
106	0xbc861bc6	-0.016370665
107	0xbd123bb9	-0.035701487
108	0xbddcc13f	-0.10779046
109	0xbd946dc2	-0.07247497
110	0xbded5c62	-0.11589886
111	0xbd055be5	-0.03255834
112	0xbe57dce1	-0.21080352
113	0xbe56bcc3	-0.20970444
114	0x3e213564	0.15743023
115	0xbe8ea590	-0.2786069
116	0xbe5320e0	-0.2061801
117	0xbdde83c5	-0.10864977
118	0x3d9627e0	0.07331824
119	0xbdc7c40a	-0.09754188
120	0x3cfd3bc5	0.03091229
121	0xbe73c940	-0.2380724
122	0xbb89843b	-0.0041966713
123	0x3b26e591	0.0025466422
124	0xbdb89dad	-0.09014449
125	0xbed36454	-0.41287482
126	0x3e01ad08	0.12663662
127	0x3da9f731	0.08299101
128	0x3db32c53	0.087486885
129	0xbc2304f0	-0.009949908
130	0x3b737368	0.0037147645
131	0xbe84e041	-0.25952342
132	0x3dfad2a8	0.12247211
133	0x3db44cb7	0.08803695
134	0xbd95453c	-0.07288596
135	0x37a1f19d	1.9305206e-05
136	0xbdb9a273	-0.09064188
137	0xbdc3f14d	-0.09567509
138	0x3e211e70	0.15734267
139	0xbae327d4	-0.0017330595
140	0xbe198c1d	-0.14994855
141	0xbbfa0970	-0.0076305196
142	0xbbc2a59d	-0.005940153
143	0x3bfa6dcd	0.007642484
144	0xbdd0954c	-0.10184726
145	0x3db91dfa	0.09038921
146	0xbe882227	-0.26588556
147	0xbe1c0f57	-0.15240227
148	0xbe63ee9e	-0.22258994
149	0x3d73af02	0.059493072
150	0x3ca8a4e3	0.020586437
151	0xbe2e4c71	-0.17021348
152	0x3d2ce56c	0.04221098
153	0x3d90c5b8	0.07068962
154	0x3e1d06f9	0.15334691
155	0xbbdd63cf	-0.006756283
156	0xbd980c9a	-0.074242786
157	0x3e85df6f	0.2614703
158	0x3cebe2c8	0.028794661
159	0xbe8cbe80	-0.2748909
160	0x3d0712ca	0.032976903
161	0xbe53ebda	-0.20695439
162	0xbeae5ccf	-0.34055182
163	0x3bb9e61a	0.005673182
164	0xbd84a2c4	-0.064763576
165	0xbe679647	-0.2261592
166	0xbdfcaf0e	-0.123380765
167	0xbe5f8792	-0.2182906
168	0xbeabb8bd	-0.33539382
169	0xbe4835a4	-0.19551712
170	0x3c9a1e6f	0.01881334
171	0x3e4403b1	0.19142033
172	0xbeb16d93	-0.3465391
173	0xbeea1ff1	-0.45727494
174	0x3d2dca31	0.042429153
175	0xbe7144c9	-0.23561396
176	0xbc8bdb1b	-0.017072251
177	0xbe541722	-0.2071195
178	0xbe4e680d	-0.2015688
179	0x3db21e88	0.086972296
180	0x3d105030	0.035232723
181	0xbd994ec3	-0.07485726
182	0x3e0d995a	0.1382803
183	0xbe6fbd3a	-0.23412028
184	0xbe2050c7	-0.15655814
185	0xbe22c060	-0.15893698
186	0xbe8e351e	-0.277749
187	0x3cefc2be	0.029267665
188	0x3d5c13d5	0.05372985
189	0xbcbca530	-0.023027986
190	0xbdc59c65	-0.096489705
191	0x3cd62a68	0.026143268
192	0x3dd20923	0.10255649
193	0xbc9b29eb	-0.018940886
194	0xbccab052	-0.02474228
195	0xbe8f677c	-0.2800864
196	0xbe2b4c20	-0.16728258
197	0xbe7ca7a3	-0.24673323
198	0xbe618ec8	-0.22027123
199	0xbdd70626	-0.104992196
200	0xbe5a5ed9	-0.21325244
201	0xbd91c11e	-0.07116912
202	0x3e526dee	0.20549747
203	0xbe84be62	-0.259265
204	0xbd24f3ba	-0.0402715
205	0x3e420ade	0.18949458
206	0x3d51e797	0.051246252
207	0x3d556a2f	0.052103218
208	0x3e02516b	0.12726371
209	0xbd8c453c	-0.06849143
210	0x3d45c06a	0.048279203
211	0x3d318224	0.043337002
212	0xbdd873de	-0.10568975
213	0xbd7bea7a	-0.06150291
214	0xbe502338	-0.20325935
215	0xbe2ca591	-0.16860034
216	0xbe3749d2	-0.17899254
217	0xbf00e373	-0.5034706
218	0xbe8cd84a	-0.27508765
219	0x3d02bc7c	0.031918034
220	0x3e13f3be	0.14448449
221	0x3dab522f	0.08365285
222	0xbd6c8d60	-0.057752013
223	0xbeb082ae	-0.344747
224	0xbe3d3dc0	-0.18480587
225	0xbdd9379a	-0.10606308
226	0xbde21bd5	-0.11040465
227	0x3e2f7363	0.1713386
228	0xbe54c16b	-0.20776908
229	0xbdafd02e	-0.08584629
230	0xbea2482f	-0.31695697
231	0x3d8dfc11	0.069328435
232	0xbdba16d0	-0.090863824
233	0xbecb66e7	-0.39726946
234	0x3e07729a	0.13227311
235	0xbc3da550	-0.011575058
236	0xbe901c23	-0.28146467
237	0x3e251374	0.16120702
238	0xbe18dda8	-0.14928305
239	0x3dbb532e	0.09146725
240	0xbd9bf823	-0.07615688
241	0x3e5d0e81	0.21587564
242	0xbe8f631c	-0.28005302
243	0xbd26135d	-0.04054581
244	0x3de1e4e2	0.11029984
245	0xbe08ff11	-0.1337855
246	0xbd61674a	-0.055030145
247	0xbb9a2200	-0.00470376
248	0xbe6e2542	-0.232564
249	0x3c8a4b43	0.01688159
250	0xbdf9d295	-0.121983685
251	0x3e278da9	0.16362633
252	0x3d73ea1f	0.059549447
253	0xbc97b01a	-0.018516589
254	0xbdb05bb5	-0.08611242
255	0xbd7b3a3f	-0.061334845

fc2.weight f4 [128, 256]
0	0xbd6709cf	-0.05640584
1	0xbdc0e889	-0.094193526
2	0x3e052080	0.13000679
3	0xbd902c85	-0.070397414
4	0x3dbefa39	0.0932507
5	0xbd6e7446	-0.058216356
6	0xbd3de457	-0.04636034
7	0x3de3876b	0.11109813
8	0x3d1dc7bf	0.03852057
9	0xbda27e86	-0.07934289
10	0x3d8315e5	0.064006604
11	0x3d378250	0.04480201
12	0xbca60300	-0.020265102
13	0x3d78366b	0.060598772
14	0xbe579011	-0.2105105
15	0x3e0d340d	0.13789387
16	0xbc19e1dd	-0.009392229
17	0x3cecac0d	0.028890634
18	0x3c30950c	0.010777723
19	0xbdbb907c	-0.091584176
20	0x3e5a39b4	0.21311074
21	0xbc652573	-0.013985979
22	0xbe108d65	-0.14116438
23	0xbda1b829	-0.07896454
24	0xbd828209	-0.063724585
25	0xbc0fb924	-0.008772168
26	0xbbd73092	-0.0065670693
27	0x3e2461d5	0.16052945
28	0xbd816103	-0.06317332
29	0x3dc81977	0.09770482
30	0x3e021e95	0.12706979
31	0x3b9b32f6	0.0047362996
32	0x3c2f77b7	0.010709695
33	0xbdaf27f3	-0.085525416
34	0x3e166d0a	0.14690033
35	0xbe056643	-0.13027291
36	0xbd659982	-0.0560546
37	0x3dca066c	0.09864506
38	0x3e0f423c	0.1399011
39	0xbda034b5	-0.07822553
40	0xbe0b7aac	-0.13621014
41	0x3e01096b	0.12601249
42	0x3d998e9d	0.074979044
43	0x3cf19f41	0.029494883
44	0xbe26d0e9	-0.1629063
45	0x3e01cd84	0.12676054
46	0x3dec2598	0.11530608
47	0x3c11c76c	0.008897644
48	0xbe115e79	-0.14196195
49	0x3b87b556	0.00414149
50	0x3d4c34c6	0.049855016
51	0x3ce93ad0	0.028470427
52	0xbdd42192	-0.103579655
53	0xbda6ca0f	-0.08144008
54	0xbc1781b6	-0.009247234
55	0x3da23e0b	0.0792199
56	0x3e79047d	0.24318118
57	0x3d7c474a	0.061591424
58	0x3e0a1adb	0.13486807
59	0x3c06a524	0.0082180835
60	0xbe2ea31c	-0.17054409
61	0x3da569ba	0.08076806
62	0xbd73c253	-0.059511494
63	0xbe0b8cec	-0.13627976
64	0x3b801dcb	0.0039098016
65	0x3daa5978	0.08317846
66	0x3cfe995e	0.03107899
67	0xbb8fa29e	-0.004383399
68	0x3dcb439b	0.09925004
69	0x3c88a0a2	0.016678158
70	0xbd083c92	-0.03326089
71	0xbe9bdf87	-0.30443975
72	0x3e3c0925	0.18362863
73	0xbc2957cc	-0.010335874
74	0x3d7a0368	0.061038405
75	0xbc7336bb	-0.014844592
76	0x3b71e134	0.0036907913
77	0x3d2e501a	0.04255686
78	0x3d0417dd	0.03224932
79	0x3e263b1c	0.16233486
80	0x3d3b647a	0.04575012
81	0xbd94ffbd	-0.07275341
82	0x3c8148fe	0.015781876
83	0x3dbe62c9	0.092961855
84	0x3d589c77	0.05288359
85	0x3db018f2	0.08598508
86	0xbd9a6cee	-0.07540308
87	0xbdcc475b	-0.099745475
88	0x3e103b97	0.14085232
89	0x3a605708	0.00085578905
90	0xb9b90df5	-0.00035296349
91	0x3e182ca5	0.1486078
92	0xbda3e0cc	-0.08001861
93	0xbc6b0d0f	-0.014346375
94	0x3db16773	0.086623095
95	0xbe447f69	-0.19189228
96	0xbda4fa4d	-0.080555536
97	0xbb8cc5f4	-0.004296059
98	0x3e30fe82	0.17284587
99	0x3d5fa87b	0.054604035
100	0xbcb896ce	-0.022532847
101	0xbd61b74c	-0.055106446
102	0x3d4bfb4e	0.04980021
103	0xbd778a56	-0.06043466
104	0xbdd9cc76	-0.10634701
105	0xbe0114af	-0.12605546
106	0x3c25a26b	0.010109524
107	0x3c064cd4	0.008197028
108	0x3e22f365	0.1591316
109	0xbd9cd6ea	-0.07658179
110	0xbd041c43	-0.032253515
111	0xbd1db21b	-0.038499933
112	0xbd8d930c	-0.069128126
113	0xbe38ddf8	-0.18053424
114	0xbd25a885	-0.040443916
115	0x3e3aa8e2	0.18228486
116	0x3d895d7f	0.06707286
117	0x3e8c10d0	0.27356577
118	0x3d1e4996	0.038644396
119	0x3dab225c	0.08356163
120	0x3dd7fc93	0.105462216
121	0xbbc44031	-0.0059890975
122	0xbd0cc723	-0.0343696
123	0x3e079efd	0.13244243
124	0xbd9fc8e4	-0.07801989
125	0x3e4e3460	0.20137167
126	0x3d7087c5	0.05872323
127	0x3c9a9021	0.018867554
128	0x3ce5c0ae	0.028045978
129	0xbdc5c758	-0.096571624
130	0x3d282b35	0.04105683
131	0x3dbf92d7	0.09354179
132	0x3d17cc35	0.03705998
133	0x3c0c7136	0.0085719135
134	0xbd6f0690	-0.058355868
135	0xbd0e9c47	-0.034817006
136	0x3d76ae3f	0.060224768
137	0x3b9615cf	0.0045802365
138	0xbd121db2	-0.03567285
139	0xbe0b6d96	-0.13616022
140	0xbde3ecc7	-0.11129146
141	0x3c97d7a9	0.018535452
142	0xbe2b9503	-0.16756062
143	0x3e1cddf6	0.15319046
144	0xbe137547	-0.14400207
145	0xbd014f4a	-0.031569757
146	0xbdeff69c	-0.11716959
147	0x3e16975c	0.14706177
148	0x3cbb73b9	0.02288233
149	0x3d3da4d5	0.046299774
150	0xbc83253d	-0.016008968
151	0xbd0392a7	-0.03212228
152	0xbc693da1	-0.014235885
153	0xbdc3a757	-0.09553402
154	0x3c8dd484	0.01731325
155	0x3d9703f2	0.073737994
156	0xbda62ea9	-0.081143685
157	0x3cf17dda	0.029478956
158	0x3dd9deb4	0.106381804
159	0xbe3472dc	-0.1762194
160	0xbb027b88	-0.0019910056
161	0x3d90048d	0.07032118
162	0x3e763441	0.24043371
163	0x3d97319f	0.07382511
164	0x3d2733a2	0.040820725
165	0x3e2d2783	0.16909604
166	0xbd9193c8	-0.07108265
167	0x3c99cc6f	0.01877424
168	0xbcb1deca	-0.02171268
169	0x3b808f6f	0.0039233486
170	0xbde3c20a	-0.111209944
171	0x3d8905df	0.06690573
172	0xbdca6be2	-0.09883858
173	0x3dee9005	0.11648563
174	0xbe12c3be	-0.14332482
175	0xbdcee4c0	-0.10102224
176	0xbe2f9d40	-0.1714983
177	0x3e9a9200	0.30189514
178	0xbe724b74	-0.23661596
179	0x3d935377	0.07193654
180	0xbb9f4056	-0.0048599644
181	0xbc88da7c	-0.016705744
182	0x3ddf96a0	0.10917401
183	0x3d2a917e	0.04164266
184	0x3d148e98	0.0362688
185	0x3df11e8a	0.11773403
186	0xbdb14984	-0.086566
187	0x3df00e9f	0.11721539
188	0x3cb2eead	0.021842325
189	0x3cf06bbe	0.02934825
190	0x3d0234d6	0.03178867
191	0x3dacbfc2	0.084350124
192	0x3b9522cf	0.0045512686
193	0xbdb83acb	-0.08995589
194	0x3de014dc	0.109414786
195	0x3d9a4d7b	0.075343095
196	0xbd82ce58	-0.06387013
197	0x3df25c01	0.118339546
198	0x3e3d268b	0.18471734
199	0x3de96414	0.113960415
200	0xbdf3f108	-0.119112074
201	0x3cf0615c	0.0293433
202	0xbe2dc1ef	-0.16968511
203	0x3c793186	0.015209561
204	0xbc99a196	-0.018753808
205	0xbd208bf1	-0.03919596
206	0xbc915f2a	-0.017745573
207	0xbc7e3a43	-0.01551682
208	0xbe0ba2cd	-0.13636322
209	0x3e347ff8	0.17626941
210	0x3dcafbf1	0.09911335
211	0x3e03e8e9	0.12881817
212	0x3daca338	0.08429569
213	0x3d2d3c6c	0.04229395
214	0x3bfde29e	0.007747962
215	0x3d6edb46	0.058314584
216	0xbe62b1f3	-0.22138195
217	0x3cd14a24	0.025548048
218	0xbb8159b0	-0.003947459
219	0x3d2d4f5d	0.042312015
220	0xbcce9be7	-0.025220824
221	0xbe35c434	-0.17750627
222	0x3d50fdf6	0.051023446
223	0x3d8ed068	0.06973344
224	0xbddf5a03	-0.1090584
225	0xbdf9c70f	-0.121961705
226	0x3e7a3a24	0.24436241
227	0x3e099cdf	0.13438748
228	0x3ba91e21	0.0051610623
229	0x3b889389	0.004167978
230	0x3a88f2cc	0.0010448336
231	0xba33aee2	-0.00068543677
232	0x3d142a82	0.03617335
233	0x3d09f5c9	0.033681665
234	0xbce4bd2b	-0.027922234
235	0x3d982255	0.07428423
236	0xbe3dc1fa	-0.18531027
237	0x3dc0a154	0.09405771
238	0x3eac6e7a	0.33678037
239	0xbd1622a5	-0.036654133
240	0x3d7636bc	0.060110793
241	0xbdf237f9	-0.11827082
242	0xbe069f51	-0.13146712
243	0x3e097609	0.13423933
244	0x3e06e071	0.13171555
245	0xbd3ef184	-0.046617046
246	0x3d47eb15	0.048808176
247	0xbe35e4a9	-0.17763008
248	0x3da25ec5	0.07928232
249	0x3d631b77	0.055446114
250	0xbd3e796f	-0.046502527
251	0x3e1ae6ce	0.15127108
252	0x3da311a7	0.07962351
253	0x3de50f1a	0.11184521
254	0x3d66a828	0.05631271
255	0xbdd2e8c3	-0.10298302

fc2.bias f4 [128]
0	0xbdc53623	-0.096294664
1	0x3cc45fd3	0.023971474
2	0x3d38eb67	0.045146372
3	0xbdd9db61	-0.10637546
4	0x3d08fedc	0.033446178
5	0x3d161587	0.036641624
6	0x3d250fe2	0.04029835
7	0xbcca569d	-0.024699504
8	0x3ba209ec	0.0049450304
9	0xbcb1b4e2	-0.021692697
10	0xbe0002ad	-0.1250102
11	0xbdef8912	-0.11696066
12	0x3cbbbe67	0.02291794
13	0xbe424562	-0.1897178
14	0xbd23ae70	-0.03996128
15	0xbc995ee8	-0.018722013
16	0xbcedc94e	-0.029026654
17	0xbd03d0cc	-0.032181546
18	0xbd2d0c7f	-0.042248245
19	0xbafc438a	-0.0019246202
20	0x3bed4b6c	0.007241657
21	0xbd4bec03	-0.049785625
22	0xbe5d7d60	-0.21629858
23	0xbd858758	-0.065199554
24	0xbe461a75	-0.1934603
25	0xbd12a0b1	-0.03579778
26	0xbc27f106	-0.010250336
27	0x3d88008f	0.066407315
28	0x39f4098e	0.00046546425
29	0x3e019a34	0.1265648
30	0x3c13519f	0.008991628
31	0xbbaf8803	-0.00535679
32	0xbd0168a9	-0.031593952
33	0x3c45601a	0.012046838
34	0xbdbb14f5	-0.091348566
35	0xbce8d722	-0.028422896
36	0x3d41e1d9	0.047334526
37	0xbe10f21c	-0.14154857
38	0x3d8fe7c6	0.07026629
39	0xbd71d2a7	-0.059038784
40	0x3dd17ae4	0.10228518
41	0x3e074924	0.13211495
42	0xbe8004c4	-0.25003636
43	0x3d7ddf73	0.061980676
44	0xbded7db5	-0.11596242
45	0xbe31f8f1	-0.1738012
46	0xbd9dd012	-0.07705702
47	0xbd4619be	-0.048364393
48	0x3e2e6b7c	0.1703319
49	0xbd6f2a6f	-0.058390077
50	0xbe591226	-0.2119833
51	0x3df03304	0.117284805
52	0x3c87bd22	0.016569678
53	0xbd3ad4d6	-0.045613132
54	0xbd86efba	-0.06588693
55	0x3e53ac60	0.20671225
56	0x3d9074af	0.07053506
57	0xbcaa6918	-0.020802066
58	0xbcaa53ff	-0.020792006
59	0xbe3b8a04	-0.18314368
60	0x3ccaa01c	0.02473455
61	0xbe1212f2	-0.1426504
62	0x3d173f4a	0.03692559
63	0x3d445696	0.047934137
64	0x3e055323	0.13019995
65	0x3d645c54	0.055752113
66	0x3d20cda4	0.039258614
67	0xbd277a0c	-0.040887877
68	0x3dad4191	0.084597714
69	0x3ac450d4	0.0014977702
70	0xbdde53bc	-0.10855815
71	0x3c292c4f	0.010325505
72	0xbdb86000	-0.090026855
73	0xbcb792ed	-0.022408927
74	0x3cad779f	0.021175204
75	0xbd9c73f0	-0.07639301
76	0x3d3d5c36	0.046230517
77	0xbd10a0e2	-0.03530968
78	0x3d6b05d4	0.057378605
79	0xbcceb7c0	-0.025234103
80	0x3e21c676	0.15798363
81	0x3d9a49a6	0.075335786
82	0xbd9f2667	-0.077709965
83	0x3dbf7328	0.09348136
84	0xbd61ee4c	-0.0551589
85	0x3d793d5b	0.06084953
86	0xbde6483d	-0.11244247
87	0xbe0afcaf	-0.13572954
88	0xbc84386f	-0.01614019
89	0xbba3226d	-0.004978469
90	0xbd23b512	-0.039967604
91	0xbdbc8791	-0.09205545
92	0x3cea76b4	0.028621055
93	0x3aae2df1	0.0013288838
94	0x3d1f491f	0.038888093
95	0xbd3e284c	-0.04642515
96	0x3ccde91a	0.025135566
97	0xbe21cf3b	-0.15801708
98	0xbe9262ff	-0.28591153
99	0xbd075df4	-0.033048585
100	0x3d0c519a	0.03425751
101	0x3d01e91c	0.03171645
102	0x3cb0e1c2	0.021592025
103	0xbd0a9ad6	-0.03383907
104	0x3d41a6c2	0.047278173
105	0x3d2c838b	0.042117637
106	0xbe61aade	-0.22037837
107	0x3e1b9bef	0.15196203
108	0xbd2f17f2	-0.042747445
109	0xbccf8b0f	-0.025334863
110	0xbd48f364	-0.04906024
111	0xbd718056	-0.05896028
112	0xbd37c019	-0.044860933
113	0xbd4e0104	-0.050293937
114	0xbdd13649	-0.10215432
115	0xbdc8f1ec	-0.09811768
116	0x3db12485	0.08649544
117	0xbe05ed6c	-0.1307885
118	0xbca4e670	-0.020129412
119	0xbdaf4d4e	-0.085596666
120	0xbd470472	-0.048588224
121	0x3bc2eedf	0.005948886
122	0xbd298210	-0.041383803
123	0xbe13f759	-0.14449824
124	0x3d9e9e3a	0.07745023
125	0x3d4cac01	0.049968723
126	0xbceaae7f	-0.02864766
127	0x3e7604c3	0.24025254
